saved_models/pole_DQN/train_DQN_pp_1/online_net.pth (torch, 5672 bytes, 4 tensors)

fc1.weight f4 [128, 4]
00000000: 9d4c 263e 69ee b43e 2c3f e23d 505d 83be
00000010: 27b4 963f 6042 9b3d 8361 26c0 1049 93bf
00000020: 929d 7f3e 08aa 83bd 1903 6c3e 39c2 333a
00000030: c2c9 973e c600 30be 231a 8e3e 5399 d8bc
00000040: 71a9 d23e 7bc6 79bd 8055 b03d 89f4 1f3e
00000050: e19f 863e 4e0e 73be 989a 8f3e 6e84 ae3c
00000060: 7a2d 293f be60 0d3e aba5 42bd eec9 3c3d
00000070: 7b0f 3b3f c1f0 793e 3d8e ddbe 69ee f1be
00000080: 7658 e53d 42c7 0cbe 801b 1cbe 1e2f 803d
00000090: 8bf7 163f b632 2d3e cbf0 fd3c ac27 833d
000000a0: 6375 c0bf e1c3 653e 5d60 2240 1e91 8b3f
000000b0: b1e9 a23f 9623 433e 757a 2fc0 1f5b 8bbf
000000c0: d1d6 4e3e c1ec 47be b67b 3e3d 14d1 9cbb
000000d0: 0402 2b3e 6bc7 4ebe aeb1 b5bd 4754 6a3d
000000e0: 8489 873f 9874 4cbd 2e95 20c0 1916 9abf
000000f0: 7f10 dcbf 15b4 cbbd 167f 1b40 6743 a63f
00000100: 8196 a13f 77c0 013e c23f 23c0 0155 8fbf
00000110: cb74 943f c24d 613e 9dc4 02c0 8d92 fbbe
00000120: 07e7 933f 0b81 38bd a8a6 1dc0 8d08 90bf
00000130: 31fa 853d 27f0 8a3e a04c dabd f0da bcbe
00000140: 1fe6 db3e b72a e43d 10bd 453e 3b4c b8bb
00000150: 5279 e73e 96dc 6dbd 58bc a2bb ca23 c03d
00000160: 1c25 dd3d ab7b d9bd 30e6 343d 2cbe e7bd
00000170: 8318 9c3e a866 f7bc 33dc ca3d a718 40be
00000180: 64a2 373e 7a9d 03be b78e 773d fcea 3fbd
00000190: 2dbc 69be 79f7 1f3f 2ed2 e8bd 7e50 0abf
000001a0: f99c 7f3e 4e7b a43e fd7c 1c3e 13fc dcbe
000001b0: 1828 4e3e 84ed 3e3e 775f e83d 90a7 b8be
000001c0: 8400 bcbd e55b 11bd f4e4 113e 61e9 56bd
000001d0: 7bd2 2e3b 9287 513e 2870 033e 8521 4abe
000001e0: 6b13 c93e be26 a83e 22c4 df3e ff9d aa3d
000001f0: e066 edbf 5950 fbbd 6b80 0340 1288 8f3f
00000200: bf69 9a3e f5d9 41be 8445 f33d 356c ca3e
00000210: ec5b 073e a766 a9bd c42b 063e e26b ee3c
00000220: 8382 113e cc14 4dbe 1278 933e 0868 10be
00000230: 0236 343d a70e b33d 83b7 f33c 2544 253e
00000240: 76ab 233e c413 4c3e 2fc8 313e e835 f23d
00000250: 9133 263f 7ec8 b33e d381 cbbe 00df b7be
00000260: 9811 f23d 607c 6b3d 714e b13d a163 dd3d
00000270: 241d b13f 7e00 34bd 918d 2ac0 6c13 99bf
00000280: fd87 c63d 3d82 503c ea2c 6c3e e19b 7cbd
00000290: dc97 fe3d c2e0 45bd 9ef8 713c 8eb8 f93c
000002a0: 666d f73e b922 c23e 881f 93be c30f ddbe
000002b0: 1065 293e ef0f c83e 20f0 7cbe 18b0 ddbe
000002c0: c5d2 6dbd 601a 44bc 400d f93c 57d4 c6bc
000002d0: f06f 103f 3bff 94be 1147 dc3e f522 be3e
000002e0: 7b99 a4be c0be d83e 1df6 2a3e 4609 08bf
000002f0: b241 863e 94ef 6dbe 066b 2cbe 8971 873d
00000300: 247d 413e 28e4 ecbd 5b04 713d 1e98 93bc
00000310: 9694 a53e 3a9a 59be 21ce f3bc 822b 833d
00000320: ce83 4a3e 9366 03be 2030 65bd ddfb 043e
00000330: 81af b63f a9d5 2a3e f3bc 25c0 1f84 9cbf
00000340: 5391 8a3e 1c4b 46be 952d 00be 46a7 66bc
00000350: e9f2 83bd 2f21 353d 22e7 003e 0d27 ed3d
00000360: 4610 f73e 2c03 9d3c ef12 34bd 0084 833c
00000370: 2cf0 913f 8007 b9bd c1ed 2cc0 7e3e 80bf
00000380: 1b50 013f afcf 2abd 653f 693e f24c 45be
00000390: e6c1 bebd e2af e23e 549a ad3e e945 8cbe
000003a0: 7036 0b3f 3dec 283e 418e b0be 8690 d6be
000003b0: a844 123f 6e17 913d 740c a73e c68b 213d
000003c0: bc10 1a3d 2dd1 c33d be53 5fbe 4ae3 e43d
000003d0: 81dd f63d 08b3 46be 15bd 313e 10cb 51be
000003e0: d7b8 143e 7f34 273d 3a94 49be 7787 f73d
000003f0: 3f6d d53d 4d30 743c 60eb 603e 05f1 223e
0.16240163 0.35338143 0.11047205 -0.2565713 1.1773728 0.075810194 -2.5997016 -1.1506672
0.24962452 -0.06428915 0.23048057 0.00068572495 0.29646116 -0.17187795 0.27754316 -0.026440298
0.411449 -0.0609803 0.08610058 0.15620627 0.26293853 -0.23735926 0.28047633 0.021303382
0.66085017 0.13806435 -0.047521275 0.046091013 0.73070496 0.24408247 -0.43272582 -0.47252205
0.11198513 -0.13747886 -0.15244865 0.06258987 0.5897147 0.16913876 0.030998608 0.06404051
-1.5035824 0.22438003 2.5371315 1.0903661 1.2727567 0.19056544 -2.7418492 -1.0887183
0.20199133 -0.19523908 0.0465047 -0.0047856662 0.16699988 -0.2019326 -0.0887178 0.05720928
1.0588841 -0.04991588 -2.5091052 -1.2037994 -1.7192534 -0.09946457 2.4296317 1.298932
1.2624055 0.12671076 -2.5507665 -1.1197816 1.1598142 0.22002319 -2.0432503 -0.49135247
1.1554879 -0.04504494 -2.463297 -1.125261 0.06541861 0.27136347 -0.10659146 -0.36885786
0.42949006 0.1114096 0.19310403 -0.0056243218 0.45209748 -0.058071695 -0.0049663 0.09381826
0.10798094 -0.10619291 0.044164836 -0.11315569 0.3048745 -0.030200318 0.09905281 -0.18759404
0.17933041 -0.12853041 0.060438838 -0.046854958 -0.2282569 0.6248699 -0.113682136 -0.5402907
0.24962224 0.32125324 0.15282054 -0.43161067 0.20132482 0.18645293 0.113463335 -0.3606534
-0.09179786 -0.035488028 0.14247495 -0.05246866 0.002667575 0.20461872 0.12835753 -0.19739349
0.39272627 0.32842058 0.43704325 0.083309166 -1.854702 -0.122711845 2.054713 1.12134
0.30158803 -0.189308 0.118784934 0.3953568 0.13218659 -0.082715325 0.13102633 0.029104177
0.14209943 -0.20027465 0.28802544 -0.14102185 0.04399682 0.08743029 0.029750591 0.16139276
0.15983376 0.19929415 0.1736152 0.11826688 0.64922434 0.351139 -0.39747486 -0.35912323
0.11819762 0.05749166 0.0865754 0.10810018 1.3837018 -0.043945782 -2.6648905 -1.1959052
0.096939065 0.012726364 0.23064008 -0.061672095 0.124313086 -0.04831005 0.014768748 0.03048351
0.48325652 0.37917116 -0.28734994 -0.43176088 0.16542459 0.39074656 -0.24700975 -0.4329841
-0.058062334 -0.011969179 0.030401826 -0.024271173 0.56420803 -0.29100975 0.4302297 0.37136045
-0.32148346 0.4233303 0.16695447 -0.5313915 0.26221997 -0.23235923 -0.16837701 0.06613452
0.18895394 -0.11566955 0.058842044 -0.018016871 0.32339925 -0.21250239 -0.029761376 0.06404783
0.19776842 -0.12832098 -0.0559541 0.12986703 1.427231 0.16683067 -2.5896575 -1.222782
0.27064 -0.1936459 -0.12517388 -0.014077967 -0.06442816 0.0442211 0.1258817 0.11579714
0.48254603 0.019166552 -0.04396337 0.016054153 1.140142 -0.09034634 -2.7020113 -1.0019071
0.50512856 -0.04170197 0.2277809 -0.19267634 -0.09314327 0.44274813 0.33906806 -0.27397087
0.5437994 0.16496368 -0.3448353 -0.41907138 0.5713601 0.07084547 0.32626688 0.03943994
0.037613615 0.095613815 -0.21809289 0.111761644 0.12053967 -0.19404233 0.17357285 -0.20487618
0.14523636 0.04082155 -0.1968545 0.12086385 0.10421228 0.014904094 0.21964788 0.15912254

fc1.bias f4 [128]
00000000: 2c0c 203f 31c2 483e 00e9 313f 1120 493f
00000010: 8a97 463f 65b1 403f 6cb1 273f 9d7a 5e3f
00000020: 0580 e9be eb33 5a3f 51aa bfbe e57b a6be
00000030: be86 d5be 7abf 503f 0db8 943e dd91 dfbe
00000040: f81d 6abe 086f bfbd 08f9 5a3e 03e7 2c3f
00000050: ac5a 103f bb53 f53e 5b14 563f 6630 813f
00000060: 9a3d c5be 9d8c 9bbf 81f0 443f 44b1 1e3f
00000070: 48ca ebbe 9240 ee3e 47d7 3fbe c24c b3be
00000080: a69c 28bf 8404 483f 1c3c 4a3f 0315 363f
00000090: 27a0 d3be 8782 513f c5c6 793f 22ad 383e
000000a0: 488d 6d3f 5aff 9dbe 9857 5e3f 8dc3 583f
000000b0: 0c33 9dbe 0232 73be 2708 85bf 1864 263f
000000c0: 377e 383f 55be 1e3f 7466 353f b6d4 acbe
000000d0: d97e 203f be94 a3be 7309 5e3f d0db 68be
000000e0: c8a2 833f 1115 293f c19a 373f 3aea 813f
000000f0: 614f 46be 901e 293f 10ee b0be 4e56 333f
00000100: 60f6 a0be 0efc 7b3f 4b1c 7e3e aded 1c3f
00000110: 129e a1be e788 253f 603d d8be a01a eabe
00000120: 7f1f 0b3f 4761 4d3f 4138 3f3f 02fc efbe
00000130: 1ea9 673f dca6 f7be 1829 afbe 5311 3a3f
00000140: cdfc 4fbe 07fe 533f 79a7 263f 5227 c1be
00000150: 1379 633f 2f78 443f cee5 53be 131b 483f
00000160: 6fd0 633f cd57 2b3f babb 5f3f 2c32 2d3f
00000170: 51cd 313e a57c a1be 7468 223f 913a 833f
00000180: d9dc c73e 07d3 003e 898d 2f3f 0f6a 553f
00000190: 9df0 6a3f 1e8f 743f 6aab 543f d071 83be
000001a0: 1f55 2d3f 84dd d3be d80e 69be e31f 2f3f
000001b0: 692b e4bc 54d3 193f 8362 453f efa5 353f
000001c0: cd0b 4a3f 367e 453f 21af 353f c6f3 c5be
000001d0: 2a0e 783f 8b1a 1f3f 7e81 2a3f 668a f2be
000001e0: 489e 3b3f 7adb 343f 38f3 7e3f 47b5 d7be
000001f0: f4a7 0b3f 68d8 193f e060 463f a0e9 9bbe
0.6251857 0.19605328 0.69496155 0.78564554 0.7757498 0.7527068 0.655051 0.86905843
-0.45605484 0.8523547 -0.3743463 -0.325164 -0.41704363 0.8154217 0.2904667 -0.43665972
-0.22862995 -0.093473494 0.2138406 0.67539996 0.56388354 0.47915444 0.8362481 1.0092895
-0.3852356 -1.2152287 0.7692948 0.61989236 -0.46052766 0.46533638 -0.18734466 -0.350195
-0.65864027 0.7813189 0.7899797 0.7112581 -0.41333124 0.81839794 0.97568923 0.18034795
0.92793703 -0.3085888 0.8685241 0.84673387 -0.30703008 -0.23749545 -1.0393113 0.6499648
0.7206759 0.62009174 0.70859456 -0.33756036 0.62693554 -0.3194942 0.8673317 -0.22740102
1.0284052 0.6604777 0.7172051 1.0149605 -0.19366218 0.6606226 -0.34556627 0.70053566
-0.3143797 0.9843148 0.2481548 0.61300164 -0.3156591 0.6466202 -0.42234325 -0.45723438
0.54344934 0.8022656 0.7469521 -0.46871954 0.9049243 -0.4836949 -0.3421104 0.72682685
-0.2031128 0.8280949 0.65099293 -0.37725312 0.8885662 0.76745886 -0.20693132 0.7816631
0.8898992 0.6693085 0.87395823 0.6765468 0.17363478 -0.3154041 0.6344063 1.0252248
0.3903568 0.125805 0.6857534 0.8336496 0.91773397 0.9553088 0.8307406 -0.2567277
0.6770801 -0.4137994 -0.22759569 0.6840803 -0.02785273 0.60088086 0.7710344 0.7095632
0.78924257 0.7714571 0.7097035 -0.38662547 0.9689661 0.62149876 0.6660384 -0.47371215
0.73288393 0.70647395 0.9958987 -0.4213049 0.5455315 0.60095835 0.7749157 -0.3045168

fc2.weight f4 [2, 128]
00000000: 94c1 373f 4bb9 b4bf 0f18 c73e aa00 213f
00000010: 280f 283f d6f4 b43e c127 0c3f a820 443f
00000020: c6be 383e 1167 e33e 4701 f7bf 70eb dbbf
00000030: d37b 473d e146 923e 8087 93bf 6c63 d3bf
00000040: 9ca9 c0bf e6a5 9bbf 2fa2 c7bf d325 443f
00000050: b860 d03e d2e5 313e 9285 213f feac 193f
00000060: 1dbc 01be ba67 1c40 a89c 1f3f 23e1 053f
00000070: 3008 7b3c 3951 f33e 7fb8 f5be 85ae e1bf
00000080: 6897 883f e5c6 a43e facf 1b3f ff1c 0e3f
00000090: 08bd bd3d 770f 073f 534a 1e3f 7e6e c0bf
000000a0: a8b5 033f 1448 ea3d 993c 2d3f fd4b 3d3f
000000b0: 2bfe 95bc d463 083f 5f28 ea3f 3add 193f
000000c0: 1782 063f 47ea a73e a83a d43e 890a dcbf
000000d0: f57d 183f 1e0f c9bb 85e1 cb3e 8a0e debf
000000e0: 19d2 a63e 6e65 1d3f 9837 653f 0d19 2d3f
000000f0: 2976 f2bc 1572 313f 7fa8 3bbe bfed e53e
00000100: bff9 b6bf b09f 1f3f 9ab9 b0bf ffad c73e
00000110: e21f debf 350c 3e3f 0fb8 cb3d 7e07 97bd
00000120: 6ef8 293f 836e 2e3f ea4d ff3e f5da ed3d
00000130: 5296 fa3e 60ee 46be d08e 2ebe e6b1 be3e
00000140: d990 9a3e 7fd7 e63e 9abf 1d3f b57f 093e
00000150: 179e 1e3f ff71 283f 9ebb b6bf 56c7 a63e
00000160: a42d 2d3f 337c f83e 8db3 023f d2b6 4c3f
00000170: d5da cebf 6537 ddbf 975c 473f 5378 f53e
00000180: 383a cf3e 70f6 2a3f da53 1f3f 2a7c 293f
00000190: 4f63 2a3f 32fa 873e 8c3a e83e f5a3 c1bd
000001a0: 5a91 0a3f 6218 c43d 9ddc bebf f81e 133f
000001b0: 585d d63e 7991 483f c116 453f a6fe 153f
000001c0: d2aa 1c3f 5595 0d3f ec1f 073f 86a2 0bbd
000001d0: 9438 e03e 4013 ea3e eabe 2c3f 81cd 383e
000001e0: 1a8c 3e3f 231b a23e e1ed 153f bb3f e6bf
000001f0: 9c40 db3e ff1d 373f 79e2 f03e b2ff f7bd
00000200: 0b98 143f ea8f cebf d5a9 a13e ebe5 8f3e
00000210: 85dd 203f 1a7e 183f b75c 8a3e 7716 523f
00000220: 403b d1bc 9c47 a03e 448a f7bf 6d33 dcbf
00000230: a252 ea3d ffba e83e 2436 90bf b900 ecbf
00000240: ce2b b2bf 0f11 a2bf 5266 c3bf 353e f83e
00000250: 30d2 2b3f 4fa0 db3e 62de c23e dcd1 dd3e
00000260: a405 083e 3cc5 1640 5fbd fb3e 2265 3f3f
00000270: 5f7e 3fbe b803 f93e 8550 e0be 499c ddbf
00000280: 3e67 7f3f 9218 2a3f 8f81 d43e 7dfa 143f
00000290: 2a78 5bbe 3860 d63e 7f92 1c3f 6509 debf
000002a0: caa4 ec3e 8ee5 003d 10d8 f13e 1d70 4a3f
000002b0: d13d 30bc b6eb b43e 4c74 c33f f725 bc3e
000002c0: a0a9 063f b24e 2a3f 54fa fc3e ed75 d0bf
000002d0: 83c8 e93e 1bcd e03c f5ed e73e 04d6 dbbf
000002e0: 53fe 133f 4d92 3b3f ca51 5f3f 970c 8e3e
000002f0: ffa4 1d3e b24c e13e bf5c d3bd 83c4 fa3e
00000300: 4f16 adbf 8a41 103f 7c78 a7bf c882 183f
00000310: 2cdd d2bf 8cbf 323f 5686 24be b0c7 e4bd
00000320: 4e19 e93e 748f 2a3f 4f28 243f 83e1 ee3c
00000330: c091 0e3f 7bd4 29bd d8c8 193c 7e10 013f
00000340: aef8 033f 25cc 0a3f 1dd9 033f 1913 11be
00000350: 540f 173f 2a3a dc3e 4885 b9bf d93d 323f
00000360: cf8d ca3e 45c7 1b3f 603d f23e 32f7 423f
00000370: f03e cbbf e302 d8bf a8fe 373f 5859 293f
00000380: 14a5 373f d041 0c3f 65c6 5d3f 0795 243f
00000390: 68fa 243f 5a70 093f 0c68 063f bc72 dc3d
000003a0: 981c f73e beb0 de3c 5151 b8bf a2bc 283f
000003b0: de89 243f 53c3 383f 098f 4c3f b4ac 173f
000003c0: 18d4 033f e208 003f 8cf6 f13e 23aa 8cbd
000003d0: 5274 f43e 387b 163f 822d 5f3f 4b73 bbbd
000003e0: 8cac 253f 92f8 ff3e 0fe1 db3e 52fb d9bf
000003f0: aa62 c33e 172f 463f 5d8d 213f 323f 213e
0.7177975 -1.4119047 0.38885543 0.6289164 0.65648127 0.35343045 0.5474816 0.7661233
0.18041524 0.4441457 -1.9297265 -1.7181225 0.048702072 0.285697 -1.1525726 -1.6514716
-1.5051761 -1.2160003 -1.559637 0.76620215 0.4069879 0.17372826 0.6309444 0.6002959
-0.12669416 2.443831 0.62348413 0.52296656 0.015321776 0.47522905 -0.47992322 -1.7631384
1.0671206 0.32182994 0.6086422 0.55512995 0.092645705 0.5275797 0.6183216 -1.503372
0.5144906 0.11439529 0.6767059 0.73944074 -0.018309673 0.53277326 1.829357 0.6010319
0.5254225 0.32795927 0.41451 -1.7190715 0.59567195 -0.0061358353 0.39820495 -1.7348187
0.32582167 0.61482894 0.89537954 0.6761635 -0.029597359 0.693147 -0.18325995 0.44907948
-1.4294966 0.6235304 -1.3806641 0.38999936 -1.735348 0.74237376 0.09947216 -0.07374476
0.663947 0.6813738 0.4986413 0.11614028 0.4894281 -0.1942687 -0.17046666 0.372451
0.30188635 0.45086285 0.61620486 0.13427623 0.61959976 0.65798944 -1.4276006 0.32573956
0.6764777 0.48532256 0.5105522 0.7996646 -1.6160532 -1.728253 0.77875656 0.47943363
0.40474105 0.66782284 0.6223732 0.66205084 0.6655778 0.2655807 0.45357168 -0.094551004
0.5412804 0.09574963 -1.4911076 0.5746913 0.4186809 0.78346974 0.76987845 0.5859169
0.6119815 0.5530599 0.52783084 -0.03409054 0.43793166 0.45717812 0.6747881 0.18047144
0.7443253 0.3166133 0.585661 -1.7988199 0.4282273 0.71530145 0.47047785 -0.12109317
0.580445 -1.6137669 0.31574884 0.281051 0.6283801 0.59567416 0.2702386 0.8206553
-0.025540948 0.31304634 -1.933907 -1.7203194 0.11441542 0.45455167 -1.1266522 -1.843772
-1.3919618 -1.2661456 -1.5265601 0.4848496 0.67117596 0.42895743 0.3806029 0.43324172
0.13283402 2.3557882 0.49167916 0.7476369 -0.1870055 0.4863565 -0.43811432 -1.731332
0.9976691 0.6644374 0.41505095 0.58194715 -0.21432558 0.41870284 0.61161035 -1.7346617
0.46219474 0.03146892 0.47235155 0.7907732 -0.010756926 0.35336083 1.5269866 0.36747715
0.5260258 0.6652633 0.49409735 -1.6285988 0.4566079 0.027441552 0.45298734 -1.7174687
0.5780994 0.7327011 0.87234175 0.2774398 0.15394972 0.44003826 -0.10320424 0.48978052
-1.3522433 0.56350005 -1.3083644 0.59574556 -1.6473746 0.6982353 -0.1606687 -0.111709
0.45527118 0.6662514 0.64124006 0.029160267 0.55691147 -0.041462403 0.009386264 0.5041579
0.5155133 0.5421775 0.51503164 -0.14167441 0.59007764 0.43013126 -1.4493799 0.6962562
0.39561316 0.60850936 0.4731245 0.7615844 -1.5878582 -1.6875881 0.7187295 0.6615195
0.71736264 0.5478792 0.8663085 0.642899 0.6444459 0.5368706 0.5250251 0.10764071
0.48264003 0.027183887 -1.4399816 0.6591283 0.6427287 0.7217304 0.79905754 0.592479
0.51495504 0.50013554 0.47258413 -0.068683885 0.47744995 0.58781767 0.87178814 -0.0915285
0.6471641 0.49994332 0.42945144 -1.7029822 0.38161212 0.77415603 0.6310633 0.15746763

fc2.bias f4 [2]
00000000: 3e11 e93e b398 de3e
0.45520967 0.43475875
