saved_models/target_net.pth (torch, 5672 bytes, 4 tensors)

fc1.weight f4 [128, 4]
00000000: 41ce a7be de8a 3abe 8f7a 863f 9a90 823f
00000010: e18b f43d 569c 113e 36c1 91bd 34b5 efbd
00000020: 0a89 943e 1631 32bf f189 94bf 2d5b a83d
00000030: c502 c9be f68f a5bd ac60 bebf 5257 7ebf
00000040: eb1a 28bf 110e c2be 9c40 c33f ea30 973f
00000050: e832 35bf 267b b9be 05de c73f 1292 843f
00000060: 2ccb 4fbe 4d27 7b3d 25a7 cfbe 0dd9 8b3c
00000070: 82a1 20bf 6e40 d9be 9d07 e63f 1512 903f
00000080: 0cc4 48bf a844 123e 8fa3 63bf 0b08 e7be
00000090: 762c 5ebe 8946 583e ab69 02bf b101 b2be
000000a0: 2db5 9abe 2e49 363b 1805 adbd 600d 0f3e
000000b0: c0ac e93d 0188 093e c5fc 15bf cfd3 77be
000000c0: 5366 083e 6a82 86bc 7a4f 3abd f16d 1bbe
000000d0: 600b 3f3e 0af3 f93e bb05 97bf 44b7 9ebf
000000e0: c377 813e 9b4f d7be f029 47bf ed4e 9b3e
000000f0: c533 d1be 9a63 afbc 3df1 03c0 7164 8cbf
00000100: 49e2 3fbe b2a4 223e a65d 42be 587d aa3d
00000110: c78a 0c3f e874 25bf 2d6d 61bf 9e14 7f3e
00000120: 8df3 a93e 67ce 843e c762 1440 2d95 873f
00000130: 4d81 b93e 6d63 d2be 22cf 00bf 474f da3e
00000140: 881c e2bd 9026 34be 8591 d5be 318b b9bc
00000150: f628 043f 2de1 973e 1bb5 1140 b130 853f
00000160: 56c6 76be b4d7 a3be 65ad debf 2c36 46bf
00000170: 9663 053e fb5f 0dbe c50f d2be f815 08be
00000180: f355 30be e095 2dbf 6534 193f 7564 0d3f
00000190: 3e7e 5dbf 6f42 083d efd3 7cbe f59b a8be
000001a0: 96bf 88be 1b8f 8a3d c74a ccbe 472d 3cbe
000001b0: d276 32bf 9d87 5ebe d33b 63bf e264 09bf
000001c0: f522 31be af37 ac3e 9c9f 0c3c 42f7 38be
000001d0: 005b d4bc 5c76 093e f982 4c3d 526f afbd
000001e0: 96c5 2cbe 811c 09bf 0492 09c0 e5d7 8ebf
000001f0: 535e 78bd ac66 d5be cef0 0dc0 45a9 96bf
00000200: e477 0bbe 32ae bd3d 84e9 5d3d 3a4d 183e
00000210: 239d 97bd 9401 013e edb9 8e3d 4089 8d3d
00000220: 5078 073d ba86 793e a7d0 82be 137d 98be
00000230: 460f 1fbe a75e af3d eb56 cdbe 13c7 c3bc
00000240: 03f0 adbe d43e 803e e861 0840 f941 803f
00000250: 8617 a43c 8c37 50be ff21 e1be 0277 543d
00000260: 7384 f73b c18a 213d b6b0 3cbe f59b 86be
00000270: f9c7 303d 7f62 9d3d 337d eabe a39f b5bd
00000280: a47c 4bbd 0163 01bf 4322 16c0 d908 a6bf
00000290: 705f 42bf a513 193e bba0 37bf 45e1 cebe
000002a0: f38f 82be a747 083e e7cf ccbf 73c1 a0bf
000002b0: 7237 95be 52e5 70be d0ac c73f 7f0e 893f
000002c0: 8366 bc3d da6e 85be 4e97 f3be 1086 b83c
000002d0: 18ba 39be 5225 7dbe bf42 983f ba18 563f
000002e0: 5157 35bf de17 95be 2d1d dc3f 0289 953f
000002f0: 4a2c 78bf 46cc 053e 989b fbbe 84cb c3be
00000300: cdfa e83b 7ebd c23d b337 86be ead4 103e
00000310: 5a84 71bd 99cd eebd 58ec 92bd f26e 85bc
00000320: d2c2 ee3e 4f00 2dbf a4f7 67bf 3043 af3e
00000330: 6f55 c73c 7c8f f1be f3fa 8dbf 3ac6 8d3d
00000340: 2099 96bd 6244 a03d 726a c3be 6b0c febd
00000350: ddeb a9be 3a9b e3bd 979a a0be 629d 3ebe
00000360: 497f 2fbe fa1e dfbd e9e4 febd 08b2 cd3c
00000370: 15ff 1cbe e3ad e3be dc84 533f df32 693f
00000380: a4e3 34be 041f 36bf cda4 373f 5972 0b3f
00000390: 0564 2cbe 2a3e c1be 2a05 debe aa5c 79be
000003a0: f9ec d23c 8148 2c3e 19ac 89be 87a6 1fbe
000003b0: 8f29 3abf 5469 48b9 8612 50bf 04ef 1ebf
000003c0: 1225 c63e d3fe 3cbf 55ba bebf c989 263d
000003d0: 4000 33be 096d cbbe b8df 0dc0 403b 9fbf
000003e0: 9654 0dbe afab adbd f8c5 95be a79b 3dbe
000003f0: bacf 9ebe 6cc4 45be df77 07c0 691a 90bf
-0.32774547 -0.18217036 1.0506152 1.0200379 0.11940742 0.14219794 -0.0711693 -0.11704484
0.29010803 -0.6960615 -1.1604596 0.082205154 -0.39259925 -0.08084099 -1.4873252 -0.9935199
-0.65666074 -0.37901357 1.5254092 1.1811802 -0.707808 -0.36226767 1.561463 1.0357077
-0.20292348 0.061316777 -0.4055721 0.017071271 -0.6274644 -0.42431968 1.7971073 1.1255518
-0.78424144 0.14284003 -0.88921446 -0.45123324 -0.21696648 0.21120657 -0.50942487 -0.34766915
-0.3021635 0.0027814615 -0.08448237 0.13969946 0.114099026 0.13430788 -0.5858882 -0.24201892
0.13320284 -0.016419608 -0.04548595 -0.15178658 0.18656683 0.48818237 -1.1798624 -1.2399678
0.25286683 -0.42052922 -0.77798367 0.30333653 -0.4085981 -0.021409798 -2.061599 -1.0968152
-0.18738665 0.15883139 -0.18981037 0.08324689 0.5489926 -0.6463151 -0.88057214 0.24910209
0.33193627 0.25938722 2.318529 1.05924 0.3623146 -0.4109148 -0.5031606 0.4263861
-0.11040598 -0.17592835 -0.41712585 -0.02264938 0.51625 0.29663983 2.2766788 1.0405484
-0.24099097 -0.32000506 -1.7396666 -0.7742641 0.1302627 -0.13806145 -0.41027656 -0.1328963
-0.17220287 -0.67806816 0.5984557 0.5523141 -0.86520755 0.03326648 -0.24690221 -0.32931486
-0.26708668 0.067655765 -0.399008 -0.18376647 -0.69712555 -0.2173142 -0.8876316 -0.5366956
-0.17298491 0.33636233 0.008582976 -0.18063071 -0.025922298 0.13424057 0.049929593 -0.085661545
-0.16872248 -0.5355912 -2.149537 -1.1159636 -0.06063683 -0.41679895 -2.2178226 -1.1770407
-0.13619953 0.09261741 0.054177776 0.1487321 -0.07403018 0.12598258 0.06969056 0.06910944
0.033073723 0.243678 -0.25549814 -0.29782924 -0.1553317 0.085629754 -0.40105376 -0.023898637
-0.33972177 0.25047934 2.1309757 1.0020133 0.020030748 -0.2033369 -0.4397125 0.051871307
0.007553631 0.039438967 -0.18426785 -0.2629086 0.04315946 0.07684802 -0.45798644 -0.08868339
-0.049679413 -0.5054169 -2.3458412 -1.297145 -0.75926876 0.149489 -0.7172963 -0.40406242
-0.2550045 0.13308583 -1.6000947 -1.2559036 -0.29143864 -0.23524979 1.5599613 1.0707549
0.0919924 -0.26061136 -0.47576374 0.022524863 -0.18137395 -0.24721268 1.1895369 0.8363148
-0.7083636 -0.29119772 1.7196404 1.1682436 -0.9694258 0.13066205 -0.49142146 -0.38241208
0.007109976 0.09508799 -0.2621437 0.1414372 -0.05896411 -0.116603084 -0.07173985 -0.016288254
0.4663301 -0.67578596 -0.90612245 0.34230947 0.02433273 -0.47179782 -1.1092209 0.06922574
-0.07353425 0.07825543 -0.3816715 -0.12404712 -0.33187762 -0.111135915 -0.31367943 -0.18614724
-0.17138399 -0.1089458 -0.12446005 0.025109306 -0.15331681 -0.44468603 0.826246 0.9109325
-0.17664963 -0.71141076 0.7173584 0.54471356 -0.1683503 -0.3774274 -0.43363315 -0.24351755
0.025747763 0.16824533 -0.26889113 -0.15590869 -0.72719663 -0.00019112724 -0.81278265 -0.6208346
0.38700157 -0.7382633 -1.4900614 0.040658746 -0.17480564 -0.39731625 -2.2167797 -1.2439957
-0.13801798 -0.08480012 -0.292526 -0.18516408 -0.31017858 -0.1931321 -2.1166914 -1.125806

fc1.bias f4 [128]
00000000: f810 eabe 987f 183f 547b 1d3f d700 03bf
00000010: f42a 2e3f eb1a f8be 519f 343f fdc5 303f
00000020: 2922 163f 89ea 223f 3c88 693f 98a9 233f
00000030: 0983 743f 883e 2abf 18b4 2f3f e586 17bf
00000040: e8d8 9fbe 8a72 4b3f 56ac b5bd 6652 5c3f
00000050: 1bd0 6b3f 3b45 febc 687b 16bd 5ec4 483f
00000060: 1d19 23bf e32b f93c e045 2b3f 9a5d f23e
00000070: 3fce ed3e aff3 063f ed6b 073d fb81 b0bd
00000080: ac0d d4be 8afd f5be fb6f 563f 8565 4c3f
00000090: 1851 2dbe f4d9 5b3f f8b9 513f 759c 2d3f
000000a0: 3458 15bd b159 053f caf8 24bf 751b e0be
000000b0: 3a38 853f 81e1 b8be afe6 dcbe 87de ed3e
000000c0: 3e61 3b3f e1ad f1be 0e79 6e3f 40ff d43e
000000d0: dac1 683f 8eb8 403f 308b 443f e59f fb3e
000000e0: cf6a 28bf f982 56be c109 5a3f 63be 2d3f
000000f0: 8658 153f d6ec 87be d043 893f 8de3 f7be
00000100: 1895 cabe 59d8 543f 8b79 043f 281d 90be
00000110: f2c3 9bbe 69fb 883f 059e 4a3f be22 5f3f
00000120: 4ab3 143f 2cf1 e4be e4df 1c3f 2efa 6a3f
00000130: ce59 c1be 0ff9 873f 319b 3c3f df4a 033f
00000140: ee88 123f d0c1 023f 2200 edbe 5224 123f
00000150: a99d 243f aa26 523f b61c ee3e 9f9b 723f
00000160: 752c 333f 1727 07bf fe98 023f 9986 5a3f
00000170: 01ed 803f ab10 863f 7adf b7be a94d 6c3f
00000180: cad8 42be 18ec 353f b1c1 5d3f 897d 633f
00000190: 3f77 5cbd a144 1b3f d142 133f d2d4 333f
000001a0: 6606 f3bd 9ad7 9a3e b619 f0be 9580 2fbe
000001b0: b6ee 36be e651 533f f62b edbe 98a6 6a3f
000001c0: b33f cfbe a6ea 003f 5641 00be 6a62 733f
000001d0: 14c8 1d3f edd3 143f 642a 793f 2676 073f
000001e0: fc4a d33e fd7c 543f 5b86 2f3f 4650 4a3f
000001f0: 397e 3d3f 5304 98be cb66 fd3e 8e53 dc3c
-0.4571607 0.5956969 0.6151631 -0.51173156 0.6803429 -0.48458037 0.705556 0.69052106
0.58645874 0.6363912 0.912235 0.63930655 0.95512444 -0.66501665 0.68634176 -0.5919021
-0.31220174 0.7947165 -0.08870761 0.8606323 0.9211442 -0.031038871 -0.036738783 0.7842463
-0.63710195 0.030416435 0.66903496 0.47337037 0.46446416 0.5271558 0.03306191 -0.08618542
-0.4141668 -0.48044997 0.8376462 0.79842407 -0.16925466 0.85879445 0.8192439 0.6781686
-0.03646107 0.52089983 -0.6444212 -0.43770948 1.0407784 -0.36109546 -0.43144748 0.46458837
0.73195255 -0.47202972 0.93153465 0.4160099 0.90920794 0.7528161 0.76774883 0.49145427
-0.65787977 -0.209484 0.85171133 0.6786863 0.583382 -0.2654788 1.072382 -0.48415795
-0.39566875 0.8314262 0.5174796 -0.28147244 -0.30422932 1.0701724 0.7914737 0.8716239
0.58086073 -0.4471525 0.6127913 0.91787994 -0.37763828 1.0622882 0.73674303 0.5128612
0.5724019 0.51076984 -0.46289164 0.5708667 0.6430307 0.82090247 0.4650628 0.9476871
0.6998971 -0.5279402 0.510147 0.8536163 1.0072328 1.0473837 -0.35912687 0.92306
-0.19028011 0.71063375 0.86623675 0.88863426 -0.05382466 0.60651594 0.5752383 0.70246613
-0.11866455 0.30242616 -0.46894616 -0.17138894 -0.17864498 0.8254684 -0.46322602 0.9166045
-0.40478286 0.50358045 -0.12524924 0.9507204 0.6163342 0.58135873 0.9733031 0.52914655
0.41268146 0.83003217 0.68564385 0.7902874 0.74020725 -0.296908 0.49492487 0.02689531

fc2.weight f4 [2, 128]
00000000: ea38 bdbf 4156 283f 614e 753f 83f6 c1bf
00000010: 0b6b a6bf 163b a1bf 7234 b43e 7525 c0bf
00000020: ae52 543f 2cd4 0d3f 52bf ca3e 8b87 df3e
00000030: fb16 fc3e fb6b c5bf eb1d 673f 4d95 cebf
00000040: 6861 543e 5054 913f 9604 b2bf fcc9 593f
00000050: 211a 393f a26e 8cbf 2ff9 8bbf 5d2d 123f
00000060: 04ef c23f f334 7c3d 9528 f13e bc15 e83e
00000070: 075d f23e 3629 683e f8b7 d3bf 3d4c bfbf
00000080: ba4e 333e 1234 703b ac90 003f a48d 233f
00000090: 05fd bcbf 81c1 c43e 147c 1c3f 624f 773e
000000a0: aa0a dfbf 0169 483f cee3 dabf 26bf b2bf
000000b0: f722 1c3f 9ad3 b1bf f557 65bf 1b5f 343f
000000c0: be3d df3e f36c 5c3d ac10 713f 9d83 353f
000000d0: 13c5 063f 9f75 a63e 3c30 bf3e 15e4 a2bf
000000e0: 6e03 d13f ffd9 febd 83b6 1a3f 439c 9c3f
000000f0: 633b 863f 34f9 c3bf 7ecc 283f 98a6 bbbf
00000100: 4860 513e b1ea 0b3f a41a 84bf 6bdf b2bf
00000110: 2c99 88bf fdfb 013f 8766 683f 1e8c bb3e
00000120: be8a 8b3f 4260 f93f bd68 7c3f 71d4 283f
00000130: 8e6b d2bf cd83 f73e 747b 253f 9db3 763f
00000140: 2369 af3e 1589 443f 6be1 873d ae23 243f
00000150: fef9 813f f73b 913f edf0 873e 3061 2b3f
00000160: 63f6 bbbf 6a26 b13f a923 303f d4f7 a73e
00000170: fae4 0b3f 19a8 0e3f ce14 d7bf d19e b53e
00000180: ae78 b1bf c0e4 4f3f 8efc a43e d29b 1c3f
00000190: 2e10 45be 4f47 703f 2cc0 953f c07f c6bf
000001a0: dafa a7be e96f 313f 858e d33d 15dd dfbf
000001b0: 51db 3fbe 50d6 003f 9984 1b3d d489 283f
000001c0: 64a9 303c 9d5c 763f 2c72 bcbf 2768 f33e
000001d0: f20d 093f ad76 6a3e 66de b43e 369e 663f
000001e0: 3777 553f 2cdf cc3e 14c2 b23e acfe 2f3f
000001f0: 8404 253f 7a9e a4bf deda b03e 2083 173e
00000200: 4a7e b5bf 4b4c df3e 1741 683f 7916 cdbf
00000210: 102a babf 0e05 abbf fa0e 1b3f c067 b4bf
00000220: b299 5d3f 7bab e83e e83e 233f f0ea 913e
00000230: ccd7 e63e b228 bfbf c659 293f 1242 d6bf
00000240: 694e c839 f992 443f 3181 a6bf fc31 5f3f
00000250: 835f ee3e b0cb 9abf 97c5 bebf 1795 e73e
00000260: fb65 c83f eda0 213e 6b26 0d3f c6e8 9d3e
00000270: 54ec c13e 1822 e83d 7e74 d2bf ac76 c6bf
00000280: 9637 e23c 90d7 f83d d9c1 a73e 565f d73e
00000290: 9bff a7bf 831f 283f c770 0e3f 9066 f43e
000002a0: 56c8 c4bf 5d83 533f 6f20 cdbf 5449 9fbf
000002b0: 2a2e 213f 4827 aebf f222 98bf ab90 4b3f
000002c0: 0b5f 2c3f 035d fd3d 2f64 8d3f bd18 2e3f
000002d0: c87a eb3e e539 f93e 2216 293f b72b 86bf
000002e0: a9c0 c03f 84d7 adbe 27fc 1f3f a1fa a03f
000002f0: ba41 9c3f f797 dfbf 3a1d 8f3e 2b1f b7bf
00000300: 007b 19be 73c6 d13e fefd a6bf f4f6 c4bf
00000310: 6192 53bf 4c69 f23e c6d4 653f 5d56 0a3f
00000320: 65c7 373f ccb4 0440 8189 563f 1ed0 293f
00000330: 5772 d1bf 32ba 193f 535b 873e e0a6 953f
00000340: 37be 1f3f 721c 503f 7205 e13c 3599 553f
00000350: b6e7 8c3f 51bb 643f 514f 303e 3695 c93e
00000360: ad8d dcbf ca40 a83f 72cb 723f d833 073f
00000370: a98d 213f b555 9e3e e801 acbf 7981 2a3f
00000380: edc0 a7bf 8e31 8b3f 516d 303f d4bd ae3e
00000390: 69e0 8abd ee54 8a3f c242 9e3f 2cb3 a6bf
000003a0: 870f 03bf 305c 173f 2143 cd3d c96d c5bf
000003b0: 49b9 7fbe b790 143f a3cc f23d d7fc 1b3f
000003c0: d6fd 89bd c625 663f 0251 c4bf 97f4 223f
000003d0: c1b5 013f 2459 183e 7ddf 0c3f 6586 903f
000003e0: fc67 473f b7c8 163f 67b6 253f a4a7 a43e
000003f0: 1458 c13e 57af afbf ddd8 173f ae04 97be
-1.4782994 0.65756613 0.9582272 -1.5153354 -1.3001417 -1.2596157 0.35196263 -1.5011431
0.8293866 0.55401874 0.3959909 0.436581 0.49236283 -1.5423578 0.90280026 -1.6139313
0.20740283 1.1353855 -1.390765 0.8507383 0.72305495 -1.0971262 -1.093542 0.5710047
1.5229192 0.061573934 0.47101274 0.45329082 0.473366 0.2267197 -1.6540518 -1.4945141
0.175105 0.003665213 0.5022075 0.63888 -1.4764715 0.38428882 0.6112683 0.24151376
-1.742513 0.78285223 -1.710077 -1.3964584 0.6099085 -1.3892701 -0.89587337 0.7045762
0.43601793 0.05381484 0.94166064 0.7090395 0.5264446 0.32511613 0.37341487 -1.2725855
1.6329172 -0.12443923 0.6043474 1.2235187 1.0486873 -1.5310426 0.6593703 -1.4660215
0.20446885 0.54654986 -1.032063 -1.3974432 -1.0671744 0.5077513 0.90781444 0.36630338
1.0901716 1.94825 0.9859732 0.6594916 -1.6439073 0.48342744 0.646415 0.9636782
0.342599 0.7677167 0.06634792 0.6411694 1.0154417 1.1346425 0.26551 0.6694517
-1.4684566 1.3839848 0.68804413 0.32806265 0.54646266 0.55725247 -1.6803224 0.3547273
-1.3864954 0.8120842 0.32223934 0.6117526 -0.19244453 0.9385881 1.1699271 -1.5507736
-0.32808572 0.69311386 0.10329918 -1.7489344 -0.18736006 0.50327015 0.03796825 0.6583531
0.010782573 0.96235067 -1.4722342 0.475404 0.53536904 0.22896834 0.35325927 0.9008516
0.8338503 0.40014017 0.34913695 0.68747973 0.64460015 -1.2860863 0.34541982 0.14796114
-1.4179165 0.43612894 0.9072432 -1.6022483 -1.4544086 -1.3360918 0.6056973 -1.4094162
0.86562645 0.4544333 0.6376786 0.28499556 0.45086515 -1.4934294 0.6615261 -1.6738913
0.00038205393 0.7678676 -1.3008176 0.87185645 0.46557245 -1.209341 -1.490405 0.45230934
1.5656122 0.15784045 0.55136746 0.30841655 0.37875617 0.11334628 -1.64418 -1.5504966
0.027614396 0.1215049 0.32765082 0.42064923 -1.312488 0.65673083 0.55640835 0.477345
-1.5373638 0.8262232 -1.6025523 -1.2444253 0.62961066 -1.3605738 -1.1885664 0.7951762
0.67332524 0.12371256 1.1046199 0.680065 0.45992112 0.48676983 0.66049397 -1.0482091
1.5058795 -0.33953488 0.6249413 1.2576486 1.2207558 -1.7468251 0.27951986 -1.4306387
-0.14988327 0.40971717 -1.3046262 -1.5387864 -0.8264523 0.4734596 0.8977779 0.5403803
0.71788627 2.073535 0.83803564 0.66333187 -1.6363019 0.60049736 0.26436862 1.1691551
0.6239962 0.81293404 0.027468417 0.834369 1.1008213 0.8934832 0.17217757 0.3937165
-1.7230736 1.3144772 0.9484168 0.5281348 0.6310678 0.30924764 -1.3438082 0.6660381
-1.3105751 1.0874498 0.68916804 0.34129202 -0.06781084 1.0807168 1.2364123 -1.3023429
-0.5119557 0.5912504 0.100225694 -1.5424129 -0.24973024 0.5803332 0.118554376 0.6093268
-0.067378685 0.8990139 -1.5337222 0.63654464 0.5066796 0.14877754 0.55028516 1.1291014
0.7789304 0.58900017 0.6473145 0.3215915 0.3776251 -1.3725384 0.5931528 -0.29495758

fc2.bias f4 [2]
00000000: 3649 0c3f 4624 d93e
0.5479921 0.42410487
