saved_models/pole_dqn/train_bad/target_net.pth (torch, 5672 bytes, 4 tensors)

fc1.weight f4 [128, 4]
00000000: 66ff 0b3e a596 f63d a1f0 39be 7320 c33d
00000010: deb8 68bd 5d6c 523d 726b 573d 49d1 493d
00000020: 93ed 92bc 229b 093d 4c9a 893d 9ab6 c7be
00000030: f96d 173f 3910 90be 1447 f6bf 9caf 34bf
00000040: b0d5 263e 0c85 293f c259 9b3e 0d5b 6fbe
00000050: b045 b43e 95ce b43e af2f aebc e535 92be
00000060: a94e d23e 483a 673f d9f9 a73e f003 06bf
00000070: b0e2 d2bc ce5c 44be a4d3 2ebe ae6b 26be
00000080: 5036 24be d4c6 a6bc fe9d 3abd 7dd3 d83d
00000090: 3061 403e f479 5bbd e260 d9bd 5a9b 673d
000000a0: 92cf 083f 772f 513f 3683 893d 76d2 bebe
000000b0: 0ddc 6e3e f355 4bbe 5ed0 163e 22a9 d9bd
000000c0: 6efb 1c3e 3a02 37bd f94c 83be d0e9 72bd
000000d0: 814a 2fbf 74eb 903e 9511 1740 bef9 663f
000000e0: 7206 94bd 88a8 8ebe 2ed4 3e3e bd1c 973e
000000f0: 84b4 81be cb00 68be 1e55 c13d 3cdd a03e
00000100: e98b bfbd 7706 6ebe 20c7 42be c4be 72bd
00000110: 0684 5a3d 4643 8fbe 408f 57bc 8716 f2bd
00000120: 7231 643e 67c7 cebd 60e9 87be 84e2 9a3d
00000130: 7074 843c 7532 403d d256 c5bd 3afb ea3d
00000140: ad98 f63e 7f52 a9be 92fa 06c0 3039 31bf
00000150: 09ba dbb8 d686 73be 3428 173e 2cd5 13be
00000160: 9992 c63d c7c5 bbbe dfef 69bd 50cd 72bd
00000170: 16cb ffbd 5257 c7be 4e81 593b cc7d 573e
00000180: f1e2 f4be dedd 263f fb46 0440 7830 303f
00000190: 7d80 43be 1ce7 afbe 1851 e33d 7582 8e3e
000001a0: bd5f c5bc f33f 0fbe 9587 72be bf4e 943e
000001b0: f430 87bd add8 e3be 7b2d 1cbe 78bd 0e3e
000001c0: a588 8fbd 2119 fe3b e4eb cfbd 2c95 393e
000001d0: e762 0b3e 0ef7 39be f7f8 50be 3504 693d
000001e0: 9461 903e b9ba 0e3e 41b0 b7be 5b66 a5be
000001f0: 36f1 b0bc e9be a2be 8401 ddbd 47e1 efbd
00000200: 9f11 b93d 4b79 423e 3bed 4bbe 7605 cdbe
00000210: e097 53bc 51ec 82be 891b 3b3e 8655 b43e
00000220: ae78 b4bd 42ff b0be 2aa3 06bd 98fc f6bd
00000230: 2c2b d13c 5408 4cbe bdfb 4bbd f9b2 9f3e
00000240: c685 42be e3f4 59be 78f9 393d ab71 51be
00000250: 5a9d e4be 0a4f 373f f463 eb3f 0387 203f
00000260: e8b5 383e 14a5 efbd c04a 6f3c 7bf5 03be
00000270: e460 50bf bab6 1c3f 7e55 0e40 5f7d 4f3f
00000280: be47 1f3e 96d7 da3e fea9 e0bc 43ad 9abe
00000290: c709 eebd 114b 01bd 79bf 2cbe 4343 cf3d
000002a0: 424f b13c c65d d2bd ea41 6f3e 47d6 ebbd
000002b0: dc5b e33d 6ab4 54be 39b8 83be 68f2 ed3d
000002c0: 93cb 6c3e 3eaa 163d ff30 ab3d e77e 90be
000002d0: 1037 e1bc 59b9 ffbd 5912 c5bd 9691 f4bc
000002e0: ef90 17be 0862 fabd 6790 8ebd b79f 1cbd
000002f0: 76ba e83d 4c30 c1bd 1c45 d93d 7a31 8e3d
00000300: e3bf 32be 415c 2bbe 696a 8fbe 9bc2 813d
00000310: fc00 1b3e 43a6 93bd 9b56 4abd 4a33 c0bd
00000320: 24c4 823e 9be7 6cbc 20c0 62be 0510 93bd
00000330: fc95 c6bd 02ac 93be a016 203e eb49 9c3e
00000340: de2b b63c 731d 12be 5fcd 4c3c 8a89 c3bd
00000350: 3acd 3dbd 31a6 91be b2a1 473e af8b 953e
00000360: 47f3 973e 2e5f 833e c59d 19be 7700 aabe
00000370: 91fc f63e dee0 a8be ff61 00c0 446d 4ebf
00000380: 8e21 4fbe 0ce8 dbbe 08ba 853e 744f 4e3e
00000390: e0b8 013e 2905 3e3e 8883 f63d af8f 143e
000003a0: c97f f03c 1729 983d 76d9 bcbd a9ca d13d
000003b0: 2a32 033d 7b33 ac3d 8bfc 05be 1364 fcbc
000003c0: 4549 babc 9557 223e 5acb bc3d d0f0 e83d
000003d0: 66cd cbbd b2d1 1ebe 03d6 c83e fcaf a33e
000003e0: 0594 c83e 4d5b 093e 8302 f2be 4e8c c5be
000003f0: 1e72 6f3f db38 a0be c24f 09c0 3766 3fbf
0.13671646 0.12040452 -0.18158199 0.095276736 -0.056816928 0.051372875 0.052592702 0.049271856
-0.01793555 0.03359521 0.06718883 -0.390065 0.5915218 -0.28137377 -1.9240441 -0.7058046
0.16292453 0.6621864 0.30341917 -0.23374577 0.35209417 0.3531386 -0.021262972 -0.28556743
0.41075638 0.90323305 0.32807806 -0.5234976 -0.025742859 -0.19176027 -0.17072922 -0.16252014
-0.16036344 -0.02035848 -0.04556083 0.10587213 0.18787074 -0.0535831 -0.10614182 0.05654464
0.5344173 0.8171305 0.067144796 -0.37269944 0.2332613 -0.19857006 0.14727923 -0.10627963
0.15330288 -0.044679858 -0.25644663 -0.059305012 -0.6847306 0.28304636 2.3604481 0.90224826
-0.07227792 -0.27862954 0.18635628 0.29514113 -0.25333035 -0.22656552 0.09440063 0.31418788
-0.093528576 -0.23244654 -0.19021273 -0.05926396 0.053348564 -0.27981013 -0.013156712 -0.11820703
0.22284487 -0.10096627 -0.26545238 0.07562736 0.016168803 0.04692312 -0.096357 0.11473699
0.48163357 -0.33070752 -2.1090436 -0.69227886 -0.000104773855 -0.23781905 0.1476143 -0.14436787
0.0969593 -0.3667433 -0.057113525 -0.059277833 -0.124899074 -0.38933808 0.0033188644 0.21044081
-0.47829393 0.6518229 2.0668323 0.6882396 -0.19091983 -0.3435601 0.11099452 0.27833906
-0.024093503 -0.13989238 -0.23684533 0.28966329 -0.06601134 -0.44501248 -0.15251724 0.13939464
-0.07008485 0.0077544604 -0.101524144 0.18123311 0.13611947 -0.1816065 -0.20407473 0.056888778
0.28199446 0.13938417 -0.3587666 -0.32304654 -0.021599393 -0.31786278 -0.10791305 -0.1171289
0.09036564 0.18991582 -0.19914715 -0.4004323 -0.012914628 -0.2557092 0.18272223 0.352215
-0.0881208 -0.34569746 -0.03287045 -0.12059897 0.025533281 -0.19925052 -0.049800623 0.31191233
-0.18996343 -0.21284823 0.045403928 -0.20453517 -0.446513 0.7160498 1.8389878 0.6270601
0.18038142 -0.11701408 0.014605224 -0.12886612 -0.81397843 0.6121632 2.223968 0.81050676
0.15554711 0.42742604 -0.027424809 -0.30210313 -0.11622959 -0.03156573 -0.16869916 0.10120251
0.021644238 -0.10271792 0.23364988 -0.115154795 0.11101505 -0.20771948 -0.25726488 0.11618501
0.23124532 0.03678345 0.08358955 -0.2822182 -0.027492076 -0.12486524 -0.0962264 -0.029854577
-0.14801382 -0.12225729 -0.06961136 -0.038238253 0.113636896 -0.0943304 0.10608885 0.06943031
-0.17456011 -0.16734411 -0.28010872 0.06335946 0.15137094 -0.07209446 -0.049399 -0.093847826
0.25540268 -0.014459516 -0.22143602 -0.0718079 -0.09696576 -0.2884217 0.15633631 0.30525145
0.022237714 -0.14269046 0.012500136 -0.09547718 -0.046338297 -0.28447106 0.19495276 0.29208133
0.29677793 0.25658554 -0.1500159 -0.3320348 0.48239568 -0.3298406 -2.0059812 -0.80635476
-0.20227644 -0.42950475 0.26118493 0.20147496 0.1266818 0.18556656 0.12036806 0.14507936
0.029357808 0.07429712 -0.09221165 0.102437325 0.032030262 0.084082566 -0.13084619 -0.030809438
-0.022740016 0.15853722 0.09218474 0.11374056 -0.09951286 -0.1550968 0.39225778 0.31970203
0.3917543 0.13413735 -0.4726754 -0.38583606 0.93533504 -0.31293377 -2.145493 -0.7476534

fc1.bias f4 [128]
00000000: c2b0 b03e fb7d 003f dcb5 8f3e d151 85bd
00000010: ad4f e63d 76a7 b73e 07a5 12be b27e bebe
00000020: 3c6d fcbe 9b82 f03e 3d2d 8ebd 7b99 0a3f
00000030: 311d 323f 2909 cebc 1369 bf3e 7395 ab3e
00000040: 7e6b 3d3f b1ee fe3e 5031 533f 544e 243f
00000050: b1b9 693c da13 203f 6f14 003f 5e61 b33e
00000060: 9c9f e03d bac2 cf3e ee15 293f 4204 a93e
00000070: a692 5b3f eac2 f83e dfb2 323f 58bb d83e
00000080: 21de 153f 1c01 fd3e f003 1d3f bde4 b33e
00000090: 1369 033f 5d94 963e 3848 d3be 3559 2b3d
000000a0: 9341 a13e ead5 f0be b722 d23e 5f31 3d3f
000000b0: 525d 0b3f 1bcb 5e3f 8400 353f 217f fe3e
000000c0: 144c 193f c054 e7be 7d8b 103f 1a98 ca3e
000000d0: 9509 a93e 03aa be3e 5662 b83e 3500 e5bd
000000e0: ac84 c83e 28d6 cebe a44a debe 17b5 363f
000000f0: 34b2 c3be 711b 95be feac 20bf 51c3 91be
00000100: 84dc 9b3e ec12 013f da02 d2be 7fca 633b
00000110: c857 9cbe 00ff 47bd 10bb dcbe f8f7 3b3f
00000120: 271d 533f fb31 0a3f e4e2 cfbe 0b68 8abd
00000130: 1922 193f 5599 573f ccd2 d93e 00d3 c33e
00000140: ae85 023f a498 febe 746b 85be fc49 023e
00000150: 1418 7d3d 10bb 073f a284 fc3e 2c40 d1be
00000160: 032b 023f 4dba 143d 443c a0be 2e82 ddbe
00000170: 552d 23be c6e1 d8be 53e8 1c3f 6b77 7abd
00000180: 5366 47bc 1bcc 323f 51d4 503f 95e7 403f
00000190: ad95 81bd 5cfb 00be 90ad 4b3e 1dbc 3c3f
000001a0: 5f83 46be d8ee d9be 5d08 4a3d c476 b1be
000001b0: 8fea 5e3f c173 243d 0a9b d73e 03be 8b3e
000001c0: 42f3 d7bd 980f bb3e e848 b33d 9813 113f
000001d0: c65c 2b3d de07 eabd 64bc 7fbe 82cf ec3e
000001e0: c05c 35be 78f9 d33e b8aa d7be b786 3c3f
000001f0: 80e4 8ebe c3a8 39bb 3d51 fb3e 98bf e23e
0.34509856 0.5019223 0.28068435 -0.06509746 0.11245666 0.3586995 -0.14320765 -0.37206036
-0.4930209 0.46974644 -0.06942222 0.5414044 0.6957579 -0.025150852 0.37384853 0.33512458
0.73992145 0.49791482 0.8249712 0.6418202 0.014265464 0.6253029 0.5003118 0.35035223
0.10967943 0.40578252 0.6604909 0.3301106 0.8577064 0.48586208 0.69804186 0.42330432
0.58542067 0.4941491 0.61334133 0.3513545 0.51332206 0.29410067 -0.41266036 0.04183312
0.31495342 -0.47038203 0.4104211 0.7390346 0.5443927 0.87028664 0.7070391 0.49706367
0.5988171 -0.45181847 0.5646284 0.3956917 0.33015123 0.37239084 0.36012524 -0.1118168
0.3916372 -0.40397763 -0.4341632 0.7137007 -0.38221896 -0.291225 -0.62763965 -0.28469327
0.30441678 0.504195 -0.410178 0.0034758148 -0.30535722 -0.04882717 -0.43111467 0.73425245
0.8246636 0.53982514 -0.4060279 -0.06758126 0.59817654 0.8421834 0.42543638 0.38246918
0.5098523 -0.4972583 -0.26058543 0.12723535 0.06179054 0.5301981 0.4931994 -0.40869272
0.5084688 0.036310483 -0.3129598 -0.43263382 -0.15935262 -0.4235975 0.61292 -0.061149042
-0.012170392 0.6984269 0.8157397 0.75353366 -0.063273765 -0.12595886 0.19890428 0.7372454
-0.19386052 -0.42565036 0.049324382 -0.34660923 0.8707666 0.040149454 0.42110473 0.27293405
-0.105444446 0.36535335 0.0875414 0.5667052 0.041836523 -0.11427282 -0.24974209 0.46252066
-0.17711163 0.41401267 -0.42122436 0.7364306 -0.27908707 -0.002832935 0.49085417 0.442868

fc2.weight f4 [2, 128]
00000000: 70bc 263e 1929 bc3e a6aa bf3e 78bd 92bf
00000010: f85e 1b3f 30d7 b03e 1b7c 5b3f d06d ecbd
00000020: bda8 693d d13e 8c3e b88f 003f a099 433e
00000030: c594 e63e ed07 8abf 85e6 603e 0449 ec3e
00000040: 3cb1 3f3e 7b46 5a3e 3ba5 a93e 12b8 ba3e
00000050: 18e4 7dbf 60a5 9a3e 43e8 063f b002 113f
00000060: eb11 a0bf 5775 2b3f 4809 be3e 8f5d 203f
00000070: da89 b13e 6964 1a3e f536 fc3e 295a 1a3f
00000080: 7d51 d43e 393b c03e 4384 eb3e 09d1 d13e
00000090: b631 683e 0f33 a2bf 587d 3c3e 7114 a8bf
000000a0: 4e3f d43e 921c 01be e1cc 063e 0ca2 e43e
000000b0: 1a62 1f3e 72d4 4f3e 7bb3 593e 1bdb d63e
000000c0: c4db 053f 6b05 d43d 6bfb ba3d abdf e03e
000000d0: d199 bf3d 42b9 183f ef48 ef3e 1ed5 97bf
000000e0: 93d9 483e 66a0 53be 6600 833d 0daa c03d
000000f0: f703 cd3d 7fe0 293e 1b07 863f ee35 8ebf
00000100: 66cf 433e 2e97 7b3e e8e5 553e 917c 99bf
00000110: 6885 483a 3990 aabf 15f7 3cbe 6533 163e
00000120: 3985 b73e 49ee 0c3f de14 98bd 1efb 53bf
00000130: 39c2 cd3e 622f 943e b369 eb3e f7ed 9b3e
00000140: 35eb 583e 6c16 2a3e 933e 88be fcbe 443d
00000150: 3168 92bf ae6d 473e 1de2 633e bad9 c6bd
00000160: a433 d33e 56ae 283f 14e5 04be 0dc5 35be
00000170: 13a0 5a3f 3c72 193e e9fe 983e 6d1e adbf
00000180: fee6 8fbf 6694 ce3d 3c13 d33e cf25 013f
00000190: 13af 9fbf 5138 afbf c7c4 613e fe46 e63e
000001a0: e307 b5bf 70d3 85bd c26c 5abf ffa9 48be
000001b0: b748 743e f978 a2bf 28bd 393e de4b cd3e
000001c0: 9231 1a3f b394 183f 94e9 a93f 0441 663e
000001d0: 1237 99bf d50e b6bf 0bee 93bf e71e 923e
000001e0: 65e1 2d3e e2d6 f73e 7e0c 01bd 3a03 f53e
000001f0: 1fa8 31be 04ac 99bf 040c 063f d1f2 c13e
00000200: 35d0 e93d cf3a 8b3e c9ee c73e 5b2b 8dbf
00000210: 48e8 3b3f 0dd9 e53e 1827 7e3f 4828 98bc
00000220: a988 4abe 160e 913e e5b3 043f 0b84 da3e
00000230: 267b 953e e677 8dbf 921f e13e c583 293e
00000240: 284b d03e a83e b73d bfd6 8b3e 3429 b93e
00000250: a171 7cbf d71b ae3e a073 a23e 0288 053f
00000260: 8e77 b9bf 2f6e 6a3e c3e4 f83e e131 173f
00000270: 94b4 803e bc59 8d3e 1905 cb3e 2285 a03e
00000280: f5c7 e93d e46c d73e 580d e73e 00fa 1a3f
00000290: 607b c13d 0baa 98bf 88a8 943d 13f3 b3bf
000002a0: b084 873e 2477 febd bf22 7c3e a714 563e
000002b0: b6e3 673e 9eed c73e 54cb 933e 6249 df3e
000002c0: 80ed 7e3e 7f8f 323e 871d 9b3e 0bf3 d83e
000002d0: 4ad5 653e 84c3 163f cc94 db3e cd2d 91bf
000002e0: 5dbd 513e 80a5 273e 1b41 3cbe af85 9f3e
000002f0: 3c35 903d 5288 c93e c22a a33f 85b4 9bbf
00000300: 2b1e a83e 8fd8 073f 1b4d 273e 2db9 98bf
00000310: 8313 053e 98e9 9ebf 33a3 c63d e259 083f
00000320: 274a 6a3e f6c4 2a3e f560 9e3c 2001 8cbf
00000330: 0600 943e 8993 d73e 84a0 ea3e 44ce 163e
00000340: 2f1f aa3e 5a27 09be 34d2 8ebd dcbf 573e
00000350: 9149 6fbf 857b 903e 0200 4f3e 93c7 503e
00000360: 632d fc3e 39c7 bc3e 6f0f 11be cbc8 303e
00000370: 7864 503f 5e9a 1fbe 9526 ba3e 1899 8dbf
00000380: 7295 87bf e177 d63e eeed b13e 1311 2e3e
00000390: 60f3 8bbf 85a8 81bf ea6a 013f de36 b53e
000003a0: 15b6 b7bf 76da 643d e867 88bf 469b a0bd
000003b0: 112f e53e 8736 babf cac6 c23e 240f e53e
000003c0: 06b2 273f c42f 0c3f 9a24 943f 878e fd3e
000003d0: daca b1bf 4b43 aabf 750b aebf 945f 123e
000003e0: 7c2f b23d cd2b ec3e 2bd6 043e 7440 253e
000003f0: b136 433e 5d08 98bf 1fd0 b33e 65da d23e
0.1628282 0.36750105 0.37434882 -1.1464071 0.60691786 0.34539175 0.85736245 -0.115443826
0.057045687 0.27391675 0.502193 0.19101572 0.45035377 -1.0783669 0.21962936 0.46149457
0.18719953 0.21315949 0.33133873 0.3646856 -0.9917617 0.30204296 0.52698153 0.56644726
-1.2505468 0.6697592 0.37116456 0.6264276 0.34675485 0.15077366 0.4926068 0.60293823
0.4146842 0.37545183 0.45999345 0.40979794 0.22675213 -1.2671832 0.1840719 -1.3131238
0.41454548 -0.12608555 0.13164093 0.44654882 0.15564767 0.20295885 0.21259873 0.4196404
0.5228846 0.10352596 0.091299854 0.43920645 0.0935551 0.5965768 0.4673533 -1.1861913
0.19614248 -0.20666656 0.0639656 0.094074346 0.10010522 0.16589545 1.0470918 -1.1110208
0.19122085 0.24569389 0.20888484 -1.199114 0.00076492736 -1.3325263 -0.1845363 0.14668043
0.35843828 0.55051094 -0.07425855 -0.8280505 0.40187243 0.289424 0.4597908 0.3045499
0.21183474 0.16610116 -0.2661024 0.0480337 -1.1438047 0.19475433 0.22254224 -0.09709497
0.41250336 0.65891016 -0.12978011 -0.1775095 0.85400504 0.14984983 0.2988198 -1.352491
-1.1242368 0.100868985 0.41225612 0.50448316 -1.2475303 -1.3689061 0.22047721 0.44976038
-1.4143032 -0.06534469 -0.853222 -0.19596098 0.23855864 -1.2693168 0.18138564 0.40096945
0.6023189 0.59601897 1.3274407 0.22485739 -1.1969931 -1.4223276 -1.155702 0.28539202
0.16980512 0.4840613 -0.031506054 0.47854024 -0.1734929 -1.200562 0.52362084 0.37880567
0.114166655 0.27193305 0.39049366 -1.1028856 0.7340131 0.4489216 0.992784 -0.018573895
-0.19778694 0.2833106 0.51837 0.42678866 0.29195517 -1.1052215 0.439694 0.16554172
0.4068234 0.089474976 0.27312276 0.36164248 -0.98610884 0.34005615 0.3172884 0.52160656
-1.448961 0.22893594 0.4861203 0.59060484 0.2513777 0.27607524 0.39652327 0.31351572
0.11415092 0.42075264 0.45127368 0.6053772 0.0944736 -1.1926893 0.07258707 -1.4058555
0.2646842 -0.12425068 0.2462263 0.20906316 0.22645459 0.39048475 0.28866065 0.43610674
0.24895287 0.17437552 0.30295965 0.42372927 0.22444645 0.58892083 0.4288696 -1.1342102
0.20482393 0.16371727 -0.18384211 0.3115668 0.07041404 0.39361817 1.2747424 -1.2164465
0.32835516 0.5306482 0.16338007 -1.1931511 0.12995724 -1.2415037 0.096990965 0.5326215
0.2287985 0.16676697 0.019333342 -1.0937843 0.28906268 0.42104748 0.4582559 0.14727122
0.33226916 -0.13393918 -0.06973687 0.21069282 -0.9347163 0.28219238 0.20214847 0.20388632
0.49253377 0.36870745 -0.14166044 0.17264096 0.81403303 -0.1558623 0.3635756 -1.1062346
-1.0592482 0.41888335 0.34751838 0.16998701 -1.0933647 -1.0129553 0.5055376 0.35393423
-1.4352442 0.055872403 -1.065671 -0.07842116 0.4476247 -1.454789 0.3804229 0.44738114
0.6550602 0.54760385 1.157367 0.49522802 -1.389003 -1.3301786 -1.3597246 0.14294273
0.08700463 0.46127167 0.12972324 0.16137868 0.19063832 -1.1877552 0.3511972 0.41182247

fc2.bias f4 [2]
00000000: 948d 863e e6b0 b53e
0.2627989 0.35486525
