saved_models/pole_DQN/train_DQN_pp_0/best_online_net.pth (torch, 5712 bytes, 4 tensors)

fc1.weight f4 [128, 4]
00000000: d1c1 723e 644e d8be ecbb 72be 0d94 b13e
00000010: c525 833e 3579 13bb 2627 e9bf 95f5 43bf
00000020: 79fb 77be 3291 21be 6390 1540 a2a0 633f
00000030: c428 14be 546e 0e3e 9e79 ee3f 1a2a 353f
00000040: 77bb 2a3e f8d3 c5bd 366e b6be 6387 09be
00000050: b105 3ebe 285e f03d e5c2 0b40 9e74 333f
00000060: 83a2 4b3e 789e 95bd 65f6 92be ff81 f0bc
00000070: 56a9 bb3d bb7c acbe ac23 45be 5c95 0fbe
00000080: 2e1f a03e 667a d8bb 7577 80be 0929 c13d
00000090: c09b 623e 5324 2dbc ea7c c1bf fef9 4cbf
000000a0: 9b08 b23e 9299 0abf 2434 50be a3ae 7e3e
000000b0: 87fc 983e e3d9 12bf 9ed4 c8be 2fef 853e
000000c0: 883e 983e 6c10 b93d bf16 3ebe 96f3 5e3c
000000d0: 7fc2 15bd ab3e cabd a38b b5be 1d5c 38be
000000e0: 8524 c53d c8c2 14bf 2ad6 dcbe f38e 0c3e
000000f0: 24c7 db3d 80ea 40bf 8ade 5dbf e248 8d3e
00000100: 4f93 b43e c158 35be d2a6 e3bf a77f 43bf
00000110: 7367 f7be ca01 1cbd 56a1 1840 8946 6c3f
00000120: 7002 4f3d 892a 66be 15e1 b7be f90f 8dbd
00000130: f069 a8be 4907 fdbd 4ac2 0640 5d0a 7f3f
00000140: c424 8c3e 3f82 17be cb0a cabe d54a cbbd
00000150: 4140 0f3e e2e2 0cbf 878d 46bf 3848 8a3e
00000160: 8d76 4e3f 3105 3c3e fb70 ccbf 6c5e 19bf
00000170: 0516 a03d 4c40 79be 6266 56be 85c6 43be
00000180: 0977 233b c01b edbd 4fd9 12bd efd3 9bbc
00000190: 090f bc3d 027b d1bd a57a 9cbd 11cd 533d
000001a0: cee5 743b 574d 2e3d 1170 293e 8f13 ce3d
000001b0: 8e23 983e c192 00bd 787a 1abe 5276 90bd
000001c0: 3809 46be 155c d5be d20a 9cbb f22f 613e
000001d0: f260 c83c d3af c2bc 681c f0bd 4ba4 28b8
000001e0: c363 e83d eb49 1ebe ee16 25bd 9413 163d
000001f0: 1475 fa3d ae1e 36bd 74e9 af3d 2f1b 53bc
00000200: f7eb 953b 7c85 1b3e 4dc0 f3bc 6c24 363d
00000210: 48f7 aa3c 5747 dbbd 683a bd3d 9139 8bbc
00000220: 5288 b53c 0c5e d0bd add1 b9bd 433b 02bc
00000230: e873 42be 7e2b 363e 9c5f 1440 2640 763f
00000240: e5a7 f0bc d435 b3be 725b 4ebe 976f a33e
00000250: f2a8 d13d ef85 aabe a0de cdbe 1748 bb3e
00000260: 32ee a63d 6886 363e c3f0 dfbc e247 b53c
00000270: fabf 433d fda2 87bd 54a7 80bd 9a63 00be
00000280: 58a2 a63e 3fe6 cdbe 5c03 19bf 38c3 d43e
00000290: 3c1c ce3c 7b12 dcbe 1271 1cbf d2f5 a53e
000002a0: 6b92 c93b 2727 73be 4afe fbbe ed2c 2bbe
000002b0: c204 ab3d 9c07 8cbe 8b95 6fbe 67e3 6cbe
000002c0: 6382 12be 8150 5a3e 6cc3 0e40 e5ec 6d3f
000002d0: 194a 31bf 3269 a63e adcb 1440 1bc4 0b3f
000002e0: a2a0 b4be 5d5a 82bd ae89 0640 00d4 893f
000002f0: 4a31 083f a021 23bf 55bf 1fbf de53 9e3e
00000300: df1b c83e 134c 04be 79e2 a9be b749 123d
00000310: 1122 323e bbbf bfbe b385 a5ba 9cac 823e
00000320: e086 a03e 4b82 3ebe 8452 febe 7248 3ebd
00000330: 170e 353e 0ade 2dbd 080f c7bf 4f3d 5cbf
00000340: 7410 c43e 521c 00be 66b2 24be fe3d a1bd
00000350: b11b 1bbf bded e7bd db2a 0040 377a 753f
00000360: baab abbd 9ec4 f2be 7ca0 73be cfa4 983e
00000370: 818e e3bc e6ac 16bf 8a3f 8cbe 19a2 513e
00000380: 9d13 5c3e c013 23be d2de dbbd 3d2a 00be
00000390: ac90 a63e e69b 233e a675 f7bd 55b5 debe
000003a0: 4796 67be d2b7 993d 2693 1240 ee38 633f
000003b0: d285 2e3d 209f 1cbd c0fd 8dbe bc09 6f3d
000003c0: 5dfb ab3d e2b4 f1be 6a5d debf 8717 ffbe
000003d0: 8154 cabd d458 c4bc 3731 efbd 9ac7 833d
000003e0: 2efc 59be 6ba2 283e f196 0540 5c38 773f
000003f0: 72b3 10be 7589 8ebe d385 4f3f 30e7 fc3e
0.23706748 -0.42247307 -0.23704499 0.34683266 0.25614753 -0.0022502665 -1.8215072 -0.76546603
-0.24217023 -0.15778044 2.3369377 0.8891698 -0.14468676 0.13909274 1.8630865 0.70767367
0.16673075 -0.096595705 -0.3563096 -0.13430552 -0.18556859 0.11736709 2.1837704 0.7009982
0.19886212 -0.07305616 -0.2870361 -0.029358862 0.09163158 -0.33688912 -0.19251889 -0.1402182
0.31273788 -0.006606388 -0.25091138 0.09431655 0.22129726 -0.010567742 -1.5116246 -0.8006896
0.3477219 -0.5414058 -0.2033239 0.24871306 0.29880163 -0.5736372 -0.39224714 0.26159045
0.29735208 0.09036335 -0.18563364 0.01360788 -0.03656244 -0.09875234 -0.35458097 -0.18003888
0.09626106 -0.5810971 -0.43132144 0.13726406 0.107313424 -0.7535782 -0.8666769 0.27594668
0.35268638 -0.17709638 -1.7785285 -0.76366657 -0.48321113 -0.038087644 2.3848472 0.9229513
0.050539434 -0.22477163 -0.3591391 -0.06887812 -0.32893324 -0.12354905 2.1056085 0.9962519
0.273718 -0.14795779 -0.3946136 -0.099263825 0.13989355 -0.55033696 -0.77559704 0.27008224
0.80649644 0.18361355 -1.5971979 -0.599097 0.078167 -0.24340934 -0.20937493 -0.19118698
0.0024942777 -0.115775585 -0.035851773 -0.019021956 0.09182555 -0.1022854 -0.0764058 0.05170924
0.003736842 0.042554226 0.16546656 0.10062324 0.29714626 -0.031389955 -0.1508578 -0.07053818
-0.19339454 -0.41671816 -0.004762032 0.21990946 0.02446029 -0.02376548 -0.11724168 -4.020733e-05
0.11347153 -0.15457885 -0.04030507 0.036639765 0.12229362 -0.044462852 0.085894495 -0.012884899
0.0045752483 0.15187639 -0.029754782 0.04446833 0.020869866 -0.10706966 0.09239656 -0.016995223
0.02215973 -0.10174188 -0.090731956 -0.007948699 -0.18989527 0.17790028 2.3183355 0.9619163
-0.029376933 -0.35002005 -0.20152071 0.31921074 0.10237302 -0.33305308 -0.40208912 0.36578438
0.08150901 0.1782471 -0.027336484 0.022129003 0.047790505 -0.066228844 -0.06281915 -0.12537995
0.32545733 -0.40214726 -0.5977075 0.4155519 0.025159948 -0.4298285 -0.6111003 0.3241411
0.0061514876 -0.23745404 -0.49217445 -0.16716357 0.08350517 -0.27349555 -0.2339689 -0.23133622
-0.14307551 0.21319772 2.2306776 0.929396 -0.6925369 0.32502133 2.3249314 0.5459611
-0.35278803 -0.06364892 2.1021533 1.0767822 0.5320021 -0.6372318 -0.62401325 0.3092336
0.39083764 -0.12919645 -0.33180597 0.03571483 0.17395808 -0.37450966 -0.0012628346 0.25522316
0.313529 -0.1860439 -0.4967233 -0.046455808 0.17681156 -0.04244808 -1.5551462 -0.8603105
0.38293803 -0.12510803 -0.16083679 -0.07873152 -0.6058913 -0.11324642 2.0026157 0.9588961
-0.083823636 -0.47415632 -0.23791689 0.2981324 -0.027777912 -0.5885757 -0.27392226 0.20471992
0.21491857 -0.15925503 -0.10735859 -0.12516113 0.3253225 0.1597744 -0.120829865 -0.4349772
-0.2261592 0.07505764 2.2902312 0.8875874 0.04260809 -0.03823769 -0.27732658 0.058358893
0.08397553 -0.47208315 -1.7372258 -0.49822637 -0.09879399 -0.023968138 -0.11679309 0.06434555
-0.21287605 0.16468208 2.0873377 0.9657037 -0.14130953 -0.27839246 0.81063575 0.49395132

fc1.bias f4 [128]
00000000: b26e 463f f221 4dbe bf01 41be 829d 03bf
00000010: a549 d33e 45af 0cbf bb22 383f 9a4f 273f
00000020: 6497 603f 5d26 07be 1c90 2a3f 287b 233f
00000030: 936d 363f d756 f23e f20d e83e 264d cf3e
00000040: d85b 92be 8978 1a3e a99a 413f afee c0bd
00000050: b873 e43e 0ee7 0c3f fa56 89be ab94 5b3f
00000060: 6e9e babe cb3e 193f ccee 9cbe 9cd3 183f
00000070: e0fc 423f 6858 17be f181 ddbe c845 43be
00000080: 1ec1 debe 6518 77be 00bf cabe bffb 2dbf
00000090: aeea 283f 51d2 223f 62f7 e33e c692 adbe
000000a0: 5cc6 2b3f d5b6 1b3f f897 273f 88bf 013f
000000b0: 8214 26bf 1893 f83e adac fa3d 4a16 223f
000000c0: 7901 3a3f 5e12 163f c1a7 2e3f d727 03be
000000d0: 0c77 4c3f 72f3 fc3d 8c6a 483f 74e1 4d3f
000000e0: 86b2 033f 5190 133f 5cbd 26bf ea89 643f
000000f0: 2d23 8ebe 8b33 b1be ea1c 28bf 8a85 5abf
00000100: 6081 133f 185f 163f a4f9 313f 372e 0c3f
00000110: 9b8c fe3e 65b2 09bf e14c 1a3f 4023 f7be
00000120: cd79 993e 3c92 e5be b0d3 263f 127f c6bc
00000130: 04fd 343f d1cb d63e 721d 223f 8e4a be3d
00000140: 6a17 cdbe 840c 543f 6d75 003f 9c0e c0be
00000150: ba1c 0d3f d624 eb3e 8d64 543f 8964 183f
00000160: ee40 bcbe 691b cc3e 45b4 2c3f f6d1 183f
00000170: 4df6 fb3e 7dd9 e73e 7b4c ffbd d7c7 cebe
00000180: f78d f6be 439f 323f 0f46 653e df25 323f
00000190: 020f 233f ddc8 b53e cf15 723f 116b 3f3f
000001a0: 7682 d23e ea25 a4be f6da 2f3f 0a65 99be
000001b0: 1721 c1be 5ef3 a6be 5c5d 483f 09a0 dcbe
000001c0: e6d0 a5be 37d7 1b3f 6986 26bf 1dfa 093f
000001d0: 1c9e e43e c2d5 343f f1a1 2e3f b8a1 5abf
000001e0: 38e1 59bf e1fe 373f 1c89 7abe 1152 de3e
000001f0: aafe cdbe 5c95 bb3d 80b0 693f 8fbf f23d
0.7751266 -0.2003248 -0.18848322 -0.5141221 0.41267124 -0.5495494 0.71927994 0.6535584
0.87731004 -0.13198228 0.66626143 0.63859797 0.71260947 0.4733188 0.4532314 0.40488547
-0.28585696 0.15085043 0.7562662 -0.09420525 0.44619536 0.5504006 -0.2682417 0.85773724
-0.36448997 0.5986144 -0.30650938 0.5969789 0.76167107 -0.14779818 -0.432632 -0.19069588
-0.43506712 -0.241304 -0.39598846 -0.6796226 0.6598309 0.6360217 0.44524676 -0.33901042
0.6709955 0.60825855 0.6546626 0.5068288 -0.6487504 0.48549724 0.122399665 0.6331526
0.726585 0.58621776 0.6822472 -0.12808166 0.7986915 0.12351121 0.7828758 0.8042214
0.5144428 0.57642084 -0.6513269 0.8927294 -0.27761212 -0.34609637 -0.6566912 -0.85360014
0.57619286 0.5873885 0.69521546 0.5475802 0.49716648 -0.53787833 0.6027356 -0.4826908
0.2997574 -0.4483813 0.6516676 -0.024230514 0.7069857 0.41952375 0.6332618 0.09291564
-0.40056926 0.828316 0.5017918 -0.37511146 0.5512196 0.4592654 0.8296593 0.59528404
-0.36768287 0.39864662 0.6746257 0.59695375 0.4921135 0.45283118 -0.12465759 -0.4038684
-0.48155186 0.69774264 0.22390006 0.69589037 0.63694775 0.3550481 0.9456453 0.74772745
0.4111516 -0.32060176 0.6869348 -0.299599 -0.37720558 -0.3260755 0.78267455 -0.43090847
-0.3238594 0.60875267 -0.65048844 0.5389727 0.44651878 0.7063867 0.6821585 -0.85403013
-0.8510928 0.7187329 -0.24466366 0.43421987 -0.40233356 0.091593474 0.9128494 0.11852943

fc2.weight f4 [2, 128]
00000000: b905 2c3f 2b83 5bbf 10ab 9fbf 9fe6 abbf
00000010: ba82 c43e e547 acbf dcb2 d03e 69ca d63e
00000020: e4df cf3e 5e04 71bf 8566 103f c26a 4d3f
00000030: 4e89 e73e 64d5 4e3e 09e6 313f 8ec4 503f
00000040: c746 84bf 235a a9bf 5f76 b83e 506e 8abf
00000050: e2bf 263f 2d5f 2e3f 96d1 76bf 2613 063f
00000060: e9f5 56be 2fdd a73e 9463 33bd ba6f 063f
00000070: c1ca ad3e 6463 f83d 8298 183e cd7d d8bd
00000080: e64c 8bbd 9d6c 363e a1e8 d2bb d605 c4bf
00000090: a1b5 df3e 4698 473f 3c5d 863e 6f90 1e3d
000000a0: e5a6 373f 9c18 113f ad1b e53e 3326 1c3f
000000b0: e859 b2bf 3a1e a0bf 7792 a8bf 00be 3e3f
000000c0: 1953 193f 64d5 103f 11d4 c43e 10af 8fbf
000000d0: 012d 003f a795 86bf b99c 0d3f bd91 193f
000000e0: 4405 083f c765 ba3e 4ae7 a2bf e27e 9f3e
000000f0: d61c b5bf ef74 c9bd 7097 a2bf d164 e83f
00000100: a541 173f 1108 0b3f 9d15 033f 8e25 8d3e
00000110: 8967 133f 7e52 a3bf 3bb9 813e afcf bbbc
00000120: 7c5b c3bf c900 cd3d 2c3c 413f c615 b4bf
00000130: a372 063f 5157 d43e 7fff 213f 7c18 85bf
00000140: c275 4cbe 433c 113f d8ee 713e 5d4a a6bf
00000150: deb6 813e a09a 163f 50a0 103f 3907 c03e
00000160: 99d4 80bf 4219 383e 6fd3 b73e 45f7 903e
00000170: f188 cd3e 338b 1e3f 6be3 7dbf 9049 31be
00000180: b469 8f3c cf16 173f dc64 a1bf 8154 153f
00000190: 7162 c93e e3de e73e 11c7 9f3e d405 183f
000001a0: 7bba b83e db29 6cbd ba07 9f3e 1d4b 453d
000001b0: 71b1 36bf 64aa 57be 7377 cc3e c473 82bf
000001c0: 81d4 6dbf c219 6c3e 4507 b43f 2925 123f
000001d0: 1f71 763e ca77 013f d41e 8d3e c927 0040
000001e0: efc0 da3f 043c 593f 35a7 443e 2813 cd3e
000001f0: 68da 313d d302 29bf 7c8e f33e 3489 95bf
00000200: 1796 203f 2fcb 89bf 5267 71bf 24eb b0bf
00000210: eedd b63e eb17 b8bf c632 193f 1553 9b3e
00000220: 3332 f93e da57 83bf fe09 6b3f 5e1d ec3e
00000230: be90 a53e 1a8f bd3e c2f9 de3e c6bb 493f
00000240: 4851 8bbf dbe5 afbf afeb 103f b158 7cbf
00000250: 6bf5 163f bcc1 5e3f 3926 62bf 056f aa3e
00000260: 9b3f 22be e1b7 733e 62ec 5d3d 1577 c53e
00000270: 6315 d03e 2f67 09be f4ed 5a3e b8da ccbd
00000280: 9067 a5bc 78c7 943d 029c 0bbe 3c8c c2bf
00000290: c0bd 133f c18a 483f b9a7 003f bea2 4a3e
000002a0: a4d3 3e3f aebc cd3e 8acf 0e3f eb52 073f
000002b0: 76bc c7bf 37b0 94bf 3189 73bf 3a63 383f
000002c0: 1d53 0b3f 80eb d03e 9280 0b3f 0068 85bf
000002d0: 3aed 013f 7043 a1bf 1a45 e93e edcf 1f3f
000002e0: 22ab e43e 8b06 bc3e c87c 98bf cc36 bc3e
000002f0: 7066 c3bf cd35 11be 748a b9bf 78fc da3f
00000300: d250 cd3e 8a1b 993e ecdf 2d3f 388d 7c3e
00000310: 5278 b03e cef2 a5bf bf8e 003f a7fa da3d
00000320: 22bc d1bf 657b 313d b4a1 533f 12f7 a6bf
00000330: daf3 873e eb29 d53e 6a92 a03e 0f5b afbf
00000340: 7e55 92bc 50af 053f c20a 303e 2e09 a1bf
00000350: e85f 063f 9e21 233f a73a 953e 7c20 233f
00000360: 0fcb 90bf 09c5 3a3e 75c0 0e3f 4767 083f
00000370: f90c c83e 4d70 273f 3a88 53bf 604f f33d
00000380: 4a18 8dbc 9638 db3e 8151 a2bf c991 043f
00000390: abd9 b53e 148c 383f 961c d53e 3d45 383f
000003a0: 8968 e53e e9c6 263d fa08 9c3e 7ad5 e5bd
000003b0: 4202 81bf c69b 943d cf92 d13e 38a3 59bf
000003c0: 7cc1 63bf 0f23 fd3e 64fc cb3f 11c0 c03e
000003d0: bba3 b13e 186f dd3e 5690 073f 32f4 f53f
000003e0: cd81 e43f c620 3f3f ad08 2d3e 0bee a33e
000003f0: cf63 a0bb 8be4 0cbf 83bf a73e 5e4a 92bf
0.6719623 -0.8574702 -1.2474079 -1.3429755 0.38380986 -1.345944 0.4076146 0.41951302
0.40600502 -0.9414729 0.5640643 0.80241024 0.45221943 0.2019859 0.6949163 0.8154992
-1.03341 -1.3230633 0.3602781 -1.0814915 0.6513654 0.68113977 -0.9641355 0.5237297
-0.20992245 0.32785937 -0.043796137 0.5251423 0.3394375 0.12128332 0.14901927 -0.105708696
-0.068017766 0.1781487 -0.006436423 -1.5314281 0.4369326 0.77966726 0.26243007 0.03871196
0.71739036 0.56678176 0.44747677 0.6099579 -1.3933687 -1.2509224 -1.3169698 0.74508667
0.5989242 0.5657561 0.38443044 -1.12253 0.5006867 -1.051442 0.55317265 0.59988004
0.53133035 0.36405775 -1.2726834 0.3115149 -1.4149425 -0.098367564 -1.2702465 1.8155767
0.5908454 0.54309183 0.51204854 0.27567714 0.5757986 -1.275955 0.25336632 -0.02292618
-1.5262294 0.100099154 0.7548244 -1.4069145 0.5251867 0.41472867 0.6328048 -1.0398097
-0.19966796 0.5673258 0.23626268 -1.2991444 0.2533483 0.5882969 0.5649462 0.3750551
-1.006488 0.17978385 0.359035 0.28313652 0.4014354 0.6193115 -0.9917514 -0.17313218
0.017506458 0.5901918 -1.2608905 0.5833207 0.39332917 0.45287237 0.31206563 0.59383893
0.36079773 -0.057657104 0.31060582 0.048167337 -0.71364504 -0.21061093 0.39934883 -1.0191579
-0.9290238 0.23056701 1.4064718 0.5708795 0.2406659 0.5057341 0.27562582 2.0024283
1.7090129 0.848572 0.1920441 0.40053678 0.04342118 -0.66019934 0.47569644 -1.1682496
0.6272902 -1.0765132 -0.9429828 -1.3821759 0.35716194 -1.4382299 0.598431 0.30336824
0.4867111 -1.0261185 0.9181212 0.46116155 0.32336992 0.3702324 0.43549925 0.78802145
-1.088418 -1.3742021 0.56609625 -0.9857283 0.5896823 0.87014365 -0.88339573 0.33287826
-0.15844576 0.23800613 0.05418051 0.38567415 0.40641317 -0.13418268 0.21379834 -0.10002655
-0.020190984 0.07264608 -0.13633731 -1.5199046 0.5771141 0.7833672 0.50255924 0.19788644
0.7454169 0.40183014 0.5578543 0.528609 -1.5604389 -1.1616277 -0.9513121 0.7202641
0.54423696 0.40804672 0.5449306 -1.0422363 0.50752604 -1.2598705 0.45560533 0.62426645
0.44661814 0.36723742 -1.191308 0.36760557 -1.5265636 -0.1418068 -1.4495378 1.7108297
0.40100724 0.29903823 0.679198 0.24663246 0.34466797 -1.2964723 0.50217813 0.106923394
-1.6385539 0.04333057 0.82668614 -1.304415 0.2655323 0.41633543 0.31361705 -1.3699664
-0.017863031 0.5222063 0.17191604 -1.2580926 0.5249009 0.6372317 0.2914631 0.6372144
-1.1311969 0.18239225 0.55762416 0.5328259 0.39072397 0.6540573 -0.8262974 0.11880374
-0.017223496 0.4281661 -1.2681123 0.5178495 0.3551763 0.7208874 0.41623372 0.7198065
0.44806316 0.04071704 0.304756 -0.11222358 -1.0078814 0.07256274 0.4093232 -0.8501468
-0.8896711 0.4944081 1.5936399 0.37646535 0.3469523 0.4324882 0.52954614 1.9215147
1.7852112 0.74659383 0.16897841 0.3201755 -0.0048947106 -0.5503623 0.327633 -1.1428945

fc2.bias f4 [2]
00000000: 3c61 cb3e 4494 af3e
0.3972262 0.34292805
