saved_models/pole_DQN/train_DQN_pp_9/best_online_net.pth (torch, 5712 bytes, 4 tensors)

fc1.weight f4 [128, 4]
-0.14800178 -0.20776229 0.074569434 0.31161523 -0.934365 -0.1426682 1.7400159 0.91534334
0.020904694 1.0690492 2.7327654 0.62872314 0.11583405 0.037582193 0.015394498 0.08650384
-0.17114887 0.057179388 0.91249377 0.6208189 0.07029893 0.958667 1.705484 0.21654876
-0.31594995 -0.21347043 0.32498512 0.3198655 0.20179665 -0.2048212 -0.12638824 -0.083502464
0.32267615 1.0996975 1.5928284 0.17919734 0.8216947 -0.30320108 -3.0526848 -1.0497705
0.07023718 -0.28031102 0.3252541 0.25321186 -1.2153453 -0.4337775 1.2708106 0.7661351
-0.15434848 -0.28022218 0.5778069 0.32584825 -0.1471069 0.3349367 0.19417158 -0.4778242
0.8699483 -0.30943555 -3.2773316 -1.1274292 0.110059574 -0.52823037 -0.119659804 0.27159274
-0.59358096 0.8197337 2.7943013 0.53409594 -0.04930191 0.07904228 0.5589672 -0.097251825
-0.7280786 1.0278567 3.0776882 0.6791557 0.78286815 -0.033688493 -3.283458 -1.1955116
-0.1790697 0.09325582 0.35392597 -0.13678469 0.022487096 -0.7696327 -4.190633 -0.3512503
-0.37968007 0.9744196 2.703371 0.66588175 -0.17086214 -0.11450581 0.5289589 0.36457238
-1.2275087 -0.37259874 1.3350568 0.761293 -0.058405798 -0.19809477 0.017205438 0.275278
-0.14021271 0.33901975 0.35675526 -0.42813623 -0.38081586 0.005279828 0.54867727 0.32349843
-0.17387147 -0.15712659 0.11693685 -0.18596648 -0.43155637 -0.07582734 0.45234376 0.31702396
-0.28887147 0.47437564 0.35612914 -0.38352737 -0.21779037 -0.18441406 0.6682689 0.39917997
-0.2947423 -0.266286 0.41205317 0.354186 -0.042749256 -0.50258905 -0.16394904 0.42332622
-0.056812398 0.10629497 -0.07100482 0.1671371 0.043625865 0.28891307 0.50110507 -0.31948185
-0.05226475 0.85729754 1.1453596 -0.12858789 -0.36787617 -0.021330424 0.40391347 0.1289867
-0.31723747 -0.043267544 0.58055955 0.28698018 -0.26817986 0.24139822 0.3988101 0.24537988
0.4436522 -0.16334681 0.8341468 0.66451466 0.38277575 0.29762107 0.6099309 -0.13865842
-0.33348864 0.43548098 0.07498734 -0.5263117 -0.15275146 -0.11503946 0.50149727 0.28367224
-0.42007557 0.4918383 0.15040798 -0.5483694 -0.1739891 0.04457308 0.7614882 0.3199816
0.25321776 -0.40433955 0.12762965 0.10576499 -0.26342252 0.26226515 0.6910114 0.095850535
-0.3214738 0.22590074 0.6197388 -0.04944802 -0.245513 0.15874808 0.2780756 0.065201275
0.14336643 -0.12662229 -0.12519988 -0.15405086 -0.35935044 0.49082348 -0.015652442 -0.53574467
-0.076630086 0.26415855 0.70771056 0.18390253 -0.18468033 0.35629022 0.1649188 -0.52442
-0.10346057 1.0859246 2.844586 0.71296936 0.33494857 -0.22045732 -0.22085208 0.09136325
0.17531873 -0.08936059 -0.11363751 0.045553584 -0.2130334 -0.05027383 0.4317657 -0.09798071
-0.31655744 0.23605195 0.6628154 0.102191895 -0.27739322 -0.05640103 0.48547783 -0.011221202
-0.062143512 -0.19537272 0.3157582 0.2337011 -0.061101485 -0.100925975 0.39973307 -0.1387418
-0.15987583 0.052786652 0.24722679 0.09238729 -1.1235135 -0.72719187 1.3174217 0.9814438
00000000: c78d 17be a3bf 54be dcb7 983d 088c 9f3e
00000010: 8b32 6fbf 9d17 12be d7b8 de3f f153 6a3f
00000020: 5240 ab3c 9bd6 883f a1e5 2e40 00f4 203f
00000030: 673a ed3d c9ef 193d 3439 7c3c ed28 b13d
00000040: a641 2fbe ef34 6a3d 3199 693f fded 1e3f
00000050: e3f8 8f3d 336b 753f 4d4d da3f f5be 5d3e
00000060: 31c4 a1be fe97 5abe 7364 a63e 69c5 a33e
00000070: c8a3 4e3e a6bc 51be eb6b 01be 5703 abbd
00000080: cf35 a53e e3c2 8c3f cde1 cb3f 827f 373e
00000090: 955a 523f 2c3d 9bbe 305f 43c0 e15e 86bf
000000a0: 83d8 8f3d ed84 8fbe b587 a63e fca4 813e
000000b0: 6f90 9bbf 1618 debe eca9 a23f 6e21 443f
000000c0: 870d 1ebe 4879 8fbe 27eb 133f 95d5 a63e
000000d0: 31a3 16be d37c ab3e ead4 463e 60a5 f4be
000000e0: efb4 5e3f 566e 9ebe cdbf 51c0 9a4f 90bf
000000f0: ea66 e13d 1b3a 07bf 3310 f5bd 340e 8b3e
00000100: ecf4 17bf 11da 513f d5d5 3240 83ba 083f
00000110: cdf0 49bd ebe0 a13d 7918 0f3f f72b c7bd
00000120: 5c63 3abf cf90 833f d8f8 4440 26dd 2d3f
00000130: 0c6a 483f f2fc 09bd 2d24 52c0 8606 99bf
00000140: 0c5e 37be e8fc be3d c935 b53e 4911 0cbe
00000150: dc36 b83c a606 45bf aa19 86c0 14d7 b3be
00000160: 6d65 c2be 9073 793f 0804 2d40 3a77 2a3f
00000170: 7cf6 2ebe 0682 eabd da69 073f 3ba9 ba3e
00000180: 011f 9dbf 43c5 bebe 24e3 aa3f 19e4 423f
00000190: eb3a 6fbd 5bd9 4abe 6bf2 8c3c 3df1 8c3e
000001a0: ec93 0fbe ff93 ad3e a0a8 b63e ac34 dbbe
000001b0: 4cfa c2be 6802 ad3b 1d76 0c3f 96a1 a53e
000001c0: 5d0b 32be cbe5 20be 967c ef3d ff6d 3ebe
000001d0: f5f4 dcbe 5d4b 9bbd 9a99 e73e f750 a23e
000001e0: f6e6 93be 5de1 f23e 8f56 b63e b35d c4be
000001f0: 7004 5fbe 0ad7 3cbe ac13 2b3f 5161 cc3e
00000200: 76e8 96be a356 88be a2f8 d23e de57 b53e
00000210: d819 2fbd ada9 00bf 42e2 27be 37be d83e
00000220: 1eb4 68bd 2db1 d93d fa6a 91bd fd25 2b3e
00000230: 09b1 323d 6aec 933e 6c48 003f 2093 a3be
00000240: 9013 56bd da77 5b3f 259b 923f 8bac 03be
00000250: 445a bcbe 24bd aebc bfcd ce3e 1715 043e
00000260: f36c a2be 4f39 31bd 8d9f 143f 11ef 923e
00000270: df4e 89be 1831 773e d630 cc3e dd44 7b3e
00000280: 6226 e33e 6344 27be a58a 553f a21d 2a3f
00000290: 2ffb c33e ca61 983e 6e24 1c3f 79fc 0dbe
000002a0: 06bf aabe 5df7 de3e f692 993d 5dbc 06bf
000002b0: e16a 1cbe cf99 ebbd 2062 003f 7d3d 913e
000002c0: 2514 d7be 3bd2 fb3e 8d04 1a3e f061 0cbf
000002d0: 332a 32be 4392 363d e4f0 423f a1d4 a33e
000002e0: c2a5 813e 9805 cfbe 59b1 023e 519b d83d
000002f0: 51df 86be 9e47 863e 20e6 303f 494d c43d
00000300: 3798 a4be 8652 673e 34a7 1e3f 028a 4abd
00000310: c367 7bbe db8e 223e ed5f 8e3e 3f88 853d
00000320: a6ce 123e 46a9 01be 6634 00be 82bf 1dbe
00000330: c8fc b7be 374d fb3e 8d39 80bc 9026 09bf
00000340: 3cf0 9cbd ca3f 873e 852c 353f f250 3c3e
00000350: d71c 3dbe ac6b b63e 79e0 283e 6440 06bf
00000360: 23e3 d3bd 94ff 8a3f b20d 3640 2985 363f
00000370: 617e ab3e 90bf 61be 0c27 62be a81c bb3d
00000380: c186 333e af02 b7bd c8ba e8bd 6596 3a3d
00000390: 6d25 5abe eeeb 4dbd 6510 dd3e 1caa c8bd
000003a0: d113 a2be 9ab7 713e 45ae 293f fc49 d13d
000003b0: 7c06 8ebe c404 67bd 8d90 f83e 22d9 37bc
000003c0: 328a 7ebd c90f 48be 0fab a13e 574f 6f3e
000003d0: 8d45 7abd 47b2 cebd d0a9 cc3e 5512 0ebe
000003e0: 7db6 23be d136 583d 0529 7d3e 8c35 bd3d
000003f0: 4acf 8fbf 3f29 3abf 46a1 a83f e73f 7b3f

fc1.bias f4 [128]
0.6963239 -0.057023972 -0.32095468 -0.3906607 0.25740546 -0.18418854 0.7734718 -0.3548221
-0.26242703 -0.58136976 0.6656541 -0.068085544 0.83514 0.6268177 -0.6067747 -0.5454745
-0.24692748 0.8907304 -0.32965323 -0.63170576 0.77198255 0.35700247 -0.2828791 0.7182452
-0.04303491 0.6126333 0.54709786 0.5599153 -0.3493709 0.67512876 0.6622903 0.85921144
0.8876555 -0.55212706 -0.46324193 0.57624197 0.5538118 0.70973814 0.54714215 0.75278854
-0.37632564 0.21743988 0.7816289 0.58131623 0.486098 0.48624268 0.5543838 0.78965926
0.9009997 0.95847553 -0.3233502 0.47022673 0.61723435 0.5406938 -0.31881824 0.33170542
-0.37731236 0.874919 0.5882449 0.6188968 0.57542837 0.6080201 0.6986156 -0.116073266
-0.36923522 0.67917883 -0.44270468 -0.42759547 0.6193723 0.53740793 -0.33637378 -0.15286794
-0.12812805 0.52184 0.50587916 -0.3151446 0.6753117 -0.0058555175 -0.30614954 -0.48270363
0.9322527 0.6106288 -0.36134169 0.5116164 0.45541736 -0.07630202 0.5638825 -0.09588588
0.6005651 0.82879925 0.6049654 -0.0958017 -0.35478684 0.7820437 -0.32479447 -0.058812015
0.12241868 -0.5640953 0.78615284 0.5861892 -0.49435145 0.7995627 -0.35718182 0.66999656
-0.3152771 0.79696465 -0.49614736 0.8101359 0.7258555 0.7369271 -0.28611273 -0.3483544
-0.34192413 0.50433916 0.7790042 -0.44161698 -0.29209724 0.53158915 0.9524681 -0.5968374
-0.27550477 -0.4241373 0.7822632 0.6211845 -0.35028788 -0.26001644 0.20431767 -0.608993
00000000: 4842 323f f891 69bd 2c54 a4be ae04 c8be
00000010: a6ca 833e ec9b 3cbe 3f02 463f 3eab b5be
00000020: d65c 86be a6d4 14bf 4f68 2a3f 6f70 8bbd
00000030: bccb 553f 2077 203f 9655 1bbf 38a4 0bbf
00000040: 8fda 7cbe e806 643f 4fc8 a8be 78b7 21bf
00000050: a6a0 453f 07c9 b63e 88d5 90be ebde 373f
00000060: 6045 30bd 89d5 1c3f 9b0e 0c3f 9c56 0f3f
00000070: bee0 b2be 3dd5 2c3f db8b 293f 48f5 5b3f
00000080: 643d 633f 3358 0dbf 0c2e edbe 9884 133f
00000090: 9cc6 0d3f 66b1 353f 8211 0c3f c0b6 403f
000000a0: c1ad c0be 8fa8 5e3e d518 483f 24d1 143f
000000b0: d6e1 f83e cdf4 f83e 19ec 0d3f 1c27 4a3f
000000c0: eba7 663f a75e 753f 288e a5be 8fc1 f03e
000000d0: 1203 1e3f e96a 0a3f 253c a3be 4bd5 a93e
000000e0: 162f c1be b1fa 5f3f 3897 163f 0570 1e3f
000000f0: 464f 133f 35a7 1b3f 79d8 323f d2b7 edbd
00000100: 660c bdbe aade 2d3f 30aa e2be cbed dabe
00000110: 2f8f 1e3f 9193 093f 2f39 acbe 6a89 1cbe
00000120: 0034 03be 4e97 053f 4c81 013f a25a a1be
00000130: 3ae1 2c3f a4df bfbb a2bf 9cbe ee24 f7be
00000140: 1da8 6e3f 2b52 1c3f c701 b9be 4bf9 023f
00000150: 772c e93e 3c44 9cbd 9b5a 103f d15f c4bd
00000160: a2be 193f 302c 543f 03df 1a3f af33 c4bd
00000170: 9fa6 b5be 0434 483f 764b a6be dee4 70bd
00000180: a5b6 fa3d 8d68 10bf 5041 493f 7f10 163f
00000190: a21b fdbe 24b0 4c3f 89e0 b6be e584 2b3f
000001a0: 006c a1be e005 4c3f 0707 febe 1165 4f3f
000001b0: abd1 393f 41a7 3c3f 5e7d 92be 825b b2be
000001c0: ae10 afbe 5f1c 013f d26c 473f 9f1b e2be
000001d0: c58d 95be 3a16 083f f3d4 733f 56ca 18bf
000001e0: f60e 8dbe 8628 d9be 6742 483f f305 1f3f
000001f0: ef58 b3be e020 85be a738 513e f7e6 1bbf

fc2.weight f4 [2, 128]
0.24570982 -1.2280715 -2.7163484 -0.06992288 -0.48349023 -2.3650625 0.48649248 0.17836517
-1.6792159 -2.1235068 0.63514537 -1.1168073 0.58178973 0.7632248 -1.9823437 1.2693003
-2.3252568 0.3921559 -2.7317579 -1.9410591 0.4888534 -2.909387 -2.0571856 0.40727147
-1.0336907 0.2588906 0.8112095 0.45658138 0.09617786 0.39118174 0.65509117 0.43589914
0.36406478 1.1341388 -0.008763781 0.39240384 1.0606434 0.4790641 0.60040367 0.5497497
1.6477673 0.5036965 0.6029798 0.51410353 0.5768813 0.71693736 0.57992995 0.6612864
0.48221585 0.3578661 -0.13471536 0.6955842 0.69389296 0.7841799 -2.263535 0.3421841
0.07995378 0.4294503 0.45010582 0.6484695 0.34031415 0.63374794 0.3216446 -0.57250947
-0.065148875 0.40464625 -0.02843728 -1.7244667 0.5427717 0.3573917 -2.649807 -1.1081927
-0.06109997 0.6647637 0.6883231 -1.7543985 0.7812338 -1.2119446 0.15021962 0.0029010891
0.41311088 0.6799503 0.14363675 0.6715673 0.33288285 -1.0817586 0.41692784 -1.0015665
0.6834769 0.47612056 0.5511164 -0.7571443 -1.1738011 0.56328297 -0.055197544 -1.246335
-1.1401393 -2.2564 0.38740116 0.69580144 -0.10126872 0.4452079 1.6217575 0.40434274
-2.5815845 0.48953164 -0.08782159 0.51026106 0.67315465 0.5312655 0.16513094 0.16573854
0.051838864 0.6856834 0.24323934 0.118482016 -2.627764 0.6265012 0.43383828 -2.1244822
-0.1510969 0.16666459 0.2233768 0.4593699 -0.14689405 0.021301644 -1.60444 -1.9767891
0.42417562 -1.2193804 -2.8859124 0.053444076 -0.4393032 -2.133971 0.5367993 0.11374445
-1.9185505 -2.1542666 0.25971648 -1.0139574 0.670366 0.4349756 -1.9493263 1.1524009
-2.390426 0.63913316 -2.6221867 -1.64465 0.3830776 -3.0256274 -1.9538711 0.61644906
-1.1301897 0.5718442 0.6514692 0.62943757 -0.07394623 0.6253054 0.6857981 0.5371482
0.53035456 1.2117002 -0.16101278 0.58758575 1.3127329 0.3734587 0.43298116 0.25765926
1.8290592 0.65318626 0.7337213 0.6405571 0.71634954 0.5438762 0.7087088 0.2955525
0.3293104 0.47071573 0.10979538 0.50715303 0.29076552 0.55097044 -2.12923 0.2726972
0.08233602 0.61466086 0.45578736 0.665973 0.40881556 0.56207544 0.38715214 -0.92484605
0.13922864 0.2946178 0.08185745 -1.5050812 0.785326 0.3831812 -2.5662045 -1.0464418
0.05190619 0.8478268 0.52344435 -1.9566892 0.42840764 -1.067158 0.1036253 0.1466519
0.3309167 0.31214958 0.106310256 0.429499 0.010534086 -1.3081105 0.52158666 -1.0507399
0.5478013 0.53356975 0.4473187 -0.78410286 -0.858084 0.5671017 -0.18414026 -1.1996933
-0.8612348 -2.343039 0.5286609 0.4834313 -0.071477786 0.37292987 1.4949739 0.5635059
-2.6386847 0.4336109 -0.16318005 0.4363057 0.7648422 0.30573326 -0.21117824 -0.11922784
-0.024182236 0.5544208 0.6172684 -0.19979246 -2.959074 0.7537323 0.43043447 -2.0277677
-0.06434876 0.071110174 0.6062255 0.41787666 0.17549114 0.20270775 -1.6189513 -1.9246761
00000000: 5b9b 7b3e 7231 9dbf a7d8 2dc0 ba33 8fbd
00000010: 088c f7be 2f5d 17c0 8b15 f93e 5ca5 363e
00000020: 8cf0 d6bf 89e7 07c0 e398 223f 8bf3 8ebf
00000030: 2cf0 143f b362 433f 70bd fdbf 6f78 a23f
00000040: 02d1 14c0 a8c8 c83e 1fd5 2ec0 a074 f8bf
00000050: fe4a fa3e 6633 3ac0 eea8 03c0 e385 d03e
00000060: fa4f 84bf 4f8d 843e 6dab 4f3f 09c5 e93e
00000070: e6f8 c43d f948 c83e 0eb4 273f 2c2e df3e
00000080: b366 ba3e 762b 913f f695 0fbc 28e9 c83e
00000090: 2ac3 873f e447 f53e 0eb4 193f 65bc 0c3f
000000a0: 0aea d23f 41f2 003f e25c 1a3f 4a9c 033f
000000b0: 7eae 133f 3589 373f 4a76 143f 114a 293f
000000c0: ffe4 f63e 3a3a b73e d3f2 09be ce11 323f
000000d0: f8a2 313f 04c0 483f c2dd 10c0 c132 af3e
000000e0: cfbe a33d e9e0 db3e 4574 e63e 1902 263f
000000f0: a83d ae3e 4e3d 223f 9aae a43e fb8f 12bf
00000100: c66c 85bd cb2d cf3e 4cf5 e8bc 53bb dcbf
00000110: 16f3 0a3f 0bfc b63e 7096 29c0 42d9 8dbf
00000120: f643 7abd f42d 2a3f f135 303f 2190 e0bf
00000130: f0fe 473f 0021 9bbf 2cd3 193e 3320 3e3b
00000140: 4583 d33e 3911 2e3f 8315 133e d6eb 2b3f
00000150: 9f6f aa3e 1177 8abf 9177 d53e 5533 80bf
00000160: 58f8 2e3f 13c6 f33e f715 0d3f 35d4 41bf
00000170: 1d3f 96bf 5033 103f d216 62bd e887 9fbf
00000180: 16f0 91bf dc68 10c0 7259 c63e 0b20 323f
00000190: fa65 cfbd 4af2 e33e c095 cf3f 0306 cf3e
000001a0: ae38 25c0 e4a3 fa3e cedb b3bd 78a0 023f
000001b0: dd53 2c3f 0401 083f 1618 293e 5db7 293e
000001c0: fd54 543d f388 2f3f bc13 793e b3a6 f23d
000001d0: 492d 28c0 6262 203f 0d20 de3e 84f7 07c0
000001e0: 25b9 1abe 1faa 2a3e e3bc 643e 8832 eb3e
000001f0: 656b 16be c980 ae3c 4a5e cdbf 6d07 fdbf
00000200: 8c2d d93e a814 9cbf cab2 38c0 2de8 5a3d
00000210: 59ec e0be fb92 08c0 ae6b 093f daf2 e83d
00000220: 1093 f5bf 81df 09c0 8ff9 843e 5bc9 81bf
00000230: 1b9d 2b3f 1fb5 de3e 8683 f9bf df81 933f
00000240: bdfc 18c0 3b9e 233f e8d1 27c0 e483 d2bf
00000250: bf22 c43e e1a3 41c0 7318 fabf 9bcf 1d3f
00000260: 0eaa 90bf 6264 123f afc6 263f d222 213f
00000270: 1f71 97bd 0414 203f 7790 2f3f 8b82 093f
00000280: 51c5 073f fe18 9b3f 89e0 24be 056c 163f
00000290: a207 a83f fb35 bf3e b5af dd3e eaeb 833e
000002a0: 9d1e ea3f 3737 273f 29d5 3b3f 8dfb 233f
000002b0: af62 373f 783b 0b3f f16d 353f a852 973e
000002c0: 5f9b a83e a701 f13e 66dc e03d c8d4 013f
000002d0: 38df 943e 660c 0d3f 4e45 08c0 f89e 8b3e
000002e0: ca9f a83d 6a5a 1d3f f65c e93e 357d 2a3f
000002f0: 4650 d13e 2de4 0f3f ce38 c63e b6c2 6cbf
00000300: f491 0e3e 25d8 963e e1a4 a73d 80a6 c0bf
00000310: 200b 493f 5430 c43e b23c 24c0 cef1 85bf
00000320: 969b 543d 2d0b 593f 7300 063f cb74 fabf
00000330: 3f58 db3e a298 88bf 8039 d43d ea2b 163e
00000340: ea6d a93e 12d2 9f3e 31b9 d93d 4be7 db3e
00000350: 2997 2c3c 2a70 a7bf b486 053f a57e 86bf
00000360: b53c 0c3f 0798 083f f506 e53e f7ba 48bf
00000370: 65ab 5bbf 942d 113f 448f 3cbe 8d8f 99bf
00000380: e279 5cbf 5af4 15c0 5256 073f 4f84 f73e
00000390: f262 92bd aaf0 be3e 4e5b bf3f ec41 103f
000003a0: 36e0 28c0 3f02 de3e ac18 27be 7663 df3e
000003b0: b3cc 433f 1289 9c3e 1c3f 58be ba2d f4bd
000003c0: d319 c6bc 86ee 0d3f 4d05 1e3f 6596 4cbe
000003d0: 7861 3dc0 9af4 403f e861 dc3e f2c6 01c0
000003e0: 48c9 83bd 36a2 913d 9831 1b3f eef3 d53e
000003f0: f3b3 333e 9f92 4f3e cc39 cfbf c95b f6bf

fc2.bias f4 [2]
0.28204644 0.4165329
00000000: 6468 903e cd43 d53e
