saved_models/pole_dqn/train_10000e_2xp_5lr/online_net.pth (torch, 5672 bytes, 4 tensors)

fc1.weight f4 [128, 4]
00000000: 0eb2 fcbd b3f9 2f3e d4f2 c73c ab98 803d
00000010: 184a 863e 26b0 ef3c 2ee0 da3c 5b97 113e
00000020: d8b6 323e 39ec 1abe 3799 563e bc52 8abd
00000030: 89c5 043f 1765 08be f69d 693f 1039 d13e
00000040: acc7 533f 59c8 493f 82af 54bf 8efb 2cbf
00000050: 872d f4bf 6738 673e b271 943e 347f 86bf
00000060: e776 a53e ac21 2c40 c88d 7d40 9688 9c3e
00000070: 32fe 443e ee98 363f 2155 a440 29dd 853f
00000080: 19ef 963f a2a2 e93e 89b0 8040 2e1a c33f
00000090: 428e 85bf 1835 843e cb4f 0a40 297b 9d3f
000000a0: 82ef dc3d 5d67 593e d734 dd3e b874 043e
000000b0: 3dc9 27be ea77 023f 39cb 9940 7ef5 a83f
000000c0: 0f76 89bf 9690 223f 2cc1 933f 0054 8bbf
000000d0: 9232 c03d 3492 5dbd da38 bc3f 3012 1a3f
000000e0: e169 bd3d 05c9 9bbd f6d1 c13f 35b2 143f
000000f0: 3ec5 0fbf 53b7 20bf bb49 bdc0 d29e bfbf
00000100: 8d01 a03e 48ff b7be 71c0 c23f 08c7 6f3f
00000110: 6e9a f5be a07b efbf d1f6 193f 2bae b23f
00000120: 3628 6cc0 1c24 c5be fc23 a93c 836d a6bf
00000130: d1d1 2e3d 443b 88bd ea64 e6bb 2850 003d
00000140: c647 fdbc cf4e d6bd 1c21 98bd 0684 093c
00000150: 6342 873d e3e9 7dbe 73c8 20bd 616e 15bd
00000160: 5fd7 e03e fc71 ddbd 9648 a23f 006e d23e
00000170: a5c2 b6be 541a 2240 0fe4 87bf 36f9 18c0
00000180: a080 6ebf 9313 c7be 061f 97c0 caa7 cdbf
00000190: 69cd 0a3e fed3 ad3e 7f99 f03f fb06 2f3f
000001a0: 4367 ca3d 30c0 4bbe 9852 14bd 8e7e 36be
000001b0: a082 36be 2dcf 8abc 0265 8f3d 5c78 863d
000001c0: a9f2 16be 7f39 6abd dab4 0a3e 5cac b7bb
000001d0: 8a07 46bd 6c48 363e 238e 7e3e 5714 0b3e
000001e0: d947 aabf 4b3b e3bf e65c 883f eacb 9f3f
000001f0: 573f d93f c972 2a3f e1d6 a640 901a d33f
00000200: 239c 5f40 9ca1 253e 2ae1 053f 5e9c b03f
00000210: 516e 77c0 cc6c 4d3f 4ec1 6940 359a 783f
00000220: b9ab bb3f 4f88 40be 45ff fb3f e7e8 cc3f
00000230: 7d22 4240 6af5 953f fda2 a7bf 001a 40bc
00000240: b29f 483d c6b4 b83d 7909 1040 7b7b 9c3f
00000250: a6e9 3ebe 6c64 373f d2f3 2740 ab69 553f
00000260: a992 9abf f33e d5bd 30db cd3f 447a 913f
00000270: f41b 49c0 2f1c 5cbf 8a51 a63f 0fa3 4c3e
00000280: 2d64 85c0 be51 293f d690 3540 206d 813f
00000290: 3f23 d8bf cffd 85bc a00b a6be 47f3 a1bf
000002a0: de0b 0abe 5405 d23d 9df7 fcbc 5e6f 983d
000002b0: c26c 6c3f bce4 563f 5ebe 9540 cadd a93f
000002c0: 7a9b 54bf 3f2d a23f c31d 853f 6bea e3be
000002d0: a4db a1bf ba20 1f3e e3d7 b0bd 0c53 a3bf
000002e0: 184a acbe 1b18 73be a6cc d43f 92fb 953f
000002f0: ab58 efbf a4a3 b2be 7962 38bf 2144 aabf
00000300: 4ba8 a83f 9c96 9ebf e452 a23e 387c b33f
00000310: be51 33bf 1dd1 8e3f bdb5 973f e7ec f3be
00000320: 6d17 9d3d 522d c3bd c08f e3bd b613 01bd
00000330: 695e d03e 88da b63f ecd4 ec3e 1afd bdbe
00000340: ddfc 64c0 f236 fbbe 290c be3f 28f9 1fbe
00000350: 8377 463e 6955 2cbd 034f debd f086 5c3d
00000360: b61e 9fbf 8d4c 05be 23cd db3f 9e71 923f
00000370: cc74 07be fa6f 97bd b53f a33d d3bc 6ebd
00000380: 32d1 2abf 6ce8 7b3f f63d b43f 8b27 40bf
00000390: d6dc 07bf 7313 51bf 9940 ebc0 5ef0 abbf
000003a0: 0769 e03d 4ad7 01bf db8b 1140 f99e 723f
000003b0: 9c17 1cbf aadd b33f e79a a2bf b539 e4bf
000003c0: 44a9 173f 3f0d 38bf 5cbf 0cbe a0b1 223f
000003d0: 8b62 613f 1567 33bf bfbe 01be b437 ae3f
000003e0: c95f 3a3e 4446 00bc ab34 bc3f 2e1c 273f
000003f0: b7f3 68c0 5677 e63e 70c2 0d40 1d60 5e3f
-0.12338649 0.17185096 0.024407782 0.06279119 0.26228404 0.029258799 0.026718225 0.14217894
0.17452562 -0.15129174 0.20956884 -0.067540616 0.51863915 -0.13319813 0.91256654 0.40863848
0.8272655 0.7882133 -0.83080304 -0.6757134 -1.9076394 0.2258011 0.28992993 -1.0507569
0.32317278 2.6895552 3.9617786 0.30572957 0.19237593 0.713271 5.1353917 1.0458118
1.1791717 0.4563189 4.0215497 1.5242364 -1.0434039 0.25821757 2.1611202 1.230321
0.1078787 0.21230836 0.43204376 0.1293515 -0.1638536 0.50964224 4.8060575 1.3199918
-1.0739154 0.6350187 1.1543326 -1.088501 0.093846455 -0.05409451 1.470485 0.60184
0.092487104 -0.07606701 1.51422 0.5808442 -0.5616034 -0.6277973 -5.9152503 -1.4970343
0.31251183 -0.35936952 1.5214978 0.9366307 -0.47969383 -1.8709602 0.60142237 1.3959402
-3.6899543 -0.38504112 0.020647041 -1.300217 0.042680565 -0.06651929 -0.007031073 0.031326443
-0.030918013 -0.1046425 -0.0742819 0.008393293 0.06604459 -0.24796252 -0.039253663 -0.03648222
0.43914315 -0.108127564 1.2678401 0.41099548 -0.35695377 2.532857 -1.0616473 -2.3902106
-0.93165016 -0.3888212 -4.722537 -1.606683 0.1355492 0.339508 1.8796843 0.68370026
0.09882977 -0.19897532 -0.03621158 -0.17821714 -0.17823267 -0.016944492 0.070016876 0.065659255
-0.14741005 -0.05718374 0.13545552 -0.0056052636 -0.048347034 0.17801064 0.24858908 0.13581978
-1.3303176 -1.775247 1.065335 1.2484105 1.6972455 0.665814 5.2137303 1.6492481
3.4939048 0.1617493 0.522967 1.379772 -3.8661082 0.80244136 3.6524234 0.971103
1.466178 -0.18801998 1.9687277 1.6008576 3.033355 1.171552 -1.3096615 -0.011724949
0.048980422 0.09018855 2.2505782 1.2225183 -0.18643817 0.71637607 2.6242566 0.8336436
-1.2076007 -0.10412397 1.6082516 1.1365438 -3.1423311 -0.85980505 1.2993634 0.19984077
-4.1684785 0.66140354 2.836965 1.0111427 -1.6885756 -0.016356377 -0.32430744 -1.2652367
-0.1348109 0.102549225 -0.03087979 0.074431166 0.9235345 0.8394277 4.679488 1.327081
-0.8304974 1.2670058 1.0399708 -0.44514784 -1.2645154 0.15539828 -0.08634927 -1.2759719
-0.3365028 -0.23739664 1.6624954 1.1717398 -1.8698934 -0.34890473 -0.7202526 -1.3302041
1.3176359 -1.2389712 0.31703866 1.4022284 -0.70046604 1.1157566 1.1852337 -0.4764168
0.07670484 -0.095301285 -0.111114025 -0.03151294 0.4069703 1.428544 0.46256196 -0.37107164
-3.5779335 -0.49065357 1.4847461 -0.1562239 0.19381528 -0.04207364 -0.10854914 0.053839624
-1.2431247 -0.13017483 1.7171978 1.1440923 -0.13228148 -0.07394405 0.079711355 -0.058285546
-0.66725457 0.9840152 1.4081409 -0.7506034 -0.53071344 -0.816703 -7.3516355 -1.3432729
0.109575324 -0.5071913 2.274161 0.94773823 -0.60973525 1.4052022 -1.2703522 -1.7830111
0.59242654 -0.7189521 -0.13744873 0.63552284 0.8804099 -0.70079166 -0.1267042 1.3610749
0.18200602 -0.007829253 1.4703573 0.65277374 -3.6398752 0.4501292 2.2149925 0.8686541

fc1.bias f4 [128]
00000000: 7cd3 a2be dd12 6a3f ca01 b4be c0ad 363f
00000010: fa01 d33e 09b9 e43e 7e35 8ebe dcf4 1e3f
00000020: d53e cb3e a592 37bf 3b4a 593f e783 8cbe
00000030: ecfc 103f 1d31 583f b6fa 563f 398c 8b3e
00000040: a1da ce3f fe78 2cbe 81f2 0d3f 461d d9be
00000050: 04d2 fcbe 8014 3f3f 0960 273f 241e 87bf
00000060: 3218 c13e 5ccc 3a3f d0be afbe eebc e2be
00000070: 39b7 a0be 75e0 503f f4e3 f23e 3c32 15be
00000080: 420a 1cbf 20d5 893e 4ed1 803f 9d46 1bbd
00000090: 2af5 47bf 010b 573f a91b cabe 514c 7ebd
000000a0: 2910 2b3e dcb0 353f b647 1abe f748 2b3f
000000b0: 4b1b d33e f942 4e3f 48af 4e3f f7c6 193f
000000c0: b2ad 003f 1562 c63e 6872 a1be 458c 173f
000000d0: 380e a73d 7484 e9be 93a2 cebe bca9 59be
000000e0: 1032 db3e 2184 043e 806f e33f 9b98 9c3f
000000f0: fd4a 1f3e 8f3d e33e 8e96 5f3f 2bdb 3e3d
00000100: 7f18 3f3f 7c99 c1be 3c36 7f3e fa69 f33e
00000110: f50c 88be 7067 65be 9e18 133f 2190 31be
00000120: 6090 4d3e 0b29 373f 4471 f3be a8ec 9fbe
00000130: 0717 b0be 8dc0 0f3f e178 e13e d630 563f
00000140: 73d1 6e3f d1bf 423e c5be 593f 6770 063f
00000150: 9886 d6be 879f d63e 5604 783e 9a64 573f
00000160: b1b8 713f a88e 19bf ce0e 87be 6382 f03e
00000170: 5848 85be 99e0 523f c659 1abf 8c29 8e3e
00000180: 1c13 a3be 3919 463f 7ba8 4e3f 2e02 aebe
00000190: aee9 573f ec48 d93f 931a 813f 2b08 c3bf
000001a0: 5e02 813f 7d1e 493f 5457 9cbe 79ca 52bf
000001b0: 7586 35bf 4c33 593f b11f 5d3f cdec 823f
000001c0: 8515 c33e 434e 363f db78 063f ecb5 173f
000001d0: 5990 d03e 267b a4be e219 9c3f 4998 9c3f
000001e0: 72fa 953f 5246 d53f 7deb fdbe e414 05be
000001f0: f96c d13f 338d 553e b8ce 0a3e 7cd8 01bf
-0.31801975 0.91435033 -0.35157615 0.7135887 0.41212445 0.4467242 -0.27775186 0.62092376
0.39696375 -0.71708137 0.8487889 -0.27444384 0.5663593 0.8444994 0.83976305 0.2725542
1.616047 -0.1684303 0.55448157 -0.42405146 -0.4937898 0.74640656 0.65380913 -1.0556073
0.37713772 0.7296808 -0.34325266 -0.44284767 -0.31389788 0.81592494 0.4743954 -0.14569944
-0.6095315 0.26920414 1.0063875 -0.03790914 -0.78108466 0.84001166 -0.39474228 -0.0620845
0.16705383 0.7097299 -0.15066418 0.6690821 0.4123176 0.8057094 0.8073621 0.6006922
0.5026504 0.38746706 -0.31532598 0.5919841 0.08157009 -0.45608866 -0.4035841 -0.21256155
0.42811632 0.12941028 1.7768402 1.2234071 0.1555595 0.44382903 0.87339103 0.046595734
0.74646753 -0.37812412 0.24923033 0.4754179 -0.26572385 -0.2240274 0.5745944 -0.17340137
0.20074606 0.71547 -0.47547352 -0.31235242 -0.34392568 0.56153184 0.44037536 0.8366827
0.93288344 0.19018485 0.85056716 0.5251526 -0.41899562 0.41918585 0.24220404 0.8413788
0.9442244 -0.599833 -0.26378483 0.46974477 -0.26031756 0.8237396 -0.60293233 0.27766073
-0.31850517 0.77382237 0.8072583 -0.33986038 0.8434094 1.6975379 1.0086235 -1.5236868
1.0078847 0.78562146 -0.30535376 -0.823402 -0.7090829 0.848439 0.8637648 1.0228516
0.38102356 0.7121317 0.5252816 0.59261966 0.4073513 -0.32125205 1.2195399 1.2233974
1.1717055 1.6662085 -0.49593726 -0.1299625 1.6361381 0.20854644 0.1355542 -0.50720954

fc2.weight f4 [2, 128]
00000000: 06c4 4e3e 9368 8a3e d33b 2b3e 6df7 143f
00000010: da96 3040 2a39 bd3f cc0b a8c0 c31a 6bc0
00000020: 4768 6cc0 a68c 2440 0f40 ac3e 7f00 78c0
00000030: f990 923f 2c75 d43e 84d1 d83e 9a8c 7cc0
00000040: 92ab bd3f ad28 1cc0 5a65 0640 532f 15be
00000050: fa89 573c 853d 973d 5ba4 573f 1c38 7bc0
00000060: 5774 53c0 80ac 233f b581 7ebd cb74 17be
00000070: bd6e 00be 305d 923e 3458 3fc0 89b3 99c0
00000080: 2db0 9b40 6d52 6340 ba97 41c0 5f7f 3a40
00000090: 3864 e93f 6645 0440 d8b8 9a3f 0f63 ba3f
000000a0: 4758 3340 2dda ba3f 10da 1c3e ef15 3cc0
000000b0: 2d7d 4b3f 0d95 b13f 092a 8d3f d913 e13f
000000c0: 3572 0740 6216 693f fdd5 8b3d 54bd 9c3f
000000d0: d012 d93f 1746 323d c92e bc3f 91b5 9b3d
000000e0: 26b1 6a3f 6258 acc0 5084 d63f e1bf 22c0
000000f0: 4a99 243f 0842 af3f d67c fd3e 3af0 fc3f
00000100: 1795 2e40 be8e 903f 9f2f 2440 8975 713f
00000110: 277e cabd 1fe8 0ec0 cfac 82c0 e2cd 41c0
00000120: c2c5 e33f f745 863f 2a90 3fbe 0b7f 29be
00000130: 6990 4940 e545 5440 74f5 f83e 30d1 a53f
00000140: a0f3 a43e 1bc8 9f3f 827c 383e ada9 8d40
00000150: 403c 933d 7e20 653f 3f62 3c40 c4d1 183f
00000160: b9f3 de3d fc28 0640 e330 37bd 5636 5ec0
00000170: efd9 c7bd 66ae 0d3e 820c 34c0 7bf2 c23e
00000180: 32ea 51be 5aa2 b83e 1125 953f dac3 72bc
00000190: 71d4 f23f c0a8 f6bf f8b3 a33f 5697 c040
000001a0: 61d6 ae3f 697a da3e 235f 2abe d192 1fc0
000001b0: a602 313f bb21 7a3b 61a2 b83f f050 cb3e
000001c0: 2154 023f 10a7 233f 6f06 8240 0623 ec40
000001d0: 16d7 1b40 57b2 5c40 f4be af3f 5db8 0ec0
000001e0: a728 0cc0 058b f5bf bfc0 d53d 9bf3 47c0
000001f0: 06ad e23f 676d 9ac0 0e39 90c0 798c 56c0
00000200: aeca f6bd 16da 6a3e 4978 1b3d 1a6c 073f
00000210: c557 3b40 4121 9d3f ac9a a7c0 319e 5ec0
00000220: 196e 6bc0 79ff 2140 0311 af3e 233c 7ec0
00000230: 822c 993f ef61 f73e a06e 193f 7638 7dc0
00000240: 0a88 ce3f 9a4f 13c0 a2d7 1340 6b37 14be
00000250: b7b4 013e 6355 b13e 79ed 4d3f 4eaf 7ec0
00000260: 5ae0 4ec0 ed2c f53e 68e7 663d f64e 293c
00000270: 4da7 283e 35e4 103e d0e2 2cc0 d1b5 99c0
00000280: e938 9840 6935 5940 6146 46c0 e676 3640
00000290: c55c f53f 5962 f63f 148f ba3f 6f5f ab3f
000002a0: c392 2940 4ea6 cd3f 5af8 fdbd 1a85 41c0
000002b0: e5d0 7d3f a52b 9c3f 7c85 a33f 0b57 d03f
000002c0: fba0 0040 27fb 8a3f 2dfe a43c 1769 ac3f
000002d0: 7d57 cc3f b4c7 573e b011 a13f 0ad0 5fbd
000002e0: f73d 3e3f 7547 adc0 a38c c03f 9fe1 2cc0
000002f0: e149 bb3e 8dc0 bc3f f38a 333f e573 1540
00000300: 68cc 2c40 2e6f 803f 2787 3440 ee54 543f
00000310: 11cb ba3d b086 10c0 fbdd 84c0 fad7 36c0
00000320: ab23 e43f 6da3 883f 9dad b13c dcd8 503d
00000330: 0c81 4140 32c7 5940 0817 303f 886c ad3f
00000340: d27f 2e3e 6413 a73f 6458 cd3e c4f6 8d40
00000350: abb4 d33d 294f 513f db9d 3540 fb95 0e3f
00000360: bb71 9b3e bbd5 0040 4ffe fcbc 25dc 51c0
00000370: 7afa 173e 3224 4bba da37 33c0 7d65 d03e
00000380: d6d6 1fbe a68b db3e ee00 bd3f bca1 80bd
00000390: a7a4 f83f 6412 07c0 b544 9e3f 14f4 c040
000003a0: 1e56 a73f 3770 4d3e ac00 d83a 5a43 17c0
000003b0: 6328 443f 1fb8 163e b091 9c3f cb7c 9c3d
000003c0: e182 943e 8b7d 153f 172b 7a40 1576 ea40
000003d0: 79a3 2b40 f5d3 5a40 a6ec ad3f 78cf 18c0
000003e0: cd90 fcbf 9661 d0bf d541 0ebe d809 58c0
000003f0: 6d19 d13f 7ba4 9cc0 0923 94c0 d682 4bc0
0.20191965 0.2703291 0.1672204 0.5819004 2.7592072 1.478307 -5.25144 -3.6735084
-3.6938646 2.5710845 0.33642623 -3.8750303 1.1450492 0.41495645 0.42347348 -3.9460816
1.4817984 -2.4399827 2.099936 -0.14568834 0.013155455 0.07384781 0.8423516 -3.9252996
-3.3039758 0.6393509 -0.062135417 -0.14790647 -0.12542243 0.2858672 -2.9897585 -4.803166
4.865256 3.5519059 -3.0248857 2.914024 1.8233709 2.0667357 1.208766 1.456148
2.802263 1.4597832 0.15317559 -2.9388387 0.7948788 1.3873612 1.1028453 1.7584182
2.1163456 0.9104978 0.068279244 1.2245278 1.6958866 0.043523874 1.4701778 0.076029904
0.9167656 -5.385789 1.6759129 -2.5429614 0.642964 1.3692026 0.49509305 1.9760811
2.7278497 1.1293561 2.5654066 0.9431997 -0.09887343 -2.2329175 -4.083595 -3.028191
1.7794726 1.0490102 -0.18707338 -0.1655237 3.149439 3.316766 0.48624766 1.2954464
0.3221712 1.2482942 0.18016246 4.4269624 0.07189226 0.89502704 2.9434965 0.59695077
0.1088633 2.0962515 -0.044724356 -3.4720664 -0.097583644 0.13836059 -2.8132634 0.38075623
-0.20499495 0.36061364 1.1651937 -0.014817202 1.8971082 -1.9270248 1.2789297 6.0184736
1.3659173 0.42671517 -0.16637854 -2.493336 0.69144666 0.0038167078 1.4424554 0.39710188
0.5090962 0.6392679 4.0632854 7.3792753 2.4350028 3.448385 1.3730149 -2.2300026
-2.1899812 -1.918305 0.10437154 -3.1242435 1.7709053 -4.825855 -4.5069647 -3.3523238
-0.12050377 0.22934756 0.03795651 0.52899325 2.927232 1.2275773 -5.237631 -3.4784052
-3.6785948 2.5312178 0.34192666 -3.9724205 1.1966708 0.48316905 0.59934425 -3.956571
1.6135266 -2.3017335 2.3100362 -0.14474265 0.12666593 0.34635457 0.8044048 -3.9794497
-3.2324433 0.47885838 0.05637303 0.010333767 0.1647007 0.14149554 -2.7013435 -4.8034444
4.756947 3.393885 -3.0980456 2.851007 1.9168936 1.9248763 1.4574914 1.3388499
2.6495826 1.6066377 -0.12400885 -3.0237489 0.9914687 1.2200819 1.2775111 1.6276563
2.0098255 1.0857896 0.020140732 1.3469571 1.5964199 0.21072274 1.2583523 -0.05464176
0.743133 -5.414973 1.5042919 -2.7012708 0.36579803 1.4746262 0.70133895 2.3351986
2.699976 1.0033929 2.820749 0.8294209 0.09120763 -2.2582207 -4.152097 -2.8569322
1.7823385 1.0674874 0.02168923 0.050988063 3.0235014 3.402783 0.6878514 1.3548746
0.17040947 1.3052793 0.401065 4.4363728 0.10337194 0.81761414 2.8377597 0.556976
0.30360207 2.013045 -0.030882983 -3.2790616 0.14841643 -0.0007749229 -2.800284 0.4070243
-0.15609297 0.4287998 1.4765909 -0.062808484 1.9425248 -2.1104975 1.2364718 6.0297947
1.3073156 0.20062338 0.0016479692 -2.3634858 0.76624125 0.14718674 1.223196 0.0764099
0.29006103 0.5839469 3.90888 7.3269143 2.6818526 3.4191868 1.3587844 -2.387663
-1.973169 -1.6279781 -0.138923 -3.3756008 1.6335884 -4.895078 -4.6292768 -3.1798606

fc2.bias f4 [2]
00000000: aabb 2f3e 1805 833e
0.17161432 0.25589824
