saved_models/pole_DQN/train_DQN_pp_8/best_online_net.pth (torch, 5712 bytes, 4 tensors)

fc1.weight f4 [128, 4]
0.5657993 -0.41752818 -2.672011 -0.6172284 -0.10681636 0.19693567 0.053498667 0.12093812
-0.27193886 -0.077103086 0.08265342 0.56070423 -0.085951455 -0.05600261 -0.13665229 0.001067553
-0.32941467 -0.56947434 -0.027147433 0.42202994 -0.09806075 0.11557404 -0.1947505 -0.013850841
-0.061730966 0.06966283 0.1266634 -0.089068726 -0.07860126 0.262194 -0.072126046 0.19313465
0.16654995 -0.0461784 0.0790579 0.017001983 0.2448588 0.073599175 -0.007087812 -0.18275273
0.22169021 0.0065835626 -0.20672813 -0.0074875457 0.030389179 -0.3824287 0.0731579 0.4392496
0.20654401 -0.068677574 0.06433381 -0.008007053 0.70394516 -0.16641009 -2.4690125 -0.7182268
0.13590084 -0.0819526 -0.045141518 -0.019521654 -0.10007813 0.024375072 -0.106447816 -0.00026022937
0.54855067 -0.43686372 -2.6004 -0.7897735 0.011394674 -0.10731938 -0.18744431 -0.16440962
0.1407673 -0.070233054 0.076747574 -0.06881539 -0.74857086 0.30706185 2.6541612 0.62473774
0.102788515 -0.01233603 -0.23977381 0.19933233 -0.60860395 0.35640603 2.3553615 0.70535713
0.012900003 -0.0007518099 0.019946678 -0.07400043 0.16257842 0.12559447 0.06910634 0.07568873
-0.21837763 -0.37969035 -0.16692987 0.48399356 0.20956995 0.8220579 0.70263904 -0.38228568
-0.009214699 0.059070837 -0.1382876 0.02937366 -0.8608004 0.14037117 2.4761155 0.6001255
0.12611781 0.043879393 0.04437206 0.06688376 0.10344003 0.028834378 -0.15009706 0.14381298
-0.20100912 0.18640444 -0.121170126 0.0852402 -0.78130895 0.20665124 2.3160558 0.6394483
0.07516224 0.043854743 -0.004139625 -0.014506339 0.09721352 0.26045305 -0.1417749 -0.20357923
0.26215553 0.1410153 -0.31289315 -0.20634669 0.17679957 -0.10494653 0.099844985 -0.14173572
-0.07589207 0.18888028 0.108043626 0.2296641 -0.052798096 0.07864117 -0.024624906 0.17975658
-0.064832926 0.0035985587 -0.19179519 0.21639301 -0.65086865 0.11709645 2.5591593 0.61584514
0.7800876 -0.2243851 -2.55192 -0.73928255 0.09163351 1.0959154 0.9559421 -0.39457822
0.4278994 0.16117539 -0.092795946 -0.17671683 -0.057829477 -0.12408849 0.06716149 -0.044712253
0.30714247 0.2099703 0.09827775 -0.2603216 -0.31421554 0.7049633 1.7727841 0.26727033
0.16671847 -0.0935221 0.0441479 -0.07963328 -0.18757074 -0.04797774 0.04027326 -0.046491034
0.08314037 0.13527969 -0.1186759 0.1269266 0.20715536 -0.051974516 -0.23300914 -0.12420789
-0.14483652 0.103406414 0.19524619 0.012159592 0.39309794 0.06920398 0.07227508 -0.19121164
0.26344278 0.2773928 0.1921104 -0.42809173 0.16481476 0.031136852 -0.18033296 -0.0019823508
0.3380037 0.12063857 -0.2157315 -0.17535399 0.21055712 0.02066399 -0.18274966 -0.22753274
-0.20596485 -0.5290931 0.04042629 0.55655396 0.011923687 0.17648396 0.24795985 0.040534187
0.018341718 0.009838192 -0.074240066 0.052322786 0.038410865 -0.51529574 -0.4609871 0.46141768
-0.5545359 0.30875757 2.4564748 0.62290645 0.19654374 0.1428592 -0.24867903 -0.13298413
-0.6093918 -0.03673441 0.72966015 0.3774938 0.7766646 -0.48227218 -2.6317964 -0.68116146
00000000: 39d8 103f 41c6 d5be 3a02 2bc0 ae02 1ebf
00000010: 89c2 dabd 81a9 493e 6b21 5b3d 68ae f73d
00000020: 923b 8bbe 39e8 9dbd 3246 a93d 508a 0f3f
00000030: 5107 b0bd fe62 65bd 94ee 0bbe 22ed 8b3a
00000040: 0aa9 a8be 12c9 11bf 4b64 debc 4f14 d83e
00000050: 13d4 c8bd 15b2 ec3d ad6c 47be a3ee 62bc
00000060: 9cd9 7cbd 63ab 8e3d 0db4 013e aa69 b6bd
00000070: b3f9 a0bd 4b3e 863e d2b6 93bd 17c5 453e
00000080: 128c 2a3e 9025 3dbd 1ce9 a13d be47 8b3c
00000090: 44bc 7a3e 2abb 963d e040 e8bb 8823 3bbe
000000a0: c202 633e edba d73b 8ab0 53be 165a f5bb
000000b0: baf2 f83c b2cd c3be cfd3 953d 53e5 e03e
000000c0: 4680 533e d4a6 8cbd 72c1 833d 0430 03bc
000000d0: c035 343f 6867 2abe 4d04 1ec0 b6dd 37bf
000000e0: 9729 0b3e c4d6 a7bd 50e6 38bd e0eb 9fbc
000000f0: c3f5 ccbd 3bae c73c 5001 dabd 656f 88b9
00000100: d16d 0c3f 9aac dfbe f46c 26c0 992e 4abf
00000110: bab0 3a3c 43ca dbbd 67f1 3fbe ff5a 28be
00000120: 4e25 103e 59d6 8fbd d52d 9d3d 15ef 8cbd
00000130: 57a2 3fbf 3637 9d3e c7dd 2940 d0ee 1f3f
00000140: c982 d23d 0f1d 4abc 4487 75be c61d 4c3e
00000150: 78cd 1bbf da7a b63e 3ebe 1640 4992 343f
00000160: 895a 533c 1c15 45ba 3767 a33c 8a8d 97bd
00000170: f57a 263e d69b 003e a087 8d3d b102 9b3d
00000180: 639e 5fbe c666 c2be aaef 2abe 01ce f73e
00000190: 8199 563e 6372 523f 27e0 333f f3ba c3be
000001a0: 40f9 16bc 43f4 713d 449b 0dbe 08a1 f03c
000001b0: 6a5d 5cbf 76bd 0f3e ad78 1e40 d3a1 193f
000001c0: 0725 013e e1ba 333d 7abf 353d 5afa 883d
000001d0: 5ed8 d33d 1336 ec3c 0bb3 19be b643 133e
000001e0: 56d5 4dbe cee0 3e3e 0b28 f8bd 6a92 ae3d
000001f0: dd03 48bf 629c 533e 423a 1440 e2b2 233f
00000200: a9ee 993d 08a1 333d b1a5 87bb ffab 6dbc
00000210: e217 c73d 1a5a 853e 702d 11be 1377 50be
00000220: 4039 863e 5166 103e 8833 a0be 8c4c 53be
00000230: f20a 353e 35ee d6bd 877b cc3d 2b23 11be
00000240: 4d6d 9bbd d569 413e fa45 dd3d 112d 6b3e
00000250: d142 58bd 9f0e a13d 2cba c9bc 1c12 383e
00000260: 20c7 84bd ccd5 6b3b f565 44be 2196 5d3e
00000270: 549f 26bf 43d0 ef3d 44c9 2340 07a8 1d3f
00000280: d2b3 473f 35c5 65be a852 23c0 9f41 3dbf
00000290: 5aaa bb3d f546 8c3f 9fb8 743f 2806 cabe
000002a0: a115 db3e 290b 253e cd0b bebd 42f5 34be
000002b0: 9ade 6cbd 1b22 febd f78b 893d 3224 37bd
000002c0: c741 9d3e 7402 573e d845 c93d df48 85be
000002d0: dce0 a0be 7a78 343f 97ea e23f a8d7 883e
000002e0: 3fb8 2a3e 8488 bfbd 6ed4 343d c616 a3bd
000002f0: 8b12 40be 4f84 44bd 93f5 243d 626d 3ebd
00000300: 8045 aa3d c286 0a3e 5a0c f3bd 0cf9 013e
00000310: 8920 543e 3be3 54bd f399 6ebe b560 febd
00000320: 0650 14be bec6 d33d 9eee 473e 0639 473c
00000330: 2244 c93e d1ba 8d3d f504 943d fccc 43be
00000340: f9e1 863e 6e06 8e3e 97b8 443e d72e dbbe
00000350: 33c5 283e b612 ff3c 34a9 38be 54ea 01bb
00000360: d20e ad3e 5b11 f73d b8e8 5cbe ff8f 33be
00000370: 499c 573e 8747 a93c ba22 3bbe 58fe 68be
00000380: 73e8 52be a572 07bf 0a96 253d 527a 0e3f
00000390: 915b 433c 36b8 343e 30e9 7d3e 2d07 263d
000003a0: 5f41 963c 5e30 213c 2d0b 98bd 6b50 563d
000003b0: b654 1d3d 6cea 03bf 8006 ecbe f03e ec3e
000003c0: 11f6 0dbf 7915 9e3e e236 1d40 cc76 1f3f
000003d0: c342 493e af49 123e b7a5 7ebe fe2c 08be
000003e0: 1a01 1cbf d276 16bd 02cb 3a3f de46 c13e
000003f0: 7ed3 463f 61ec f6be 5a6f 28c0 9960 2ebf

fc1.bias f4 [128]
-0.042229872 0.4224669 0.37056223 -0.33221942 0.44102377 -0.45232558 0.25907215 0.8226454
-0.27292168 0.43656227 0.6384162 0.38455525 -0.4727311 -0.19381844 0.8884783 -0.12074405
-0.20758194 0.7868053 0.82511556 0.031018777 0.7383834 0.022288967 0.72530705 -0.44668293
0.3946049 -0.2917385 0.6964274 0.025673391 0.87672484 0.53309596 -0.2615968 -0.13007757
0.51944023 0.7223775 0.56522983 0.57531524 0.58538425 -0.45517045 0.7214009 0.046680357
-0.20429787 -0.2660147 0.5405246 -0.36430246 0.33238956 -0.118972406 -0.08376564 -0.3294959
-0.39054012 0.75426894 -0.3623858 0.45049194 -0.31877142 -0.2451265 0.49298385 0.4549178
0.5301472 0.32652944 -0.12645084 0.38242146 0.06801924 0.8034814 -0.81022924 -0.07025487
0.5367906 -0.49957305 -0.048601594 0.8090674 -0.48544464 0.04461312 0.10232824 0.72618604
-0.058902636 0.6399222 0.79965276 0.033703275 0.7364228 0.6388118 0.7995517 0.0011347116
0.4266034 0.4630314 0.53434765 0.57993937 0.5440126 0.3978595 0.5017484 0.57149965
-0.086025186 -0.21661 0.5461719 0.77813673 -0.20014325 0.10254059 -0.20774224 0.3271493
-0.46716148 0.6398734 -0.21587168 -0.46356982 0.5433114 -0.20602505 0.6002168 0.6213018
0.7377988 0.88087565 0.054574084 0.24081102 0.34709218 0.087340206 0.62114364 -0.19856402
0.6564077 -0.3950434 0.38644382 0.6191941 0.36333984 -0.3945558 -0.9011964 0.0033905753
-0.46995926 -0.11259655 0.84730023 0.041141458 -0.010439733 0.7275232 -0.0018941739 0.4724087
00000000: 3bf9 2cbd 954d d83e 55ba bd3e aa18 aabe
00000010: decd e13e 3897 e7be 1ba5 843e e498 523f
00000020: 64bc 8bbe 1785 df3e 3e6f 233f 6de4 c43e
00000030: d009 f2be 5778 46be 5073 633f a848 f7bd
00000040: 5c90 54be 126c 493f c63a 533f 171b fe3c
00000050: b206 3d3f 5a97 b63c b9ad 393f a0b3 e4be
00000060: a709 ca3e c05e 95be 1149 323f 0151 d23c
00000070: 0a71 603f fa78 083f 04f0 85be 0e33 05be
00000080: 09fa 043f bbed 383f e7b2 103f dc47 133f
00000090: bedb 153f 1a0c e9be bbad 383f e733 3f3d
000000a0: 7633 51be 1433 88be d25f 0a3f da85 babe
000000b0: f72e aa3e cea7 f3bd 528d abbd b0b3 a8be
000000c0: e0f4 c7be c517 413f a28a b9be e1a6 e63e
000000d0: 0236 a3be 7102 7bbe 6168 fc3e fcea e83e
000000e0: bab7 073f de2e a73e 547c 01be bfcc c33e
000000f0: ac4d 8b3d f5b0 4d3f 2f6b 4fbf c9e1 8fbd
00000100: 1c6b 093f 0ac8 ffbe 7712 47bd 0b1f 4f3f
00000110: 338c f8be 3fbc 363d 7891 d13d 54e7 393f
00000120: e443 71bd f1d1 233f 0bb6 4c3f 720c 0a3d
00000130: 3486 3c3f 2c89 233f 6caf 4c3f 9aba 943a
00000140: c36b da3e 7412 ed3e 02cb 083f e876 143f
00000150: 6944 0b3f 3eb4 cb3e 9572 003f cd4d 123f
00000160: f92d b0bd 03cf 5dbe ecd1 0b3f f833 473f
00000170: 5af2 4cbe cd00 d23d 62ba 54be 1d80 a73e
00000180: ca2f efbe bece 233f 770d 5dbe 0659 edbe
00000190: 7516 0b3f 3bf8 52be cfa7 193f a20d 1f3f
000001a0: 62e0 3c3f 1181 613f 1389 5f3d 2a97 763e
000001b0: 11b6 b13e 6cdf b23d 4503 1f3f 5e54 4bbe
000001c0: 560a 283f 2143 cabe f7db c53e 8183 1e3f
000001d0: ae07 ba3e 3803 cabe cfb4 66bf 6a34 5e3b
000001e0: 809e f0be 0599 e6bd abe8 583f f283 283d
000001f0: 6a0b 2bbc f63e 3a3f ee45 f8ba 8edf f13e

fc2.weight f4 [2, 128]
-1.4069206 0.6480494 0.68361527 0.1157029 0.6490433 0.027602948 0.21256514 0.19202274
-0.0015618419 0.44552487 0.5121898 0.71372855 -0.12438326 -1.3175656 0.4508142 0.1363152
-1.4914858 0.32700738 0.47973517 -1.1589723 0.3427155 -1.0441271 0.35811388 -0.071186624
0.6333055 1.1156396 0.30101815 -0.7952812 0.41606894 0.1720542 0.101913616 -1.0222114
0.50992185 0.43018708 0.4749233 0.34418178 0.21310754 0.13980804 0.2556157 -0.95652974
-1.3646415 1.474566 0.4605959 -0.062789015 0.31429952 -1.5561609 -0.108669735 -0.17644486
0.0065267067 0.39550412 -0.15512632 0.44332206 0.48504084 -0.101072714 0.51163024 0.48205116
0.5792134 0.20958854 -0.041015506 0.6981063 -1.0077355 0.48268035 1.4712262 -1.3867267
0.25518557 -0.15299393 -1.1997157 0.44763523 0.09135096 -1.1922891 -0.9238664 0.26120976
-1.0460274 0.24190517 0.5258603 -0.85742164 0.18032467 0.22296043 0.5039982 0.59442997
0.54831594 0.16765812 0.4575326 0.45524505 0.39684293 0.37479848 0.28285402 0.22006528
-0.837165 -1.4342905 0.33584622 0.42586744 -1.1974319 -0.70276785 -1.3244653 0.22203979
-0.022699555 0.47563687 -1.4919955 0.0468926 0.21381915 0.26294628 0.40322074 0.2996728
0.4062543 0.23574874 -1.0175757 0.2002029 0.15160282 -1.2301172 0.43915892 -1.3900316
0.24984875 0.14517918 0.55654633 0.43386814 0.22922285 -0.1840086 1.0987852 -0.72522295
0.17727514 -1.1690406 0.35892087 -1.2679 0.6161104 0.47899696 -1.4982805 0.53886485
-1.509107 0.51838577 0.66786546 0.018762182 0.3919596 0.034096505 0.19721147 0.5674228
0.06482614 0.36215097 0.17489256 0.35105792 0.1863137 -0.8845431 0.20603696 -0.17283548
-1.5163797 0.29533157 0.12872298 -1.2230958 0.42697886 -1.2830518 0.32041973 -0.108666345
0.6349175 1.1042112 0.5062932 -1.1748286 0.36089492 0.54680437 -0.08720587 -1.0713522
0.40773976 0.47473824 0.5414953 0.3305139 0.18958044 0.02928608 0.5490319 -1.1439346
-1.4864295 1.4344296 0.53571045 -0.17133589 -0.022051523 -1.5509791 0.13986647 -0.10235974
0.1711291 0.5082657 0.053049434 0.38987887 0.725381 -0.1723108 0.35487136 0.12854014
0.33537316 0.42105725 0.09257865 0.6811541 -1.0213115 0.28518537 1.5515617 -1.4942969
0.5169106 -0.1526043 -1.0127537 0.32824495 -0.025530027 -0.8978604 -0.866001 0.46541056
-0.9232144 0.55531853 0.49452552 -0.9458971 0.5224515 0.118823655 0.33154425 0.7955407
0.59122825 0.41979596 0.5180412 0.3921996 0.23494197 0.41977102 0.5942311 0.3344644
-1.0837327 -1.20195 0.53638005 0.5391432 -1.4352218 -0.9840051 -1.3007872 0.5232493
0.025218222 0.18020037 -1.6412927 0.06175362 0.29568037 0.31291607 0.19697656 0.4960757
0.4007296 0.4844244 -1.1358589 0.21907929 0.21437766 -0.88565767 0.40691778 -1.2279987
0.20449525 0.16090356 0.46678925 0.23349848 0.29377833 0.0678072 1.2314956 -0.69611305
0.18824124 -0.87320685 0.35449076 -1.2097315 0.5613855 0.20279828 -1.2585227 0.5213405
00000000: f915 b4bf 91e6 253f 6901 2f3f a4f5 ec3d
00000010: b427 263f 941f e23c adaa 593e 9ca1 443e
00000020: b8b6 ccba d61b e43e df1e 033f eab6 363f
00000030: a7bc febd fda5 a8bf 1ed1 e63e 3696 0b3e
00000040: 02e9 bebf 836d a73e d99f f53e 3459 94bf
00000050: 6878 af3e f5a5 85bf b45a b73e 4bca 91bd
00000060: 4f20 223f 47cd 8e3f 0d1f 9a3e 8c97 4bbf
00000070: fd06 d53e fa2e 303e 16b8 d03d d3d7 82bf
00000080: 3d8a 023f 7b41 dc3e 2629 f33e 9838 b03e
00000090: dd38 5a3e d729 0f3e 10e0 823e 22df 74bf
000000a0: 93ac aebf 94be bc3f 3ad3 eb3e 8797 80bd
000000b0: deeb a03e 4830 c7bf 3d8e debd f6ad 34be
000000c0: fcdd d53b 847f ca3e 6fd9 1ebe 1cfb e23e
000000d0: 4657 f83e 36ff cebd 33fa 023f 69cf f63e
000000e0: 5447 143f 619e 563e e0ff 27bd 18b7 323f
000000f0: 7afd 80bf e121 f73e 2451 bc3f 4380 b1bf
00000100: afa7 823e 71aa 1cbe 4990 99bf 7230 e53e
00000110: 3616 bb3d ee9c 98bf 8282 6cbf 49bd 853e
00000120: 3ae4 85bf fdb5 773e c89e 063f fc7f 5bbf
00000130: 08a7 383e bd4f 643e 0706 013f 902c 183f
00000140: 6f5e 0c3f 92ae 2b3e b741 ea3e e115 e93e
00000150: ff2e cb3e 96e5 bf3e 3ed2 903e cb58 613e
00000160: 7250 56bf d596 b7bf 09f4 ab3e 4c0b da3e
00000170: 7345 99bf 98e8 33bf 1488 a9bf 665e 633e
00000180: 6bf4 b9bc ad86 f33e b5f9 bebf 7412 403d
00000190: 68f3 5a3e e5a0 863e f372 ce3e b76e 993e
000001a0: 9000 d03e 1e68 713e ec3f 82bf fd01 4d3e
000001b0: c53d 1b3e 7b74 9dbf 70d9 e03e 8eec b1bf
000001c0: 5ad8 7f3e daa9 143e d279 0e3f f723 de3e
000001d0: 65b9 6a3e c06c 3cbe fea4 8c3f 36a8 39bf
000001e0: 9d87 353e 1fa3 95bf 7ac4 b73e 8c4a a2bf
000001f0: 69b9 1d3f 173f f53e a8c7 bfbf 0cf3 093f
00000200: 6b2a c1bf eeb4 043f 3bf9 2a3f 26b3 993c
00000210: eeae c83e c7a8 0b3d cef1 493e 9f42 113f
00000220: 91c3 843d da6b b93e 0917 333e ddbd b33e
00000230: 05c9 3e3e 6b71 62bf 5afb 523e c9fb 30be
00000240: bb18 c2bf b335 973e f5cf 033e 678e 9cbf
00000250: f99c da3e 0b3b a4bf 0e0e a43e 768c debd
00000260: f489 223f cb56 8d3f 6e9c 013f c960 96bf
00000270: 38c7 b83e 5ffb 0b3f fe98 b2bd 1222 89bf
00000280: 44c3 d03e e410 f33e 709f 0a3f 1e39 a93e
00000290: 6021 423e 5ce9 ef3c 5b8d 0c3f 736c 92bf
000002a0: 5243 bebf 649b b73f 5224 093f ad72 2fbe
000002b0: 65a5 b4bc 7c86 c6bf 2839 0f3e fca1 d1bd
000002c0: 773c 2f3e b31d 023f 5d4a 593d 349e c73e
000002d0: 92b2 393f 3e72 30be b3b1 b53e 07a0 033e
000002e0: 08b6 ab3e d194 d73e e099 bd3d 1d60 2e3f
000002f0: 56ba 82bf d103 923e 9399 c63f 1f45 bfbf
00000300: 4154 043f 4d44 1cbe eaa1 81bf b90f a83e
00000310: 5924 d1bc 2eda 65bf 3eb2 5dbf 4b4a ee3e
00000320: c757 6cbf 5b29 0e3f 7332 fd3e 5026 72bf
00000330: 62bf 053f d159 f33d 2bc0 a93e 8ea8 4b3f
00000340: bc5a 173f 7fef d63e 599e 043f 63ce c83e
00000350: a194 703e 3aec d63e 881f 183f eb3e ab3e
00000360: c1b7 8abf 7fd9 99bf 3450 093f 4a05 0a3f
00000370: 59b5 b7bf c2e7 7bbf 3280 a6bf abf3 053f
00000380: 7296 ce3c 7286 383e e115 d2bf 5df1 7c3d
00000390: 6b63 973e 8936 a03e 39b4 493e a2fd fd3e
000003a0: 6e2c cd3e 7a06 f83e d363 91bf 5256 603e
000003b0: d185 5b3e 76ba 62bf 8757 d03e 102f 9dbf
000003c0: 3467 513e e7c3 243e 00ff ee3e 3a1a 6f3e
000003d0: 1d6a 963e 80de 8a3d a6a1 9d3f 7734 32bf
000003e0: 50c2 403e 7c8a 5fbf d07f b53e 7bd8 9abf
000003f0: f6b6 0f3f 5aaa 4f3e 4617 a1bf 9276 053f

fc2.bias f4 [2]
0.24428825 0.28141287
00000000: b326 7a3e 5915 903e
