saved_models/pole_DQN/train_DQN_pp_2/target_net.pth (torch, 5672 bytes, 4 tensors)

fc1.weight f4 [128, 4]
0	0x3c41b944	0.011823956
1	0x3e3ef4e7	0.1864811
2	0x3ed71a4a	0.42012244
3	0x3e1d8019	0.15380897
4	0xbe3e2b83	-0.18571286
5	0xbe1af5fd	-0.151329
6	0x3e18f32a	0.1493651
7	0xbcd03357	-0.025415106
8	0x3e3d4645	0.18483837
9	0x3e0fbf20	0.14037752
10	0x3e410056	0.18847784
11	0x3e7c65e4	0.24648243
12	0x3d5769e1	0.05259121
13	0x3f7aebb8	0.9801593
14	0x3f901577	1.125655
15	0xbeb08241	-0.34474376
16	0x3ed6e616	0.41972417
17	0xbe8106fb	-0.25200638
18	0xbff9719b	-1.9487795
19	0xbf0b734e	-0.54472816
20	0x3d7c3315	0.061572153
21	0xbef97522	-0.48722178
22	0x3cf99adf	0.030469356
23	0x3ed2104a	0.41028053
24	0xbdfe741f	-0.12424492
25	0x3e0155c6	0.12630376
26	0x3cf29fed	0.029617274
27	0x3d999e1d	0.07500861
28	0x3e02f153	0.1278737
29	0xbeed2599	-0.46317747
30	0xbdbbba51	-0.091663964
31	0x3edabb28	0.42720914
32	0x3e56e098	0.20984113
33	0xbe9178ab	-0.28412375
34	0xbfec0d8d	-1.8441635
35	0xbf51bcaa	-0.81928504
36	0xbdbab298	-0.09116095
37	0x3de727f3	0.112869166
38	0x3e1fdd7a	0.1561183
39	0xbc11c500	-0.008897066
40	0xbe1d6ad0	-0.15372777
41	0xbf62b6d9	-0.88560253
42	0xbebb0e27	-0.36534235
43	0x3f0804a4	0.5313208
44	0x3eba7e56	0.36424512
45	0x3f2caec5	0.6745418
46	0x3f13b8bc	0.5770376
47	0xbea8735f	-0.3290052
48	0x3e8272d7	0.2547824
49	0x3d91c18a	0.07116993
50	0xbc02e317	-0.007988713
51	0x3e185644	0.14876658
52	0xbf1003f4	-0.5625603
53	0x3e53cec7	0.20684348
54	0x3f5d0c23	0.86346644
55	0x3eaebf75	0.34130445
56	0xbef5fb3d	-0.48043242
57	0x3e992c20	0.29916477
58	0x3fe3f419	1.7808868
59	0x3f434df0	0.762908
60	0xbe19da06	-0.15024576
61	0xbefabd0e	-0.48972362
62	0x3ed7888c	0.42096364
63	0x3e9516a5	0.2911884
64	0x3d8b1107	0.06790357
65	0x3c4532a0	0.012035996
66	0xbd88b80e	-0.06675731
67	0xbd85f929	-0.06541664
68	0x3e2abdc8	0.16673958
69	0xbda31a6b	-0.07964023
70	0x3e617a25	0.2201925
71	0xbd446c75	-0.047954995
72	0x3e27c395	0.16383202
73	0xbed225e5	-0.41044536
74	0xbfbd6180	-1.479538
75	0xbf3af2c3	-0.73026675
76	0x3d6d0a60	0.057871222
77	0x3d5d62e6	0.054049395
78	0x3ec566d4	0.38555014
79	0x3e27eb7f	0.16398428
80	0xbf3a30be	-0.72730625
81	0x3da4d33b	0.080481015
82	0x3fda7a36	1.7068546
83	0x3f0ece3e	0.5578345
84	0xbdd24c99	-0.10268516
85	0xbb874699	-0.004128289
86	0x3e0074fc	0.12544626
87	0x3d8e4d8f	0.06948387
88	0xbecf6bfd	-0.40512076
89	0x3de275d9	0.11057634
90	0x3fcbb266	1.5913818
91	0x3f447ff3	0.76757735
92	0xbd1cb832	-0.0382616
93	0xbec0b26b	-0.37636122
94	0x3eb9ac6d	0.36264363
95	0x3ec65e68	0.387439
96	0x3ded4216	0.115848705
97	0xbeb466a9	-0.35234573
98	0x3ebbec56	0.36703748
99	0x3ec9665c	0.39335907
100	0x3e51a2c6	0.2047225
101	0xbe54b839	-0.207734
102	0x3ebe35f9	0.37150553
103	0xbdeb250f	-0.11481678
104	0x3e01b796	0.12667689
105	0x3e0c87c0	0.1372366
106	0x3e210155	0.15723164
107	0x3e586a88	0.21134388
108	0x3e4f5608	0.20247662
109	0xbd92294a	-0.071367815
110	0x3eaab09f	0.33337876
111	0x3dea6900	0.114458084
112	0xbf500d12	-0.81269944
113	0x3e4c5b0c	0.19956607
114	0x3fde236c	1.735456
115	0x3f3eef5b	0.7458398
116	0x3e2d7247	0.16938125
117	0xbe0138d1	-0.1261933
118	0x3d1ce6f9	0.03830621
119	0xbd9bc37b	-0.07605644
120	0xbe35d6ad	-0.17757674
121	0xbe65ef99	-0.2245468
122	0x3d64ffc1	0.05590797
123	0xbd97565f	-0.07389521
124	0x3d02fa09	0.031976733
125	0x3e02d392	0.1277602
126	0x3ddbd915	0.107347645
127	0xbd64f72f	-0.055899795
128	0x3de5759d	0.112040736
129	0xbed18f80	-0.40929794
130	0x3e40e325	0.18836649
131	0x3edb71eb	0.4286035
132	0x3d7474ee	0.059681825
133	0x3db7e28d	0.08978758
134	0x3dd7b09a	0.10531731
135	0x3b126516	0.0022338084
136	0x3e7e3223	0.24823813
137	0xbe5ec473	-0.21754627
138	0x3ec03ee6	0.37547988
139	0xbd98322f	-0.07431447
140	0xbd9a4b1b	-0.075338565
141	0xbe184552	-0.14870194
142	0x3ea20249	0.31642368
143	0x3c965b30	0.018354028
144	0x3e967a6a	0.2939027
145	0x3e68fca1	0.2275262
146	0xbe60ed01	-0.2196541
147	0xbec339cb	-0.3813003
148	0x3e07cd84	0.13261992
149	0xbdd48c54	-0.10378328
150	0xbc90471b	-0.01761203
151	0xbe27b56c	-0.163778
152	0xbdf3cfb9	-0.11904854
153	0xbbf55a82	-0.007487596
154	0x3db0f2ec	0.08640084
155	0xbe127db3	-0.14305763
156	0xbf035fa4	-0.5131781
157	0x3e80fa88	0.2519114
158	0x3fc483c2	1.5352709
159	0x3f211690	0.6292505
160	0x3e332fd7	0.17498718
161	0xbe2b06c1	-0.16701795
162	0x3e5bd8f5	0.21469481
163	0xb9a3f925	-0.0003127541
164	0x3ef1f343	0.47255906
165	0xbe2e6b5d	-0.17033143
166	0xc006547c	-2.0989065
167	0xbf3de903	-0.7418367
168	0x3e031815	0.12802155
169	0x3e333be0	0.17503309
170	0x3eb18b1a	0.3467644
171	0x3e6c8299	0.23096694
172	0x3e1cc3a0	0.15309
173	0xbe4d54fa	-0.20051947
174	0x3d441ee8	0.047881037
175	0xbd5bea0a	-0.053689994
176	0x3e3a59ae	0.18198273
177	0x3dddfd3b	0.108393155
178	0x3e61a3ef	0.22035192
179	0xbd8c0ddc	-0.06838581
180	0xbd2d0d45	-0.042248983
181	0xbe86bcb9	-0.2631586
182	0x3e7d9747	0.24764739
183	0x3e3b67c7	0.18301307
184	0x3e930bb3	0.28719863
185	0xbecd5ec3	-0.4011136
186	0xc00516ff	-2.0795286
187	0xbf6eb5b2	-0.93245995
188	0x3e221a6f	0.15830396
189	0x3e194371	0.14967133
190	0x3dde8a4c	0.10866222
191	0x3d732c58	0.05936846
192	0x3e16d83e	0.14730927
193	0xbebacea7	-0.36485788
194	0x3ebb0e17	0.36534187
195	0x3e6963e9	0.22792019
196	0xbee895bb	-0.45426735
197	0x3df265c8	0.118358195
198	0x3fdfb256	1.7476299
199	0x3f60a3c2	0.87749875
200	0xbf0ec583	-0.5577013
201	0x3eb8b602	0.3607636
202	0x3fdbfb96	1.7186153
203	0x3f3f4fe7	0.74731296
204	0x3e3ab822	0.18234304
205	0x3d790896	0.060799204
206	0x3d401c81	0.046902183
207	0xbd8837c0	-0.066512585
208	0xbc60060f	-0.0136733195
209	0xbeb9d35d	-0.3629407
210	0x3dcf64d9	0.10126657
211	0x3ea68ff9	0.32531717
212	0x3ebc3138	0.367563
213	0x3f393049	0.723393
214	0x3e96a774	0.29424632
215	0xbef764ab	-0.4831899
216	0x3ddd4323	0.10803821
217	0x3de9cd59	0.1141612
218	0x3edd2d7e	0.4319877
219	0x3e3978fe	0.18112561
220	0x3eb88a92	0.3604322
221	0xbe437f28	-0.19091475
222	0xc00bef50	-2.1864815
223	0xbf4f0d71	-0.80879885
224	0xbe2a2894	-0.16617042
225	0xbea0ba2b	-0.31392035
226	0x3e9567c9	0.29180744
227	0x3e958976	0.29206437
228	0xbd8a7824	-0.06761196
229	0xbeaf81e1	-0.34278777
230	0xbc8b9df0	-0.017043084
231	0x3ec33844	0.38128865
232	0xbf01a72c	-0.5064571
233	0x3dbab7d3	0.09117093
234	0x3fdcf136	1.7261112
235	0x3f2d7ab9	0.67765385
236	0x3d7d4922	0.061837323
237	0xbdb5058c	-0.088389486
238	0xbd3a0a01	-0.045419697
239	0xbc970683	-0.018435722
240	0x3e422cc8	0.18962395
241	0x3f3cbb08	0.7372289
242	0x3e87824f	0.26466605
243	0xbe9bb07e	-0.3040809
244	0xbd13c3b6	-0.036075316
245	0xbdc205b4	-0.09473744
246	0x3e234232	0.1594322
247	0xbe07db1f	-0.13267182
248	0x3efa843f	0.4892902
249	0xbe7720d6	-0.2413362
250	0xc00a64e3	-2.1624076
251	0xbf4d0c61	-0.80097014
252	0x3eac9c78	0.33713126
253	0xbe8d58fe	-0.27606958
254	0xc0041067	-2.0635011
255	0xbf30e8ae	-0.6910504

fc1.bias f4 [128]
0	0x3eff4090	0.49853945
1	0xbe8154ec	-0.25260103
2	0x3f183839	0.5946079
3	0x3dbe0ded	0.0928
4	0xbe805dd8	-0.25071597
5	0x3f15a970	0.58461666
6	0xbef63b86	-0.48092288
7	0x3ea1dd8b	0.31614336
8	0xbe061c14	-0.13096648
9	0x3f102020	0.5629902
10	0x3e1f1d80	0.15538597
11	0x3efa68d3	0.489081
12	0x3f223c34	0.6337311
13	0x3e46f703	0.19430165
14	0xbc3f67f5	-0.0116825
15	0x3f0c0d75	0.54708034
16	0xbefbd49c	-0.49185646
17	0x3f05abe1	0.5221539
18	0xbe30ec2b	-0.17277591
19	0x3f2d8966	0.6778778
20	0xbdf264fc	-0.118356675
21	0x3eeaaa72	0.45833164
22	0xbb7a9882	-0.0038237874
23	0x3f3c6639	0.7359348
24	0x3f2e1db2	0.6801406
25	0x3f2b6328	0.66948175
26	0x3f3d8845	0.74036056
27	0x3f1a9d35	0.6039613
28	0xbe127498	-0.1430229
29	0x3ea654e7	0.3248665
30	0x3f077628	0.5291467
31	0x3f51235b	0.81694573
32	0xbf2ade7c	-0.66745734
33	0x3f18ae10	0.596406
34	0x3ed42b5e	0.41439337
35	0x3f0a8f6a	0.5412508
36	0xbebfe0f3	-0.3747631
37	0xbeeb7ac6	-0.45992106
38	0x3f3449e0	0.70425224
39	0xbe01ed02	-0.12688068
40	0x3efa1720	0.48845768
41	0xbc845a0b	-0.016156217
42	0x3f05fb9f	0.5233707
43	0xbea2297a	-0.3167227
44	0x3f3d7e57	0.74020904
45	0x3e3564e8	0.17714274
46	0xbe11a112	-0.142216
47	0xbead34fc	-0.33829486
48	0x3ed1f1d1	0.41004804
49	0xbca4c864	-0.020115085
50	0xbdc31cb4	-0.09526959
51	0xbed3f578	-0.41398215
52	0x3eeb76c3	0.45989046
53	0xbe7c2baa	-0.24626032
54	0x3ee4343b	0.445711
55	0xbda82d02	-0.082117096
56	0x3f089ece	0.53367317
57	0x3efd8626	0.4951641
58	0xbbb26482	-0.0054441104
59	0xbed7489a	-0.42047578
60	0xbe09f50f	-0.13472389
61	0x3f47f720	0.7811146
62	0xbe1fd643	-0.15609078
63	0xbc91d683	-0.017802482
64	0xbdf63719	-0.12022228
65	0xbe20a8fc	-0.15689462
66	0x3efc0e5d	0.49229708
67	0xbefc8f9a	-0.4932831
68	0x3ec39fe7	0.38207933
69	0x3ea0a308	0.31374383
70	0x3f38081c	0.71887374
71	0x3e9e0d27	0.3086941
72	0x3f4d2a85	0.80143005
73	0xbe99ed10	-0.30063677
74	0xbe081aac	-0.13291425
75	0x3f2b65b6	0.66952074
76	0x3eba2f4b	0.36364207
77	0xbc7182ed	-0.014740688
78	0x3ecb09ff	0.39656064
79	0xbdeb861c	-0.11500189
80	0xbd8a531a	-0.067541316
81	0xbef442be	-0.4770717
82	0x3f35894a	0.7091261
83	0x3f0d5eb6	0.5522264
84	0xbc2752c5	-0.010212605
85	0xbec296da	-0.38005716
86	0x3f29d934	0.6634705
87	0x3ecf5936	0.4049775
88	0xbd9e29c2	-0.077228084
89	0x3eee2c02	0.4651795
90	0xbe9d4674	-0.30717814
91	0x3ed69dc7	0.4191725
92	0xbeb2c616	-0.34916753
93	0xbd8392a2	-0.06424452
94	0xbe22a91b	-0.15884821
95	0xbe56d741	-0.2098055
96	0xbec5cdce	-0.3863358
97	0xbc3a00c9	-0.011352726
98	0xbebca042	-0.36841017
99	0x3aa076cb	0.0012242434
100	0xbe50a888	-0.2037679
101	0x3f031f5a	0.51219714
102	0xbe67c365	-0.22633131
103	0xbeff787e	-0.49896616
104	0x3f2e51b2	0.6809341
105	0x3f554a2f	0.8331632
106	0xbeef9c7b	-0.46799073
107	0x3f5821ca	0.8442656
108	0xbee035d9	-0.43791083
109	0xbe2fbf03	-0.17162709
110	0x3f375755	0.71617633
111	0x3f156527	0.5835747
112	0x3f45fea6	0.7734169
113	0x3f02db79	0.5111614
114	0x3f5a113f	0.85182565
115	0xbe228725	-0.15871866
116	0xbef04c1a	-0.4693306
117	0xbbc5a61b	-0.006031764
118	0xbe34de7d	-0.17662998
119	0x3e431ea7	0.19054662
120	0xbe7f6557	-0.24941002
121	0xbe03944f	-0.12849544
122	0xbdf45700	-0.119306564
123	0x3f04bc74	0.51850057
124	0x3eb2335e	0.34804815
125	0x3f3a60b9	0.7280384
126	0x3ef4a2e3	0.47780523
127	0x3e93e70b	0.2888721

fc2.weight f4 [2, 128]
0	0x3f0d78d3	0.5526249
1	0xbe2cc779	-0.16872968
2	0x3ec8d57b	0.39225373
3	0x3fab43a0	1.3380013
4	0xbf730c8e	-0.9494103
5	0x3f03bfbf	0.51464456
6	0x3da7590a	0.0817128
7	0x3d710a7c	0.05884789
8	0xbf6e2e6b	-0.9303958
9	0x3ea8abaf	0.32943484
10	0x3f236cba	0.6383778
11	0x3e95f2c0	0.29286766
12	0x3e1f13fe	0.1553497
13	0xbf4dd8f0	-0.80409145
14	0xbf9fbccb	-1.247949
15	0x3ee1f7b7	0.44134304
16	0x3bb2bfbe	0.0054549864
17	0x3f0ed779	0.55797535
18	0xbf8b8da3	-1.0902599
19	0x3ef74f10	0.48302507
20	0xbf85d974	-1.0456986
21	0x3edbc9ca	0.4292739
22	0xbf4bbcf3	-0.7958519
23	0x3f14a292	0.5806056
24	0x3ede0040	0.43359566
25	0x3ec3ba6b	0.38228163
26	0x3ea0f9b6	0.31440514
27	0x3f0e8ccd	0.55683595
28	0xbf4b1952	-0.7933551
29	0x3dceba13	0.100940846
30	0x3ed40d3b	0.41416344
31	0x3f01eb58	0.5074973
32	0x3fd19e63	1.6376461
33	0x3e83586d	0.256534
34	0x3de01491	0.10941423
35	0x3f0d44a2	0.5518285
36	0x3f5e6123	0.8686697
37	0x3db62e18	0.088955104
38	0x3e8ed6ea	0.2789834
39	0xbf5e48bd	-0.8682974
40	0x3ed207fd	0.4102172
41	0xbf967437	-1.1754216
42	0x3f06fcca	0.52729475
43	0xbccf5a34	-0.025311567
44	0x3f038e6a	0.5138918
45	0x3f29ccfd	0.6632841
46	0xbf97f584	-1.18718
47	0xbc46d6c5	-0.012136166
48	0x3ed8c7fa	0.4234007
49	0xbf8680c5	-1.0508047
50	0xbf9198bc	-1.1374736
51	0xbe0eaba3	-0.13932662
52	0x3f2a446a	0.6651064
53	0x3f8aa1aa	1.0830586
54	0x3efcd047	0.49377653
55	0xbf919375	-1.1373125
56	0x3ede2c5c	0.4339322
57	0x3efc4139	0.4926851
58	0xbf618f35	-0.8810914
59	0xbdf240c7	-0.118287615
60	0x3f641367	0.89092106
61	0x3ec39224	0.38197434
62	0xbf6c612b	-0.92335767
63	0xbf9b2447	-1.2120446
64	0xbf89f760	-1.0778618
65	0xbf8318fc	-1.0242
66	0x3edf91cd	0.43665925
67	0x3d4d1168	0.050065428
68	0x3f06df83	0.526848
69	0x3df94c75	0.12172786
70	0x3ed230e1	0.41052917
71	0x3d80789f	0.06273007
72	0x3efdb63c	0.49553096
73	0x3cfcc130	0.030853838
74	0xbf8c0db1	-1.0941678
75	0x3df0c874	0.117569834
76	0x3dca9f63	0.09893682
77	0xbf922f4f	-1.1420687
78	0x3d0e5662	0.03475035
79	0xbf6fefaa	-0.93725073
80	0xbf72c89d	-0.9483736
81	0x3de44c52	0.111473694
82	0x3f03384a	0.51257765
83	0x3e9732ad	0.2953085
84	0xbf8cd3c0	-1.1002121
85	0xbe1ddc05	-0.15415962
86	0x3ee217c4	0.44158757
87	0x3e12c4bd	0.14332862
88	0xbf8c879d	-1.0978886
89	0x3e21f7d0	0.15817189
90	0xbe493879	-0.19650449
91	0x3e839d68	0.2570603
92	0xbb1aaf26	-0.0023602932
93	0xbf8422bd	-1.0323101
94	0xbf8edc31	-1.1160947
95	0x3f8232dc	1.0171771
96	0x3deb11af	0.11477982
97	0xbf4dfb34	-0.8046143
98	0xbda6936b	-0.081335865
99	0xbecd7d33	-0.40134582
100	0x3da5e6ea	0.08100684
101	0x3eed1615	0.4630591
102	0xbebf9dfc	-0.3742522
103	0x3db7a493	0.08966937
104	0x3f06d21d	0.5266436
105	0x3ed97a29	0.42476013
106	0xbe077934	-0.13229829
107	0x3ec60fa3	0.38683805
108	0x3f7742ae	0.9658612
109	0xbf9e3e57	-1.2362775
110	0x3efae8aa	0.49005634
111	0x3eec2d6a	0.46128398
112	0x3ecf6ba1	0.40511802
113	0x3f02afa4	0.51049256
114	0x3e01af99	0.12664641
115	0xbf86cde5	-1.0531584
116	0xbcf5efcd	-0.030021572
117	0xbf90d30c	-1.1314406
118	0xbf904582	-1.1271212
119	0x3f44bf23	0.7685415
120	0xbe38337d	-0.17988391
121	0xbf4bbe3d	-0.79587156
122	0x3e4241a1	0.18970348
123	0x3e5e1984	0.21689421
124	0x3eb45862	0.3522368
125	0x3eb27d64	0.3486129
126	0x3f180767	0.59386295
127	0x3eba9d9f	0.3644838
128	0x3eeb5683	0.4596444
129	0xbdaafb4a	-0.08348711
130	0x3ea4861b	0.32133564
131	0x3f9d5911	1.2292806
132	0xbf91188c	-1.1335616
133	0x3f0d68f7	0.5523829
134	0x3d9a9abd	0.07549045
135	0x3ec4b973	0.38422737
136	0xbf974b8b	-1.1819929
137	0x3e1b28a9	0.1515223
138	0x3f14414d	0.5791214
139	0x3ef2218f	0.47291228
140	0x3ecb56d6	0.39714688
141	0xbf873590	-1.0563221
142	0xbf6edcc2	-0.933056
143	0x3f1a294e	0.60219276
144	0x3e1debed	0.1542203
145	0x3e99bbcd	0.30026093
146	0xbf42553d	-0.75911313
147	0x3f0a62bc	0.54056907
148	0xbf7a10a6	-0.97681653
149	0x3f0a9d03	0.5414583
150	0xbf3e2282	-0.74271405
151	0x3f12b3de	0.57305706
152	0x3f0f3f65	0.5595611
153	0x3eedc5a3	0.46439847
154	0x3ee96241	0.45582774
155	0x3ec40be6	0.38290328
156	0xbf8ee3a3	-1.1163219
157	0x3e0e8940	0.13919544
158	0x3ed6737b	0.4188498
159	0x3e3f5aa1	0.18686916
160	0x3fc184ef	1.5118693
161	0x3de8b7ff	0.113632195
162	0x3e40cde6	0.18828544
163	0x3e8f615b	0.28003964
164	0x3f831fb4	1.024405
165	0x3d39e1ac	0.045381233
166	0x3eeb7de2	0.45994478
167	0xbf6faf8c	-0.9362724
168	0x3ef0d7f4	0.4703976
169	0xbf7d3aa7	-0.9891762
170	0x3ecc2cf7	0.39878055
171	0xbdc5deee	-0.09661661
172	0x3e530ade	0.20609614
173	0x3ea10c26	0.3145458
174	0xbfacaea7	-1.34908
175	0x3c0df8ba	0.008665258
176	0x3e365ff2	0.17810038
177	0xbf4a56b5	-0.79038554
178	0xbf934b8e	-1.1507432
179	0xbdacef0f	-0.08444034
180	0x3f3a388b	0.7274253
181	0x3f701056	0.93774927
182	0x3ed88f9a	0.4229706
183	0xbf77efbb	-0.96850175
184	0x3e7048c4	0.23465258
185	0x3ef54ed5	0.47911707
186	0xbf7bfee1	-0.9843579
187	0x3e433f5e	0.19067141
188	0x3f2d2516	0.67634714
189	0x3ec77a96	0.38960713
190	0xbf90ca7b	-1.1311792
191	0xbfa0172f	-1.2507075
192	0xbf686d6d	-0.9079197
193	0xbf885faf	-1.06542
194	0x3e99a3aa	0.30007678
195	0x3e0df153	0.13861589
196	0x3ea6d46a	0.32583934
197	0x3e446e6b	0.19182746
198	0x3e12ed66	0.14348373
199	0x3d80c51e	0.06287597
200	0x3ef333a4	0.47500336
201	0xbd9c50db	-0.076326095
202	0xbf8c1ff3	-1.094725
203	0x3ef4f2f1	0.478416
204	0x3e75ff9b	0.24023287
205	0xbf8f0358	-1.1172895
206	0x3ebba0cc	0.36646116
207	0xbf67f21e	-0.90603817
208	0xbf88880b	-1.0666517
209	0xbdee30ab	-0.116303764
210	0x3e7d8f04	0.24761587
211	0x3f2f9cee	0.6859883
212	0xbf8402b2	-1.0313323
213	0xbe28580b	-0.16439836
214	0x3eec2cac	0.46127832
215	0x3ed6b9bf	0.41938588
216	0xbf631288	-0.8870015
217	0x3edcebe1	0.4314871
218	0xbd7931a5	-0.06083836
219	0x3e4464bd	0.19179054
220	0xb9bbce3c	-0.00035821076
221	0xbf7e003c	-0.9921911
222	0xbf8ba609	-1.0910045
223	0x3f33837f	0.7012252
224	0x3dc6b89d	0.09703181
225	0xbf6da6bc	-0.9283254
226	0x3e514525	0.20436533
227	0xbe4d3804	-0.200409
228	0xbd4c46b3	-0.04987211
229	0x3ee9d20c	0.45668066
230	0xbd8c5a34	-0.068531424
231	0xbd19a914	-0.03751476
232	0x3f12c29d	0.57328206
233	0x3f059b3b	0.5218999
234	0x3e132271	0.14368607
235	0x3ea3e07f	0.32007214
236	0x3f484411	0.7822886
237	0xbfa265d3	-1.2687324
238	0x3f1472ea	0.57987845
239	0x3f05c02c	0.52246356
240	0x3eb3e31a	0.35134202
241	0x3ee2b7b1	0.4428077
242	0x3efe15dc	0.49626052
243	0xbf9aaa05	-1.2083136
244	0x3c2b83ea	0.0104684625
245	0xbf6eb275	-0.93241054
246	0xbfa185e7	-1.2618989
247	0x3f5b9be8	0.8578477
248	0xbe51cb7f	-0.20487784
249	0xbf82918e	-1.020067
250	0x3e2cedc0	0.1688757
251	0x3e43adcb	0.19109266
252	0x3e4482e2	0.19190553
253	0x3e880eb8	0.2657373
254	0x3efab28f	0.48964354
255	0x3f428fe7	0.7600083

fc2.bias f4 [2]
0	0x3eb33577	0.35001728
1	0x3e51eb12	0.20499828
