saved_models/train_20240508_180737/best_target_net.pth (torch, 4688 bytes, 3 tensors)

fc1.weight f4 [128, 3]
000000 b6 3e 03 c0 13 73 1e 40 32 fe a7 be 4b e5 d3 3f
       -2.0507026 2.4757736 -0.32811123 1.655435
000010 21 00 04 bf 76 f8 f5 bd c3 fe 85 3e e0 ca fb bf
       -0.51562697 -0.12010281 0.2617093 -1.9671288
000020 f1 03 2b be 7c e4 0e 3f ca 30 a5 bf 3f 5d b2 be
       -0.16700722 0.5581739 -1.2905514 -0.34836766
000030 ca 3f ca 3f a7 95 05 c0 ea 89 d0 3e d4 a6 f6 3e
       1.5800717 -2.087259 0.4073022 0.48174155
000040 fa f3 cb bf 60 29 4e be 04 1a 26 be 3a 01 cd be
       -1.5933831 -0.20132971 -0.16220862 -0.40039998
000050 49 39 8b 3f 7d 1f 9d bf 05 29 d6 bc 37 be 8b bf
       1.0876857 -1.2275234 -0.026142607 -1.0917424
000060 5e d1 5e 3f d4 36 58 bf 53 ef 61 3f 5e 15 77 bd
       0.8703822 -0.8445866 0.88255805 -0.06032311
000070 f9 00 01 c0 77 ba 5b be 6d e9 28 be 5b 8a e8 be
       -2.0156844 -0.2145785 -0.16495295 -0.45418057
000080 1a 0c 8e 3f bb 76 38 c0 3d 43 ab 3f 86 7f 60 be
       1.1097443 -2.8822467 1.3379894 -0.21923646
000090 7b 7f a5 3e 7c 24 fa 3f f7 32 06 be a0 ef 85 3e
       0.32323822 1.9542384 -0.13105379 0.26159382
0000a0 31 d5 35 c0 2b b6 ab be 50 f2 d0 3e a3 b0 1b c0
       -2.8411372 -0.3353742 0.4080987 -2.432656
0000b0 8a d4 e3 be ec 12 01 3e ab cb d1 bf 62 ed c5 bd
       -0.44498092 0.12604874 -1.639028 -0.09664418
0000c0 e9 b3 67 bd 60 16 bd bc 45 10 1e bd 98 a5 bf 3e
       -0.05656806 -0.023081958 -0.038589735 0.37431026
0000d0 fe 36 db bf 14 d3 a4 be 0a ef 96 bd 06 4b cf 3f
       -1.7126157 -0.3219229 -0.07369812 1.619477
0000e0 7c b4 9c bd bf 74 8a 3f 41 7d 3b be 6d f7 db bd
       -0.07651612 1.0816878 -0.183095 -0.10740552
0000f0 e6 3a 6f 3e df d9 e1 bf 47 52 54 be e9 bf 30 be
       0.23362312 -1.7644614 -0.20734511 -0.17260708
000100 b0 a8 27 c0 5f 27 4d be 81 6a 15 3f d2 7b b6 bf
       -2.6196709 -0.2003455 0.5836564 -1.4256537
000110 57 c3 66 be 19 d4 fb be ed 7e 1c c0 2c 8e 12 be
       -0.22535454 -0.49185255 -2.445247 -0.14312047
000120 4b 67 5f 3f 06 90 85 be e6 83 02 be 67 e9 27 3e
       0.8726699 -0.26086444 -0.12745628 0.1639763
000130 35 37 0e bd 66 62 55 bc 75 1e bd be 51 6e 03 40
       -0.03472062 -0.013023948 -0.369373 2.0536082
000140 f2 96 18 be 67 8c 2d c0 c1 8d 58 c0 fb 32 c8 3e
       -0.14901331 -2.7116945 -3.383652 0.39101395
000150 b2 e1 9a bd 1a 38 02 40 55 db 15 be 27 bd 32 bd
       -0.07562579 2.0346742 -0.1463445 -0.04363742
000160 a2 c9 08 40 aa 92 29 be 2f bb 2a be 75 e5 f2 3f
       2.1373067 -0.16559854 -0.16672967 1.8976275
000170 91 af 20 be b2 30 16 3e f9 aa d5 3f 14 31 92 bd
       -0.15691973 0.14667013 1.6692802 -0.07138267
000180 50 c6 47 c0 1b e7 1b 40 0c f2 b0 3f 1b f2 17 3f
       -3.121479 2.4359806 1.3823867 0.593538
000190 b3 a0 3e c0 d1 37 e2 be ee 5f 04 c0 0e cd aa bf
       -2.9785583 -0.4418321 -2.068355 -1.3343828
0001a0 a5 3e 38 bf df 82 14 c0 4a e9 de bf 80 05 fb be
       -0.7197059 -2.3204877 -1.7414944 -0.49027634
0001b0 5f 47 a7 be 27 a2 e9 3f 43 a3 d0 bd 46 11 29 c0
       -0.3267164 1.825261 -0.1018739 -2.6416793
0001c0 bf 8d 76 40 38 ba b7 3f 61 1e ce 3d 28 27 eb bc
       3.8524015 1.4353704 0.10064388 -0.028705195
0001d0 24 f3 e1 3c 96 eb 92 be d4 10 0e c0 87 ff cb bd
       0.027581759 -0.28695363 -2.219777 -0.09960847
0001e0 31 ab 40 c0 f3 73 e4 bf 16 c0 93 3e 93 21 de be
       -3.0104487 -1.7847885 0.28857487 -0.4338499
0001f0 11 33 08 c0 7b e7 fe bd 41 1d ea 3d 67 2a be 3d
       -2.1281168 -0.12446495 0.11431361 0.09285431
000200 62 ae 8c 3d 8e 08 25 c0 22 4f c3 3f 56 1d 62 be
       0.068691984 -2.5786471 1.5258524 -0.22081503
000210 75 5d 2b bd e8 0b 0f 3e 15 f3 63 bc 09 ca 22 bf
       -0.041837174 0.13969386 -0.013912936 -0.6358953
000220 52 a8 1d 40 ef f4 53 be 40 be 75 3f 2b 72 c9 bf
       2.4633985 -0.20698904 0.95993423 -1.5737966
000230 13 73 fd bd 88 fa c7 3f 61 a1 38 c0 ac 74 22 bf
       -0.12375464 1.5623331 -2.8848498 -0.6345928
000240 52 58 bf 3f 9c 3e b8 3e 4b 97 c3 be db a5 34 c0
       1.4948828 0.35985267 -0.38201365 -2.822623
000250 f2 86 51 40 d1 8f aa 3f b9 00 43 3f d0 33 b7 3f
       3.2738614 1.3325139 0.7617298 1.4312687
000260 71 23 1a be ee e2 9c 3f 68 86 3b c0 87 3d 3f bf
       -0.15052582 1.2256753 -2.9300785 -0.7470326
000270 72 82 da bd 22 65 d6 bf 57 cb 39 be c5 78 19 bf
       -0.10669412 -1.6749613 -0.18143974 -0.59949905
000280 47 1a 10 c0 4f d4 39 be 83 8c e7 bd 5d cf f2 3f
       -2.2516038 -0.18147396 -0.11306097 1.8969532
000290 cf ff 44 be ef 84 dd be b4 03 01 c0 d9 0d fe bd
       -0.19238208 -0.43265483 -2.015851 -0.12404985
0002a0 2c 1c 1b bf f6 19 d1 3f c0 d6 e8 bd c2 c4 09 bd
       -0.6058986 1.6336048 -0.11369085 -0.03363491
0002b0 8d f7 d5 bf 74 1a 93 be 51 7b 57 3f e9 2d 9a bf
       -1.6716172 -0.2873112 0.8417254 -1.2045261
0002c0 74 07 a2 be 23 87 a4 3e 5e 5a 28 40 92 13 87 be
       -0.3164631 0.3213435 2.6305156 -0.26382118
0002d0 e9 fc a7 3f 20 f0 d8 be 69 c7 6b bd 0a c4 9d 3f
       1.3124057 -0.423707 -0.05756322 1.2325451
0002e0 24 e3 88 3f 26 c5 a2 bd df a4 0d 3f 57 33 f1 3f
       1.0694318 -0.07947759 0.553297 1.8843793
0002f0 c6 63 dd bd ab d8 2d c0 99 46 8b 3f b7 ab 95 3f
       -0.10810046 -2.7163494 1.088092 1.1693028
000300 d3 df f9 be 55 27 01 c0 f2 60 0e be 90 a6 9d 3e
       -0.48803577 -2.0180256 -0.13904169 0.3079114
000310 1b c8 84 3e ad 00 4d 3e 47 26 7e 3f 74 27 05 bf
       0.25933918 0.20019789 0.99277157 -0.52013326
000320 94 56 b0 bd a5 f4 14 3f a3 7f a4 bf 46 0e 7d be
       -0.086102635 0.581858 -1.2851452 -0.24712476
000330 7a a3 b3 3e dc bf c0 bf 41 51 bf be 6f f3 8d 3f
       0.3508566 -1.5058551 -0.3736668 1.1089915
000340 05 b8 be be 89 83 23 be c0 4d 31 c0 39 1c de 3f
       -0.3724977 -0.15968145 -2.7703705 1.7352363
000350 c8 53 93 be 2d 81 25 bf 57 f2 08 c0 60 a1 47 be
       -0.28774858 -0.6465023 -2.1397913 -0.19495153
000360 57 45 15 bf 92 81 1c c0 7d 4b 3e be c4 01 d8 be
       -0.5830893 -2.4454083 -0.18583484 -0.42188847
000370 bf d2 15 c0 50 b9 1c be eb 29 fa bf e2 8a 23 40
       -2.340988 -0.15305066 -1.9544042 2.5553517
000380 8d c7 c0 be c2 b8 c9 3e b5 ce f1 3f 74 d1 be bd
       -0.37652245 0.39398772 1.8891207 -0.09317294
000390 be 07 f6 be ce f3 17 c0 6c b4 0c be c2 0e 16 3f
       -0.48052782 -2.3742557 -0.137407 0.5861627
0003a0 df 90 dc bf c9 b7 79 be e9 67 1f bf a6 06 1c bf
       -1.7231711 -0.24386515 -0.6226793 -0.60947645
0003b0 55 65 a5 3f 30 e6 91 3f 73 86 e4 be 02 1f 3b be
       1.2921549 1.1398373 -0.44633827 -0.18273547
0003c0 a2 c7 5c be 91 61 28 c0 91 b5 52 be 53 8b a9 3f
       -0.21560529 -2.630955 -0.20577075 1.3245643
0003d0 ea eb 37 c0 00 d8 0a bf 78 ac a3 3e ba da d6 3f
       -2.873774 -0.5423584 0.3196752 1.67855
0003e0 ae fc f0 bd 73 b1 8b 3f 99 1a d1 be 9b c2 44 be
       -0.11766945 1.0913528 -0.40840605 -0.19214861
0003f0 14 3c 01 3f 4a c9 8a bf 2d b6 a3 be 42 8a d5 3d
       0.50482297 -1.0842679 -0.31974927 0.10426761

fc1.bias f4 [128]
000000 9b 1f 68 3f f7 fc 17 40 79 77 1e 40 b4 f5 30 40
       0.90673226 2.3748147 2.476042 2.7649965
000010 f0 dc da 3f 94 98 19 40 52 08 a0 bf 68 78 bc bf
       1.7098675 2.3999376 -1.2502539 -1.4724245
000020 8c ff ca bf 68 67 20 40 7a ca a2 bf c3 5c cb 3f
       -1.5859237 2.5063114 -1.2718041 1.5887684
000030 88 f0 25 40 78 72 e2 3f df dc 44 c0 4f 41 f2 3f
       2.5928059 1.7691183 -3.075981 1.8926181
000040 fc a3 bd be c8 da 3a 40 9a 7c 2a 40 d1 8d 2a 40
       -0.37039173 2.9196033 2.663855 2.6649058
000050 90 1c 1b 40 49 43 03 40 d0 d2 16 40 8a a0 09 40
       2.4236183 2.0509818 2.356617 2.1504235
000060 fa 9e 27 40 32 87 88 be 5d 80 22 40 67 6e 44 3f
       2.6190782 -0.26665646 2.5390847 0.7673096
000070 19 f4 25 40 64 d9 23 40 c9 13 1a 40 3a e3 30 40
       2.5930235 2.5601435 2.4074576 2.7638688
000080 76 92 04 40 b3 f9 c0 3f b3 6a ed bf 97 9a ff bf
       2.0714393 1.5076202 -1.8548187 -1.9969052
000090 55 9f 2b 40 06 ef 94 3f b0 6b dd be 97 dc 00 40
       2.6815999 1.1635444 -0.43246222 2.0134637
0000a0 81 44 b2 3f 56 f4 ef 3f aa 3e 10 bf d7 9a 9e 3f
       1.3927156 1.874644 -0.5634562 1.2391003
0000b0 08 e7 90 be 4c 25 ef 3f 6e 5b 12 40 af 8e 05 c0
       -0.28301263 1.8683257 2.2868304 -2.0868337
0000c0 31 97 ec 3f 89 89 a9 3f fa 1f fa 3f b0 5d 35 c0
       1.848364 1.3245097 1.9541008 -2.8338432
0000d0 99 1b 06 40 be 20 fa 3f d2 af 0a 40 64 37 e2 3f
       2.0954344 1.9541242 2.1669812 1.7673154
0000e0 2a 76 14 40 b3 f1 1b 40 7f 21 31 40 19 65 ab 3f
       2.3197122 2.4366271 2.7676694 1.3390228
0000f0 ac c9 17 40 88 ff 13 40 cc a8 2b 40 e7 09 0d 40
       2.371684 2.3124714 2.6821775 2.2037294
000100 38 3d e0 3f 52 21 8c bf 00 e7 2b 40 03 00 16 40
       1.7518682 -1.0947669 2.6859741 2.3437507
000110 95 80 39 40 90 ed 22 40 98 cd 99 3f 83 3b ee 3f
       2.898473 2.5457497 1.2015867 1.8611912
000120 27 8a 07 40 14 94 03 40 47 3c 05 3f 63 91 32 40
       2.1178071 2.055913 0.520451 2.7901237
000130 e1 e8 05 40 d4 c9 2b 40 36 3b 5a bf 0e d0 33 40
       2.0923388 2.6841936 -0.852466 2.8095737
000140 c2 6c 03 40 6e 9a 18 c0 11 b5 1a 40 9b f1 30 40
       2.053513 -2.3844256 2.4173014 2.7647464
000150 11 51 1d 40 b7 45 19 bf f0 ea 06 40 10 ee 31 c0
       2.458073 -0.59872 2.1080894 -2.7801552
000160 2c 59 07 40 fc 1d 12 40 5c d1 20 40 29 f5 1d 40
       2.1148176 2.28308 2.5127783 2.4680884
000170 80 37 6a bf bc 49 1e 40 b8 d0 a8 3e f1 86 ab 3f
       -0.91490936 2.4732504 0.3297174 1.3400556
000180 28 32 2b 40 e7 a4 f0 3e 96 bd 18 40 00 46 26 40
       2.6749363 0.4700081 2.3865714 2.5980225
000190 ee d7 04 bf 9b 82 28 40 80 c3 22 3f fe ce fc 3f
       -0.5189198 2.6329715 0.6357956 1.9750669
0001a0 c2 6e 12 40 dd a6 19 40 c4 6d 2f 40 b6 58 9e 3f
       2.2880101 2.4008095 2.7410746 1.2370822
0001b0 94 da f3 3f 39 c9 5f 3f 53 ee e5 bf 4f c3 48 c0
       1.905108 0.87416416 -1.7963356 -3.1369207
0001c0 aa 32 00 40 bf 96 2e 40 0d e5 14 40 bc 99 fa 3e
       2.0030923 2.7279508 2.3264802 0.48945415
0001d0 3b cc 30 40 6b 0a 93 3f 86 fe 69 3f 8c e0 e0 3f
       2.7624652 1.1487554 0.91403997 1.7568526
0001e0 e4 1c dc 3f ac 20 f2 bf a9 24 1a 40 87 cb 85 be
       1.7196317 -1.8916221 2.4084876 -0.26131842
0001f0 f2 a8 6a bf eb a1 0d 40 03 25 92 be 19 af f2 3f
       -0.9166404 2.2130077 -0.28543863 1.8959686

fc2.weight f4 [1, 128]
000000 7b 20 f8 bf 76 9c 35 c0 07 64 f7 bf 29 2a de bf
       -1.9384912 -2.8376746 -1.9327401 -1.7356616
000010 7c bd 7a c0 25 b1 d6 bf 60 3c e1 3f b2 8e ed 3f
       -3.9178152 -1.677281 1.759655 1.8559172
000020 2a a7 26 40 d2 46 f4 bf 9e f6 dc 3f c7 fc db bf
       2.603953 -1.9084113 1.7262762 -1.7186517
000030 bf d4 f2 bf 73 b3 f2 bf b3 29 36 40 48 67 d3 bf
       -1.8971175 -1.8961014 2.846295 -1.6515894
000040 90 3d b5 3d 8f ce d8 bf 70 81 c8 bf 7f 66 16 c0
       0.08849633 -1.6938037 -1.5664501 -2.3500059
000050 a5 52 fa bf 98 79 f2 bf 64 d7 d4 bf 71 6a 03 c0
       -1.9556471 -1.8943357 -1.6628232 -2.0533717
000060 48 37 0a c0 79 8d 16 3e bf 95 c7 bf c5 a9 3b c0
       -2.159624 0.14702405 -1.5592574 -2.932237
000070 95 a7 cc bf 76 9a da bf 1c 0f cc bf f3 e8 e5 bf
       -1.5988642 -1.7078388 -1.5942111 -1.7961715
000080 7a b1 24 c0 03 74 e2 bf 9b b8 e6 3f e7 4d 04 40
       -2.5733323 -1.7691654 1.8025087 2.0672548
000090 f6 c2 be bf e3 c3 30 c0 cd 2f e7 ba fd e2 03 c0
       -1.4903247 -2.761956 -0.0017638147 -2.0607293
0000a0 86 a0 f2 bf 8c 51 dd bf 95 fa e5 3d df 99 d0 bf
       -1.8955238 -1.7290511 0.11229435 -1.6296958
0000b0 e4 ea 0b 3b 2a bb e4 bf ef 6b 04 c0 7f ea 57 40
       0.0021349723 -1.7869618 -2.0690877 3.3736875
0000c0 f4 96 0a c0 e4 29 26 c0 00 51 e5 bf 0f c3 46 40
       -2.1654634 -2.5963068 -1.7915344 3.1056554
0000d0 6c bd d3 bf 99 97 da bf ce b0 e2 bf b7 b3 ee bf
       -1.6542182 -1.7077514 -1.7710207 -1.8648595
0000e0 2b a6 be bf cf 54 bc bf b7 49 01 c0 8b e4 ed bf
       -1.489446 -1.4713382 -2.0201242 -1.8585371
0000f0 14 83 18 c0 5b 79 0c c0 9d 64 e8 bf d7 1e 23 c0
       -2.3830004 -2.194907 -1.8155705 -2.5487573
000100 85 07 cb bf 29 3d 0d 3f d8 67 15 c0 f7 c1 f6 bf
       -1.586167 0.5517145 -2.3344631 -1.9277943
000110 b7 5a cf bf 91 6e 1c c0 1d 0e d5 bf b1 e3 c2 bf
       -1.6199559 -2.4442484 -1.6644932 -1.5225736
000120 8b f0 d6 bf 90 17 03 c0 98 27 f0 bf 8c 68 f2 bf
       -1.6792158 -2.0483131 -1.8762083 -1.8938155
000130 0f 5e e2 bf 36 fc 02 c0 63 24 fc 3f ad 2b 13 c0
       -1.7684954 -2.0466437 1.9698604 -2.2995408
000140 81 31 e9 bf 3a 09 44 40 a0 47 dc bf b4 02 10 c0
       -1.8218232 3.0630631 -1.7209358 -2.250165
000150 72 39 e3 bf aa e0 e5 ba bf f4 fe bf a2 5e 33 40
       -1.7751906 -0.0017538269 -1.991844 2.802651
000160 3b c0 05 c0 47 fe 13 c0 20 41 f3 bf 2a 41 21 c0
       -2.0898578 -2.3123949 -1.900425 -2.5196023
000170 57 2a 13 40 47 0d f0 bf a1 a1 5c c0 2b 99 49 c0
       2.2994592 -1.8754052 -3.447365 -3.1499736
000180 73 3f 0a c0 73 18 04 c0 5b 30 d1 bf 5c 9a 05 c0
       -2.1601226 -2.0639923 -1.6342882 -2.0875463
000190 a5 b0 02 3e 1f ee e9 bf 1a c9 52 c0 aa e8 fd bf
       0.12762697 -1.8275794 -3.2935243 -1.9836628
0001a0 33 f5 d5 bf c5 c3 d9 bf bb 16 cd bf 9d 37 03 c0
       -1.6715454 -1.7012869 -1.6022562 -2.0502694
0001b0 49 f0 ee bf a5 02 47 c0 58 33 35 40 cb 50 4a 40
       -1.8667079 -3.1095364 2.8312588 3.1611812
0001c0 ae 5b fd bf d4 98 ef bf 08 28 da bf 2f 55 59 c0
       -1.9793603 -1.8718514 -1.7043467 -3.3958242
0001d0 8e e4 fb bf b0 ae 21 c0 04 3e 13 c0 40 a3 32 c0
       -1.9679124 -2.526287 -2.3006601 -2.791214
0001e0 39 5d d1 bf f9 01 1e 40 13 69 d3 bf c2 e7 2a 3e
       -1.6356574 2.4688704 -1.6516441 0.16689971
0001f0 e3 ae 01 40 f0 2b f4 bf be c6 aa 3d 8b 4e ef bf
       2.0262992 -1.9075909 0.08338688 -1.8695844
