saved_models/train_5000_1xp_5lr/best_target_net.pth (torch, 5712 bytes, 4 tensors)

fc1.weight f4 [128, 4]
-0.3202206 -0.27956858 0.48446238 0.45488155 0.03241988 -1.2497628 -4.422901 -1.1926397
0.15413906 -0.026883285 -0.28739795 0.10555982 -0.309308 -1.3424578 -4.815238 -1.178444
-1.2695639 -0.1258533 -0.45550925 -0.47510612 -0.20148335 -0.3509029 0.28342736 0.46097752
-0.21559174 0.5452213 3.3658803 1.2467004 -0.059135146 0.19100562 -0.16122305 0.1943242
-0.10117973 0.13178796 0.032830033 0.17074995 -0.34125012 0.1858541 0.09056076 -0.27648252
0.12104787 0.11029696 0.124924615 0.07633919 0.06922266 -0.5492378 -0.23774563 0.32187092
0.28702155 0.14745952 -0.031209232 0.064000495 -0.4501239 -0.12199212 3.4641943 1.208267
0.0053645507 -0.12900141 -2.9603696 -1.1981167 -0.12586986 0.123042494 -0.12175706 0.07427656
-0.13694344 -0.40742204 -2.2704399 -0.70956045 0.053240333 0.13731141 -0.062970206 0.15971209
0.18927065 -0.15336397 0.0052063866 -0.10053778 -0.17362605 0.18092561 -0.06557641 0.13757688
0.08080232 -0.011405107 -0.13714537 -0.06340048 -0.13710093 -0.05958133 -1.6655176 -0.5788486
-0.01663014 0.26153752 0.043430116 0.20284398 0.001658046 0.34413618 3.211855 1.2157592
0.011217324 -0.100422956 -0.102079324 -0.06913803 1.5609827 0.53230864 -2.299385 -1.1612971
-0.052626736 -0.090716906 0.39586374 0.5529286 0.09423239 -0.8632448 -3.8611066 -0.98227423
0.26730546 0.1415719 -0.10422381 0.14843813 1.020159 -0.42974415 -0.80880386 0.8771512
0.17666201 -0.0588248 -0.10756325 -0.12193422 -0.0008222769 0.031804424 -0.100494385 -0.04722454
-0.058664553 -0.36058086 -2.0724936 -0.5179382 -0.042634945 -0.022101725 0.52745104 0.5238017
0.0913817 -0.09604118 -2.272151 -0.6249884 -1.1937442 0.5508032 0.7043554 -0.4627876
1.5609522 -0.06289519 -2.9763994 -1.1282943 -0.09643198 -0.06969579 0.22091335 0.5268732
0.15458739 0.31891865 -0.08516969 0.1324268 0.2647509 -0.3210824 -2.8601866 -1.1691313
0.18800361 -0.10804744 -0.0005413779 -0.077678874 -0.48315877 -0.092998415 3.193867 1.1736914
-0.034283407 -0.40894866 -0.2271038 0.35057423 -0.053907923 -0.32635218 -0.4127306 0.28041756
-0.11496047 0.54780525 3.2342417 1.2501602 -0.02226908 -0.011689884 0.16921224 0.0063328007
0.03278927 -0.09776404 -0.0048446204 -0.1086966 -0.046853058 -0.48071417 -3.3978293 -1.3358274
1.2490932 0.120956585 0.25835618 0.4581892 0.087796226 -0.21063253 -2.1650493 -0.663162
-0.22889344 -0.39748344 -2.1740081 -0.5216035 0.12317809 0.07437497 0.10241694 -0.026073752
-0.18259093 -0.33244544 -2.2309449 -0.588026 0.21644723 -0.13859268 0.018839383 0.13988931
-0.2728285 -0.5077127 -1.9749947 -0.6430232 -0.26231602 -0.49814397 -2.541136 -0.67397386
1.2072879 1.090174 2.3952339 0.42495468 0.20124425 -0.08552727 -0.16782705 -0.01064378
-0.25110576 -0.48108777 -2.3694134 -0.7328398 -0.034340262 -0.0069896867 -0.012518908 0.0096355835
0.20776989 -1.1972172 -4.5848384 -1.1571977 -0.1338666 -0.3227196 0.35140824 0.40392503
-0.20884877 -0.21809673 -0.10159568 0.29250288 -0.11291823 -0.35580263 -0.3523616 0.0510767
00000000: f4f3 a3be 9d23 8fbe 740b f83e 3ce6 e83e
00000010: b5ca 043d 3af8 9fbf 6888 8dc0 6ba8 98bf
00000020: a1d6 1d3e 563a dcbc d325 93be bf2f d83d
00000030: 9e5d 9ebe a8d5 abbf 6e16 9ac0 41d7 96bf
00000040: 1281 a2bf b0df 00be 8238 e9be 1c41 f3be
00000050: a751 4ebe 8ba9 b3be 641d 913e 3f05 ec3e
00000060: 15c4 5cbe a093 0b3f 956a 5740 e193 9f3f
00000070: b237 72bd fa96 433e a817 25be ecfc 463e
00000080: 5137 cfbd 6cf3 063e c978 063d 13d9 2e3e
00000090: 56b8 aebe 8a50 3e3e eb77 b93d 1e8f 8dbe
000000a0: f2e7 f73d 5fe3 e13d 7ad8 ff3d b957 9c3d
000000b0: 9cc4 8d3d d99a 0cbf 9773 73be 44cc a43e
000000c0: 7df4 923e a1ff 163e 81aa ffbc b112 833d
000000d0: a476 e6be 01d7 f9bd 5cb5 5d40 7ea8 9a3f
000000e0: 1dc9 af3b f218 04be b276 3dc0 e35b 99bf
000000f0: 07e4 00be b4fd fb3d c45b f9bd 4f1e 983d
00000100: e73a 0cbe 9f99 d0be e34e 11c0 c1a5 35bf
00000110: 8912 5a3d 5d9b 0c3e 86f6 80bd 918b 233e
00000120: 2ad0 413e 720b 1dbe 569a aa3b c0e6 cdbd
00000130: 07cb 31be 9044 393e ed4c 86bd f4e0 0c3e
00000140: b07b a53d 7cdc 3abc d66f 0cbe 1cd8 81bd
00000150: 3064 0cbe 8d0b 74bd ae2f d5bf 6c2f 14bf
00000160: ee3b 88bc 3fe8 853e c7e3 313d 55b6 4f3e
00000170: cb52 d93a 9e32 b03e 088f 4d40 ff9d 9b3f
00000180: dec8 373c 8daa cdbd f70e d1bd 3d98 8dbd
00000190: 48ce c73f 6145 083f 2029 13c0 62a5 94bf
000001a0: 228f 57bd c9c9 b9bd a7ae ca3e bb8c 0d3f
000001b0: e9fc c03d 9cfd 5cbf 5f1c 77c0 5376 7bbf
000001c0: 43dc 883e 39f8 103e 4b73 d5bd 2a00 183e
000001d0: 9294 823f 6d07 dcbe c50d 4fbf fb8c 603f
000001e0: e3e6 343e 46f2 70bd 1f4a dcbd a6b8 f9bd
000001f0: 128e 57ba 5b45 023d 00d0 cdbd 856e 41bd
00000200: 3e4a 70bd 0e9e b8be bca3 04c0 9997 04bf
00000210: fba1 2ebd ad0e b5bc 0807 073f de17 063f
00000220: 5426 bb3d 3db1 c4bd ec6a 11c0 3dff 1fbf
00000230: 9ccc 98bf 7001 0d3f a350 343f 7ff2 ecbe
00000240: 48cd c73f 32cf 80bd 547d 3ec0 f36b 90bf
00000250: 217e c5bd abbc 8ebd 1c37 623e 29e1 063f
00000260: 284c 1e3e 4e49 a33e 726d aebd e49a 073e
00000270: 6e8d 873e ea64 a4be 4c0d 37c0 18a6 95bf
00000280: 0584 403e fa47 ddbd 42eb 0dba 1a16 9fbd
00000290: 9660 f7be f475 bebd 5168 4c40 853b 963f
000002a0: c26c 0cbd b861 d1be e68d 68be 777e b33e
000002b0: 8ece 5cbd a217 a7be 6d51 d3be e492 8f3e
000002c0: 6570 ebbd f73c 0c3f d1fd 4e40 4005 a03f
000002d0: a56d b6bc ed86 3fbc f945 2d3e 6283 cf3b
000002e0: 0b4e 063d 8338 c8bd 9fbf 9ebb 539c debd
000002f0: fee8 3fbd 2b20 f6be 0976 59c0 64fc aabf
00000300: 49e2 9f3f 16b8 f73d 4347 843e c697 ea3e
00000310: 82ce b33d 0eb0 57be 2b90 0ac0 fcc4 29bf
00000320: 0b63 6abe f382 cbbe f322 0bc0 cf87 05bf
00000330: cb44 fc3d e751 983d f9bf d13d 9f98 d5bc
00000340: 1ef9 3abe 4a36 aabe cdc7 0ec0 df88 16bf
00000350: 58a4 5d3e 3deb 0dbe 0d55 9a3c 253f 0f3e
00000360: 2db0 8bbe 76f9 01bf a0cc fcbf 2b9d 24bf
00000370: 494e 86be ba0c ffbe f9a1 22c0 8d89 2cbf
00000380: 6988 9a3f d28a 8b3f 834b 1940 a993 d93e
00000390: f912 4e3e ec28 afbd dbda 2bbe 4063 2ebc
000003a0: ef90 80be 2351 f6be 78a4 17c0 649b 3bbf
000003b0: 60a8 0cbd be09 e5bb 1b1c 4dbc 91de 1d3c
000003c0: a1c1 543e 6a3e 99bf ffb6 92c0 0e1f 94bf
000003d0: 5314 09be 813b a5be c8eb b33e 43cf ce3e
000003e0: 74dc 55be c054 5fbe 6511 d0bd f0c2 953e
000003f0: ac41 e7bd c32b b6be bd68 b4be cd35 513d

fc1.bias f4 [128]
0.6504978 -0.60079557 -0.3879489 -0.6169882 -0.27429998 0.6682795 0.059135363 -0.42649853
0.7034747 0.45023337 -0.41614473 0.51629925 0.8097222 -0.6337627 -0.3827364 0.6300311
0.6054846 0.68030953 0.7055089 -0.1748923 -0.49443805 0.78644377 0.8760985 0.13664696
0.86172605 -0.31962278 0.6211026 -0.539933 0.93335426 -0.41706398 -0.4096638 0.9887793
0.41110915 0.5536472 0.76737964 0.33206683 -1.4356658 0.5491121 0.6825154 -0.0035200403
0.68713355 -0.6076907 0.52590007 0.38908345 0.087247856 -0.1851374 -0.24822463 -0.26774853
0.28924474 0.6984167 0.38042927 -0.45992082 0.51668936 0.68519294 0.41281903 0.5046649
0.8445563 0.82649577 0.5681858 -0.10350836 -0.6136941 0.60215205 0.3731103 0.7219802
-1.3107244 -0.37722856 0.5809399 -0.61030155 0.56233686 -0.6939384 -0.41243988 -0.6859929
0.43020368 0.64721346 -0.3365441 0.73440003 0.5622107 -0.67054445 0.2446267 0.87218416
-1.0943767 0.6383344 -0.23727882 0.18819804 0.99575824 -0.03840033 0.6534255 0.7918841
-0.5671291 0.5914966 -0.6767602 -0.37350845 0.95571595 -0.17731208 0.5655425 0.95604724
0.35079053 -0.09803795 0.90506446 -0.6847651 0.6889438 0.7366388 0.48318967 0.6298455
0.54724306 -0.44214988 -0.6364618 0.8676161 0.384232 0.7878213 0.66913265 0.5012512
-0.6357965 0.5452396 0.4368959 0.500361 0.6512751 -0.4423765 0.7355132 0.5885953
0.9190128 0.54211086 0.5064533 0.9648107 0.47784096 0.25955296 0.49222425 -0.3204063
00000000: 0687 263f bdcd 19bf 3da1 c6be f0f2 1dbf
00000010: 0c71 8cbe 5e14 2b3f ec37 723d 045e dabe
00000020: eb16 343f fd84 e63e ec10 d5be 302c 043f
00000030: f449 4f3f 463e 22bf 07f6 c3be b849 213f
00000040: 0a01 1b3f c428 2e3f 3b9c 343f f816 33be
00000050: fc26 fdbe 6154 493f fe47 603f 2eed 0b3e
00000060: 149a 5c3f 99a5 a3be 9400 1f3f 0d39 0abf
00000070: 4ef0 6e3f 6989 d5be 74bf d1be a420 7d3f
00000080: e67c d23e d3bb 0d3f fe72 443f aa04 aa3e
00000090: e6c3 b7bf 9c92 0c3f 54b9 2e3f 7ab0 66bb
000000a0: fce7 2f3f 9e91 1bbf 63a1 063f f235 c73e
000000b0: 01af b23d a994 3dbe 992e 7ebe 5616 89be
000000c0: e317 943e 70cb 323f a0c7 c23e be7a ebbe
000000d0: c145 043f ce68 2f3f 045d d33e b831 013f
000000e0: d734 583f 3a95 533f a074 113f 31fc d3bd
000000f0: 0e1b 1dbf a326 1a3f 5008 bf3e b2d3 383f
00000100: d1c5 a7bf 1a24 c1be 7ab8 143f b93c 1cbf
00000110: 4ff5 0f3f f2a5 31bf 522b d3be 3b9d 2fbf
00000120: a843 dc3e c8af 253f 824f acbe a401 3c3f
00000130: 0aed 0f3f cda8 2bbf 6c7f 7a3e 7647 5f3f
00000140: 8914 8cbf e269 233f 38f9 72be fdb6 403e
00000150: 03ea 7e3f aa49 1dbd e546 273f ebb8 4a3f
00000160: 5f2f 11bf 526c 173f 2840 2dbf 803c bfbe
00000170: cda9 743f 4c91 35be 65c7 103f 83bf 743f
00000180: d19a b33e 1fc8 c8bd 4eb2 673f c44c 2fbf
00000190: 9f5e 303f 5c94 3c3f a364 f73e 8e3d 213f
000001a0: 1f18 0c3f 7861 e2be 29ef 22bf 171c 5e3f
000001b0: 0fba c43e a8ae 493f 474c 2b3f 0052 003f
000001c0: 8fc3 22bf d394 0b3f d2b0 df3e a917 003f
000001d0: f7b9 263f 2c7f e2be 984a 3c3f 2eae 163f
000001e0: 6c44 6b3f c7c7 0a3f eca6 013f d6fd 763f
000001f0: 92a7 f43e 20e4 843e d104 fc3e 4b0c a4be

fc2.weight f4 [2, 128]
0.61856973 -3.4759386 -0.074705586 -3.7602487 1.6202699 0.50298506 -2.0553377 -0.1354793
0.52174747 0.39220068 -0.1625801 0.6293153 0.5795708 -2.2490873 -1.2881774 0.3311328
0.71582806 0.5674672 0.19620939 -0.05712117 0.0035542948 0.9134114 0.47973377 -1.5910237
0.40626752 -1.7947956 0.5757958 -2.5060635 0.5767706 1.4126517 -0.2065123 0.47315553
0.7560774 0.55356336 0.93721503 0.82893854 6.000689 0.5248479 0.41426137 -0.9293683
0.23452087 -2.5145464 0.22105806 0.36625773 -1.8980738 -0.09878234 0.15498021 -1.6266336
0.6681634 0.82809377 0.98266834 -0.033888165 0.72441226 0.51676685 0.8791708 0.79460645
-2.4111829 0.30774406 0.9092332 -0.083118945 -3.1436994 0.36385182 0.1589773 0.3140432
6.2542343 -1.8353695 0.86826307 -2.1366167 0.2273286 4.4547935 -0.12634437 -2.424502
0.9889811 0.22036304 -0.20971972 0.77402955 0.57566065 -3.1269476 1.0263358 0.3817374
3.9882672 0.7140633 1.497044 1.634527 0.3307149 2.0612504 0.5083756 0.34929797
-3.3152404 0.26999262 -2.9452415 -0.17947453 0.23360701 0.066680394 0.37796742 0.40059963
0.5843698 -1.8365176 0.34104422 -3.0725007 0.44715744 0.54081666 0.8814882 -2.6575184
0.45019546 -0.021808138 2.2637346 -2.6240158 -1.9671264 0.46479926 0.7808971 0.6432579
3.6293757 0.49743998 0.19258422 0.6814469 0.8933436 0.0010212093 0.70367175 0.66600454
0.35279256 1.0446137 0.43578744 0.35012406 0.6876764 0.83249074 0.81440926 -1.4298857
0.342274 -3.2942092 0.0934735 -3.7272496 1.7720195 0.569867 -2.010426 -0.1972956
0.27583063 0.29273888 0.12214931 0.5786257 0.5438892 -2.54459 -1.4019011 0.22827657
0.89054257 0.2627419 0.40486076 0.0036392426 -0.06509886 0.5992589 0.38224685 -1.5426973
0.4297001 -1.6958276 0.6476716 -2.5084887 0.20206128 1.4322125 -0.17619585 0.2575111
0.5681578 0.63857156 0.7825241 1.0010748 5.962104 0.53781676 0.45135298 -0.9823077
0.45045534 -2.2823133 0.24084233 0.5867801 -2.096949 -0.0014388916 0.032056585 -1.6536512
0.5613345 0.8055387 0.7755819 0.14224029 0.98561287 0.54115635 0.6285222 1.0222094
-2.5247192 0.51332885 0.9682248 0.093677565 -3.222825 0.4132133 0.4237324 0.13950011
6.3469605 -1.8594209 1.10175 -2.1305342 0.5930853 4.399988 -0.05786191 -2.4853628
0.94944495 0.56977195 -0.09618839 0.7692902 0.61191696 -3.1156456 1.0496632 0.54031634
3.992227 0.672654 1.5029267 1.6189682 0.39576453 2.033933 0.36814752 0.30771267
-3.4039798 0.52423996 -2.8225827 -0.16069214 0.56069905 -0.1641967 0.62095284 0.28164262
0.4431726 -1.6207548 0.4824231 -3.0924156 0.22362612 0.24017757 0.55958253 -2.6655238
0.6028243 -0.07600018 2.2695014 -2.5467181 -1.7729568 0.32514974 0.9126608 0.19898987
3.5674393 0.46630657 0.40161854 0.6996623 1.0055586 -0.16611192 0.91908544 0.31759134
0.44733727 1.2293727 0.6288143 0.36826542 0.65817773 0.794174 0.62160116 -1.5556282
00000000: 965a 1e3f c775 5ec0 3eff 98bd eaa7 70c0
00000010: 0165 cf3f a1c3 003f a78a 03c0 16bb 0abe
00000020: 3e91 053f 87ce c83e 667b 26be cf1a 213f
00000030: c05e 143f 0cf1 0fc0 ffe2 a4bf 3d8a a93e
00000040: 8240 373f 8845 113f 1deb 483e e3f7 69bd
00000050: 2cef 683b 54d5 693f aa9f f53e aaa6 cbbf
00000060: 4c02 d03e ddbb e5bf 5b67 133f 5863 20c0
00000070: 3da7 133f c5d1 b43f f677 53be 7141 f23e
00000080: 4a8e 413f 54b6 0d3f 53ed 6f3f 5135 543f
00000090: a505 c040 6f5c 063f 111a d43e 15eb 6dbf
000000a0: 3d26 703e 54ee 20c0 0b5d 623e 2286 bb3e
000000b0: 15f4 f2bf 654e cabd 22b3 1e3e 8835 d0bf
000000c0: c20c 2b3f f4fd 533f 2790 7b3f 51ce 0abd
000000d0: 1573 393f d54a 043f 5611 613f 546b 4b3f
000000e0: d250 1ac0 a190 9d3e 82c3 683f 443a aabd
000000f0: 5f32 49c0 c94a ba3e f2ca 223e 45ca a03e
00000100: b022 c840 63ed eabf 7d46 5e3f 54be 08c0
00000110: d4c8 683e ab8d 8e40 6b60 01be 0a2b 1bc0
00000120: de2d 7d3f d9a6 613e c4c0 56be cd26 463f
00000130: 7f5e 133f e91f 48c0 f95e 833f 1673 c33e
00000140: c53f 7f40 dacc 363f 239f bf3f 2e38 d13f
00000150: 7753 a93e 87eb 0340 e724 023f 2fd7 b23e
00000160: e62c 54c0 793c 8a3e d67e 3cc0 2cc8 37be
00000170: ad36 6f3e bb8f 883d f284 c13e 651b cd3e
00000180: 4299 153f 0213 ebbf 599d ae3e daa3 44c0
00000190: d2f1 e43e f672 0a3f 36a9 613f c814 2ac0
000001a0: 0580 e63e fba6 b2bc 07e1 1040 e0ef 27c0
000001b0: ccca fbbf 2bfa ed3e dfe8 473f 8dac 243f
000001c0: b147 6840 74b0 fe3e cc34 453e 4e73 2e3f
000001d0: 2bb2 643f 19da 853a d523 343f 467f 2a3f
000001e0: 3aa1 b43e e7b5 853f 881f df3e 7643 b33e
000001f0: 900b 303f 1d1e 553f 207d 503f 7f06 b7bf
00000200: 8a3e af3e 53d4 52c0 096f bf3d 428b 6ec0
00000210: 89d1 e23f cee2 113f d2aa 00c0 dc07 4abe
00000220: ac39 8d3e dfe1 953e 6b29 fa3d d020 143f
00000230: 533c 0b3f 90da 22c0 7f71 b3bf 55c1 693e
00000240: 99fa 633f 1b86 863e e949 cf3e 5c80 6e3b
00000250: 8d52 85bd 0869 193f dcb5 c33e 1b77 c5bf
00000260: a701 dc3e e110 d9bf cecd 253f 148b 20c0
00000270: 27e9 4e3e bd52 b73f af6c 34be 7fd8 833e
00000280: ca72 113f 6d79 233f 8053 483f 3823 803f
00000290: 8ec9 be40 5cae 093f bd17 e73e 8478 7bbf
000002a0: 15a2 e63e 6c11 12c0 5f9f 763e 3837 163f
000002b0: 6a34 06c0 3199 bcba c44d 033d d8aa d3bf
000002c0: 9eb3 0f3f c937 4e3f 898c 463f 70a7 113e
000002d0: 2051 7c3f 3989 0a3f d5e6 203f c2d7 823f
000002e0: 0095 21c0 8569 033f 95dd 773f 06da bf3d
000002f0: c442 4ec0 b290 d33e 74f3 d83e 1ed9 0e3e
00000300: 4d1a cb40 8101 eebf 2506 8d3f ac5a 08c0
00000310: 70d4 173f b4cc 8c40 9c00 6dbd 2f10 1fc0
00000320: d30e 733f 93dc 113f 6bfe c4bd 34f0 443f
00000330: 97a6 1c3f bd66 47c0 5d5b 863f 2c52 0a3f
00000340: a680 7f40 0d33 2c3f e75f c03f 5a3a cf3f
00000350: a6a1 ca3e f52b 0240 d57d bc3e 848c 9d3e
00000360: ceda 59c0 9734 063f 32a5 34c0 7b8c 24be
00000370: f989 0f3f 2e23 28be c4f6 1e3f 7633 903e
00000380: 85e7 e23e e574 cfbf 2900 f73e 23ea 45c0
00000390: 3ffe 643e 1cf1 753e cd40 0f3f f197 2ac0
000003a0: b152 1a3f fba5 9bbd 833f 1140 6efd 22c0
000003b0: 40f0 e2bf 077a a63e 23a4 693f 00c4 4b3e
000003c0: ed50 6440 bcbf ee3e f2a0 cd3e 121d 333f
000003d0: 25b6 803f 3e19 2abe 2f49 6b3f 559b a23e
000003e0: 6409 e53e 165c 9d3f f9f9 203f 498d bc3e
000003f0: 567e 283f fd4e 4b3f 4121 1f3f d31e c7bf

fc2.bias f4 [2]
0.33238485 0.3383145
00000000: 592e aa3e 8f37 ad3e
