saved_models/pole_DQN/train_DQN_pp_7/target_net.pth (torch, 5672 bytes, 4 tensors)

fc1.weight f4 [128, 4]
00000000: 6ea3 36be 2178 3bbd 28b0 033e 36da ad3d
00000010: 9874 f0bd 404f 53bd c888 303e 6648 2e3d
00000020: 6933 d03d 8096 ddbd 36c2 e03d 8ee3 0abd
00000030: 158a 143d 93d6 c4bc a423 283e ea1d 9bb9
00000040: 7ed4 3abe c984 4bbe bea0 cc3d 77f5 b7bd
00000050: e8ab 153f 0b1d abbe 9d94 1bc0 0d3a 16bf
00000060: dc68 183d 355d 403f 2832 843e f49b ccbe
00000070: 6d95 12be 3c9e 7f3e ac9d 0340 d5ea 463f
00000080: fa68 e63e 06be 0fbe cd31 22c0 c3c2 6dbf
00000090: 7c41 043d d5c6 e9bd 1993 07be ddfe 573e
000000a0: 8986 aa3e 9d34 193f a6b6 293e 9f31 dfbe
000000b0: 1bc3 91be 3273 b33b 103f ba3e 4787 7cbd
000000c0: 8e0e 0dbf 6229 2bbf 82f2 c33c 18aa 143f
000000d0: bf85 263d ef55 22be f27e 20be f4a9 a43c
000000e0: c799 d1be 8fd6 d5be fbb9 813e 2ac9 7d3e
000000f0: c1e9 24be 0434 96be 794c 783e abee c93d
00000100: fe3b 44be 2eb5 1dbc 8dd8 b83d dd62 6abd
00000110: d4ce 1a3e e8e2 de3c 8921 88bd 982d 6d3d
00000120: 98f5 1a3b f9f5 053d e190 ca3d 5931 403e
00000130: b793 c3be fc62 623e 7427 0f40 8e6c 523f
00000140: edd8 c73e fc3f 273f 0087 8c3e 616d f7be
00000150: 4dd3 0a3e fb08 243f 7710 9d3e 6b1d d6be
00000160: 684d 173e 432b b93b d8fa 9f3d 90ed 93ba
00000170: 1da8 30bf 63e7 02be 4c38 da3f d0ca 4e3f
00000180: 1bd5 3dbd 1c40 c3bd c99c a93e 7ebe 1e3e
00000190: 1585 dd3e 3186 4a3f 202f 733e 161e e0be
000001a0: 251e c6bd 453e acbd 498a 7c3d 148d b73d
000001b0: f038 aabe a1be 493d 4733 6f3e 23f4 c13d
000001c0: 63a7 b5be 16e0 a1be a85a 763e 916d b53e
000001d0: 66f7 e5be 7fb6 11bf e425 0dbd 388c 073f
000001e0: 1986 97be 7c88 d43e 4f1a 1740 b802 5b3f
000001f0: 85e8 1bbe c88e f73d 1b6f 30be e31a ab3c
00000200: 4a31 9abe 73b1 ca3e 8102 fe3f 4421 423f
00000210: 0d8a 28be 42bf c2be 2d4c 503e 8f85 883e
00000220: be4c 6ebe 4eb2 2dbf 5c43 78bd d970 113f
00000230: 1053 e8bb 25d7 1fbd c3eb 4f3e 008b 333e
00000240: 260a 04bd 7944 babc bbb9 4abe 44d4 f3bb
00000250: 67a0 26be 459f b2be 8e6f 913d 594e b23e
00000260: 50df d4be 97ba a9be dff5 e43d b5b6 a43e
00000270: e21e ddbd 411a 3d3e 496b c63b e1c5 4b3e
00000280: c242 4e3c 453f c6be 8d8a 123e 5811 a33e
00000290: 752a c63b c470 91bb 51ed 863e ba58 743d
000002a0: c8fa 02be 51aa 1e3e 02d1 0bbe 1c10 e33d
000002b0: 7dae 73be 72b2 e93c ba6e 2e3d 9c4e 0ebe
000002c0: 5dba aebe 5370 54be 116d 593e 0f78 b53e
000002d0: c711 9f3d 6523 7ebd d57b 7bbd f67b c43d
000002e0: 859f c9be 1467 2b3e fca9 1340 acf4 313f
000002f0: 359a d3be 7fc5 0a3e b196 1340 ae3f 493f
00000300: 324a 0cbe 8a27 a8be a54b b23e 0dfb 913e
00000310: 4bea 06be 45d3 963e 74f9 1040 04fb 463f
00000320: c0d1 f83e 2128 26bf c03c 0dc0 eb54 04bf
00000330: 86e5 c2bd 269c a6be 203f c4bc f3fa a8bd
00000340: 9273 7a3d bbad f0bc 2741 f0bd f216 debd
00000350: b68f 78bd c344 bc3b b859 3ebd ca3b 8ebc
00000360: 7f1a 6b3d c280 a3bb 3bda d0bc e21e 943d
00000370: bbe0 693b a1de ee3d 1140 74bd 6788 263e
00000380: bdfc 78be bb7c e7be f9d4 fa3c bd14 a23e
00000390: f8da f33d 7c20 2dbd 0309 1bbe d654 b9ba
000003a0: 4a0c 863d 09ec 3abe 1a4c 4f3e d83a 5abc
000003b0: a811 c8be b6cb cb3d 35d3 1140 5d29 453f
000003c0: fbe7 68be 3f50 32bf 192a 82be 2dd6 ff3e
000003d0: fd33 4c3e aaba 1d3e 706b 3d3c 7458 333e
000003e0: 772e 893c 3a16 63be 9fab 253e b769 9ebd
000003f0: 266c d5be 1581 993d 4fd5 0940 59df 613f
-0.17835781 -0.04576886 0.12860167 0.08488886 -0.117409885 -0.05158925 0.17239678 0.042549513
0.10166056 -0.10819721 0.10974543 -0.03390842 0.036264498 -0.024028098 0.16419846 -0.00029586192
-0.18245122 -0.19874872 0.09991597 -0.089823656 0.58465433 -0.33420596 -2.4309456 -0.5868233
0.037209377 0.7514222 0.25819516 -0.39962733 -0.14314814 0.24962705 2.0564985 0.77702075
0.45001966 -0.14037332 -2.5342896 -0.9287531 0.032289013 -0.11414877 -0.13239707 0.21093316
0.33305767 0.59845906 0.16573581 -0.43592545 -0.28469166 0.005476379 0.36376238 -0.061652448
-0.55100334 -0.6686002 0.023919348 0.5807204 0.040654894 -0.15853094 -0.15673426 0.020100571
-0.40937635 -0.41765258 0.25337204 0.24783769 -0.16104795 -0.2933656 0.24247922 0.098599754
-0.1916351 -0.009625716 0.09025679 -0.05722319 0.15117961 0.027207807 -0.06647021 0.05790481
0.002364492 0.03270528 0.09890915 0.18768825 -0.38198635 0.22108072 2.236783 0.8219689
0.3903269 0.6533201 0.27446747 -0.48325637 0.13557167 0.64076203 0.30676624 -0.4181932
0.14775622 0.005650909 0.078115165 -0.0011286009 -0.6900652 -0.1278358 1.704843 0.8077822
-0.04634581 -0.09533712 0.3312743 0.15502355 0.43265596 0.7911101 0.23748446 -0.43772954
-0.09673718 -0.084103145 0.061655317 0.089624554 -0.33246565 0.049254064 0.23359405 0.094703935
-0.35479268 -0.31616277 0.2405802 0.35435155 -0.44915313 -0.5691909 -0.034459963 0.5294833
-0.29594496 0.4151038 2.3609807 0.85551023 -0.15225418 0.1208778 -0.17229883 0.020886844
-0.3011573 0.39588508 1.9844514 0.7583201 -0.16458912 -0.38036543 0.20341559 0.26664397
-0.23271462 -0.67850196 -0.060611114 0.56812817 -0.00708998 -0.039023537 0.2030478 0.17533493
-0.03223624 -0.022737728 -0.19797413 -0.0074410755 -0.16272126 -0.34887138 0.071013555 0.348254
-0.41576624 -0.3315017 0.11179709 0.32170644 -0.10796906 0.18467046 0.00605527 0.19899704
0.0125891585 -0.38720146 0.14310665 0.3184917 0.0060475417 -0.0044384915 0.26352933 0.05965493
-0.12790978 0.15494658 -0.13653949 0.11087057 -0.23797031 0.028527472 0.042586066 -0.13897175
-0.3412656 -0.20745973 0.21233012 0.3544316 0.07767063 -0.062045474 -0.061397392 0.09593956
-0.39379516 0.1673854 2.30725 0.69513965 -0.41328588 0.13551901 2.3060725 0.7861279
-0.13700178 -0.32842666 0.34823337 0.2851185 -0.13175313 0.2945806 2.2652254 0.7772677
0.48597527 -0.6490498 -2.206833 -0.51692075 -0.09516434 -0.32541007 -0.023955882 -0.0825099
0.061145373 -0.029379716 -0.11731177 -0.1084422 -0.06068393 0.0057455017 -0.04647228 -0.017362494
0.057398316 -0.0049897144 -0.025494685 0.07232453 0.0035686928 0.11663557 -0.05963141 0.16262971
-0.24315162 -0.4521235 0.030619131 0.31656447 0.11906999 -0.042267308 -0.15140156 -0.0014139663
0.06545313 -0.18254103 0.20243874 -0.0133196935 -0.3907597 0.09950964 2.278516 0.7701624
-0.22744744 -0.69653696 -0.25422743 0.4996809 0.19941707 0.15403238 0.01156126 0.17514211
0.016745789 -0.22176448 0.1617875 -0.07735007 -0.41684073 0.074953236 2.1536443 0.88231426

fc1.bias f4 [128]
00000000: 5c46 e83e 154d 3b3f 4a15 cc3e a0e8 23be
00000010: 5241 1a3f 422a 1ebf bb44 a6be a5cc aa3e
00000020: d3ef 4dbe 81da 563f 9f21 cdbe 0fa4 9c3e
00000030: b330 a13e 4eb1 3f3f 8b06 e33e 5e58 d03e
00000040: ee7c e4be 98b9 3cbe f421 4c3f 7078 a33d
00000050: 236e ddbe 3c96 a6be 82cd dfbe dd6a 54bf
00000060: dc46 3bbf b0f0 c5be 75d0 edbe 09d4 143f
00000070: b4b9 3c3f a8de 483e ce16 43be 8c26 ccbe
00000080: afe9 e03e d69f 223f 9169 6f3e ebe3 393f
00000090: 9efe b3be ca05 be3e 4a05 d33e 5018 b9be
000000a0: 5ffc d53e aa2a dc3e 02f5 afbe 47bd ac3e
000000b0: ba1d f33e ac9a 183f b543 bbbe 7cdf 30be
000000c0: e7e1 d83e ef7d 833e 7cdb 35bf c90a 2c3f
000000d0: b1dc 383f 5b87 023f 55b1 343f 941c c6be
000000e0: 3157 233f 409d 46be 452f 2f3f d550 9dbd
000000f0: 0af8 3e3e 3609 f3be 4382 333f b69b 49bf
00000100: 061c 96be 2a69 b4be d879 debe a885 053f
00000110: b03a 133f 7a59 c3be dafa e83e bab9 043f
00000120: 7e09 463f 18be 3f3d 3617 f9be b8bf 7ebe
00000130: 68db dcbe b669 303f e70a af3e fabc 013f
00000140: 47fa d63e 0df9 4fbe dd7f 353f 50f4 173f
00000150: 379a 7a3e c3c3 813e 1e4a f73e 3d26 fe3e
00000160: 603d 37bd f8e0 7bbe 00b0 123f 174f fe3e
00000170: e2c5 56be bab2 27bf 93e5 973e 3053 bb3e
00000180: d120 dabe 98fc 6dbe abfa 443f d6a6 c1be
00000190: 6ba5 013f a8cd 6b3e 9e48 82be b15c eebe
000001a0: 39a8 d43e 77b7 4bbe 6616 b23e a740 de3e
000001b0: 190c e33e a00c 8ebe 489b efbe d3fe 3ebe
000001c0: 387c 483f 2799 bb3e b79d 273f 22a0 eabe
000001d0: f481 cabe a891 f1be b88b f43e 38a2 353f
000001e0: a7ea 153f eaf8 c53d f239 cbbe 0faf 113f
000001f0: 744b 113f a439 513f cae7 12bf 0cdf e3be
0.4536618 0.7316449 0.39859992 -0.16006708 0.6025592 -0.6178323 -0.32474312 0.33359256
-0.20111017 0.8392716 -0.40064713 0.30593917 0.31482467 0.7487992 0.4434093 0.4069242
-0.44626564 -0.18430173 0.7973931 0.07981956 -0.4324809 -0.32536495 -0.43711478 -0.8297556
-0.73155 -0.38660192 -0.46448103 0.5813604 0.7372086 0.19616187 -0.19051668 -0.3987316
0.43928286 0.6352514 0.23380114 0.726134 -0.35155195 0.37113792 0.41214973 -0.3615136
0.41794106 0.430013 -0.34366614 0.33738157 0.47483617 0.5961101 -0.36575094 -0.17272753
0.4235985 0.25682017 -0.7103803 0.67203957 0.7221175 0.50987786 0.7058309 -0.38693678
0.6380492 -0.19395924 0.684315 -0.07681433 0.18649307 -0.47467965 0.7012064 -0.7875322
-0.29318255 -0.35236484 -0.43452334 0.5215707 0.57511425 -0.38154203 0.45503885 0.51845896
0.77358234 0.046812147 -0.4865052 -0.24877822 -0.43136144 0.689113 0.34188005 0.5067898
0.4198782 -0.20309849 0.7089823 0.59357166 0.24472891 0.25344667 0.48298734 0.49638548
-0.044736266 -0.24597538 0.57299805 0.49669716 -0.20973924 -0.6550709 0.2966734 0.36586905
-0.42603162 -0.23240888 0.7694499 -0.37822598 0.5064303 0.2302767 -0.25446028 -0.46555093
0.41534594 -0.19894205 0.34782714 0.434087 0.44345167 -0.27744007 -0.46798158 -0.18651895
0.7831454 0.36640283 0.6547503 -0.45825297 -0.3955227 -0.4718144 0.47762847 0.7095065
0.58561176 0.09666617 -0.39692646 0.56907743 0.5675576 0.8172858 -0.5738493 -0.4450611

fc2.weight f4 [2, 128]
00000000: ef81 db3e 2f43 b13e 26e8 e23e cbd0 993d
00000010: 3d5e c63e 6cc4 95bf 36a1 803f 1ec8 9bbf
00000020: 1499 adbf 9b00 ef3e 32ed 7d3f ba43 893e
00000030: d700 3b3f 688f ee3e 3a13 023f d201 0b3f
00000040: 7569 7dbd 48d9 9fbd ddb6 6b3e c69c a3bf
00000050: 0299 833f 93da 933f be7d 9c3c 61fc d5bf
00000060: 57cd 493f af43 673f dbfd 313f 4315 fe3e
00000070: 877c a03e 5f73 053f c8bf 96bf aed0 49bd
00000080: 2091 9fbf 2624 0b3f 660f 2e3f 1985 583e
00000090: b40c 4b3e 1c8b 0e3e 22fb 153f 098c 423e
000000a0: 074b 043f dd7a 4b3e f5d5 28bd 9925 c23d
000000b0: b138 083f 6d8d f43e adc3 b6bf 2e4c 82bf
000000c0: 9ea5 073f c1dc 95bf 4dd2 bdbf 084c b23e
000000d0: 7691 853e 4b7f b83e 9b6a 9b3e 8a19 553e
000000e0: c8ea 0a3f df55 073d 0883 b83e 245d 7cbf
000000f0: c3e5 303f 6396 583d eade a33e cbc2 bbbf
00000100: 6bb5 50be 0278 843f a7cf 033f c32c f73d
00000110: a3bd b23e 7077 8c3d ffca 0d3f d157 c43e
00000120: 0692 9c3e d004 2d3f 9d8e 133e 0932 a5bf
00000130: 19ad c2bd 6849 f33e 3ac0 e93e 4f66 cf3e
00000140: 70ef ef3e 5162 99bf fd58 083f 812f 1f3e
00000150: 1811 8dbf 0e32 cb3e 3577 2e3e 3a48 023f
00000160: 1014 9ebf 509b 9cbf 9db5 e23e 8391 083f
00000170: 43a6 a2bf 08f1 b6bf decd 173e bad9 103f
00000180: 1ed3 babf 2740 abbf dd48 873e 9119 e43c
00000190: f60f b63e 4139 323f c7ca acbf e5d9 d33d
000001a0: 367d 3c3f 2aa8 acbf 52c9 ad3e 7fc0 1a3e
000001b0: 4c11 8c3e da88 29be 83d8 38be e52d ccbf
000001c0: 5773 d83e da2b 243f feca bc3e cca8 f3bd
000001d0: a862 893c db6b 453e 9144 cd3e bab0 083f
000001e0: ae58 543e 6fe7 043f e2c5 a3bf e3bb 623e
000001f0: bfc3 303f b73a a03e 5040 b2bf 1770 f0bd
00000200: 766d 103e 85f3 573e 2b88 ba3e 43be 923d
00000210: 36a9 943e 8a3a abbf f31f 8c3f d2bf 92bf
00000220: e7af 8ebf cef1 9e3e c724 703f e8bc ae3e
00000230: 8cdf 2d3f 504b 513e a276 353f c7a4 cb3e
00000240: 932a ef3d dca9 073e 6650 e93e f0ff abbf
00000250: 1b41 6a3f 4b08 653f c056 4fbe 6754 e1bf
00000260: 49a3 403f c948 933f 8628 093f 147e b83e
00000270: b4af e03e 6773 1b3f 6d35 b5bf 0fc2 03bd
00000280: e501 94bf 19a6 993e a92c 213f 8537 a63e
00000290: a892 e7bd 584a d83e 9de7 3d3f 66a2 b7bc
000002a0: cfc4 723e c21d 983e 35bd 08bd a5be 023d
000002b0: 58b8 303f b5f6 c33e 4c65 9abf 5fbc 98bf
000002c0: 8cb9 333f b988 a3bf 9813 b4bf ab0d df3e
000002d0: b4c2 a83e cb50 833e 3225 fc3d fa94 783b
000002e0: e2c2 f73e 91d0 1dbe 47f3 f53e b2d7 77bf
000002f0: 6189 1e3f 7877 583e b085 733e e5e6 cebf
00000300: 4e8f 76bd 8a85 603f d51c 293f 706d 013f
00000310: 6877 253f 69f3 a0bd de07 9b3e 26c1 6a3e
00000320: 8760 d83e d440 333f 0cc1 cd3d da36 97bf
00000330: 49a6 a73c 5296 c93e 550c 453f 9034 f43e
00000340: 2b9e 943e 3c33 a4bf ba86 d73e 6907 2d3e
00000350: e5db 93bf dfbb 2a3f 7568 de3e 0846 1e3f
00000360: e9c6 93bf 91be 95bf 8bfb d93e 69c8 ca3e
00000370: c9c7 a4bf f486 96bf d4c3 743c b135 123f
00000380: 0864 a4bf a3d5 9ebf 7656 953e 10fe f4bd
00000390: 350e 0f3f 8767 d93e e156 d2bf 0b03 36be
000003a0: c91a 3d3f 294a acbf 7934 aa3e b9a6 603e
000003b0: 5a77 103f a112 023e d996 04be eb31 b4bf
000003c0: d5b1 b13e 33ad aa3e 0d2f 803e 32bc 01be
000003d0: d2b4 f6bd 9af2 2a3e fe79 f73e 488c f73e
000003e0: 6b8a d93e 7e8a 843e 92df bebf ea3b 8a3e
000003f0: bb7d bf3e 2165 d63e 1de7 b4bf ecdd 143e
0.4287257 0.3462157 0.4431774 0.07510527 0.38743773 -1.1700568 1.0049198 -1.2170446
-1.3562341 0.4668015 0.99190056 0.26809484 0.73048156 0.46593785 0.5081059 0.5429965
-0.06186815 -0.07805115 0.23018976 -1.2782218 1.0281069 1.1551079 0.019102927 -1.6717645
0.7882895 0.9033765 0.6952798 0.49625596 0.31345007 0.5212917 -1.1777277 -0.049271278
-1.2466164 0.54352033 0.67992246 0.21144523 0.19829065 0.13920254 0.58586323 0.18998732
0.5167698 0.19871087 -0.04121967 0.094798274 0.53211504 0.4776415 -1.4278466 -1.0179498
0.52987087 -1.1707994 -1.4829804 0.34823632 0.2608754 0.36034617 0.3035477 0.20810524
0.542645 0.033040877 0.3603747 -0.9857962 0.6910059 0.052877795 0.32006007 -1.4668821
-0.20381705 1.0349123 0.5148873 0.120690845 0.34910306 0.068587184 0.5538787 0.3834825
0.30580157 0.6758547 0.14409871 -1.2905895 -0.09505672 0.47516942 0.4565447 0.40507743
0.46862364 -1.1983129 0.53260785 0.15545465 -1.1020842 0.39686626 0.17037661 0.5089146
-1.2349873 -1.2234898 0.44279185 0.53347033 -1.2706989 -1.4292307 0.14824626 0.56582224
-1.4595678 -1.3378953 0.26422778 0.027844222 0.35559052 0.6961861 -1.3499383 0.103442945
0.73628557 -1.348882 0.33942658 0.15112494 0.27356946 -0.16556111 -0.18051343 -1.5951506
0.42275497 0.6412941 0.3687362 -0.1189743 0.016770676 0.19279425 0.40091375 0.53394663
0.20736954 0.5191564 -1.2794764 0.22141986 0.69048685 0.31294796 -1.3925877 -0.117401294
0.14104256 0.21088989 0.36432013 0.07165196 0.29035348 -1.337724 1.094725 -1.1464789
-1.1147431 0.31043857 0.9380612 0.341285 0.6791923 0.20438886 0.70884144 0.39774153
0.11678042 0.1324839 0.45569152 -1.3437481 0.91505593 0.8946578 -0.20247936 -1.7603883
0.75249153 1.1506587 0.5357746 0.3603369 0.4388405 0.60722965 -1.4156929 -0.03216749
-1.1563078 0.30009535 0.6295877 0.32464233 -0.11307269 0.4224422 0.7418154 -0.022416305
0.23707889 0.29710203 -0.033383567 0.031920094 0.69031286 0.3827416 -1.2062163 -1.1932486
0.70205 -1.27761 -1.406848 0.43565115 0.32961047 0.25647578 0.12311782 0.0037930594
0.4839087 -0.15411593 0.48037168 -0.968135 0.61928374 0.21139324 0.23781466 -1.6164213
-0.06019526 0.87703764 0.6605962 0.50557613 0.64635324 -0.07858927 0.3027944 0.22925243
0.42261145 0.70020795 0.100465864 -1.1813614 0.020465033 0.39372498 0.7697194 0.47696352
0.29026923 -1.2828135 0.42094976 0.16897358 -1.1551481 0.6669292 0.4343907 0.6182561
-1.1545078 -1.1698781 0.42574725 0.39606026 -1.287347 -1.1759934 0.014939267 0.57113177
-1.2843027 -1.2408947 0.29167527 -0.11962521 0.55881053 0.42461798 -1.6432763 -0.17774598
0.73868996 -1.3460132 0.33243158 0.219386 0.56432116 0.12702419 -0.12948169 -1.4077734
0.34705988 0.33335266 0.25035897 -0.12669447 -0.120462075 0.16694108 0.4833526 0.48349214
0.42488417 0.2588691 -1.4911978 0.26998836 0.37400612 0.4187403 -1.413303 0.14537781

fc2.bias f4 [2]
00000000: c35f 4a3e b18f 7d3e
0.19763093 0.24761845
