saved_models/train_10000episodes/target_net.pth (torch, 5672 bytes, 4 tensors)

fc1.weight f4 [128, 4]
0.23799016 -0.25436455 0.22669804 -0.2381026 0.35445032 -0.31890097 0.050423235 -0.32015935
1.3316419 -0.45152512 -1.7437508 -0.4721489 0.10309475 -0.15340362 -0.021759892 -0.10448038
-0.02260979 -0.48721233 0.04875526 -0.31135443 -0.045736123 -0.33357337 0.9293145 0.14072362
-2.0677927 0.50602114 3.8571582 0.9003673 -0.20583571 -0.47212726 0.90645987 0.03815728
-0.009772331 0.25799218 0.6651198 -0.48623317 0.052077696 -0.47133136 -0.25013682 -0.104880095
0.90189207 -0.23493391 -0.7929772 -0.48389125 -0.36239952 -0.5637728 0.56329614 0.1795245
-0.2541412 -0.51558435 -0.42323497 0.05663654 -0.092191674 -0.2506711 -0.19105463 -0.3843775
1.2161607 -0.41422054 -1.5310196 -0.46614644 0.50877845 0.25973034 0.5919963 -0.27670383
0.06897115 -0.23817082 0.98006594 0.23346616 -0.080026515 -0.08331899 0.19016814 -0.007139165
0.13383341 -0.37850103 -0.12542142 -0.19179913 -0.16518025 0.12905273 -0.04794485 0.14085022
0.47036257 -0.10365367 0.11572285 -0.1165656 -0.08865669 -0.43351418 -0.26486227 -0.22472113
-1.5723089 0.6301748 3.953493 1.1140398 0.21195231 -0.19633852 -0.1989482 -0.16324921
-0.14818999 -0.6790711 0.6225297 0.146695 -0.23269932 -0.44899267 0.7564272 0.17675672
-1.7978555 0.25737485 3.486964 1.0494485 -0.2357096 -0.56246203 0.5360849 0.22516353
0.064232 -0.25794986 -0.09677641 -0.040363938 1.0933061 -0.65428376 -1.6518991 -0.6610467
0.42414734 -0.082968295 0.09663513 -0.04684188 -0.15088964 -0.38060063 0.66564614 0.1011966
0.28113934 -0.23669808 -0.015074681 -0.3263867 0.0913303 -0.20302413 -0.21520895 -0.11374347
-0.46155336 -0.5032798 0.41020095 0.5118787 -0.2739004 -0.58696526 -0.13468604 -0.048569586
0.12025108 -0.09731587 -0.09282787 -0.1509913 0.5129137 0.42526084 0.35932744 -0.091091014
0.16483712 -0.31211382 -0.07337839 -0.2994766 0.53282845 0.14641131 0.38025808 -0.26921943
0.27700916 -0.41274074 0.037145834 -0.37181196 0.20281751 0.0036898914 -0.179229 0.07384695
0.026932841 -0.15226153 -0.23055476 -0.02242144 1.6253204 -0.22652958 -3.6971982 -0.8814233
0.50075483 0.43402287 0.72452986 -0.11852956 -0.026487973 -0.7555887 0.42211267 0.051686525
-0.10585177 -0.04668226 0.12861794 -0.16695479 0.15685487 -0.12691998 0.15976535 -0.06968248
-0.026393589 -0.328267 0.045975767 -0.30787703 0.069478676 0.0732882 0.10423961 -0.02938218
0.014479281 -0.32364362 0.84387565 0.12541558 0.077591345 -0.23753405 -0.0017129779 -0.028869573
0.31170377 -0.13030991 -0.104827724 -0.15382941 -0.28120404 -0.55624646 -0.39137033 0.03781222
0.33011773 -0.33416274 0.14990231 -0.21308945 -1.8704106 0.27155536 3.3754125 1.1059722
-2.1677358 0.78260607 3.6634977 0.8860978 -1.4634883 -0.0044045793 1.044076 0.18465503
-0.06435737 -0.10317887 -0.12679654 -0.013822172 -0.15901645 -0.6046527 -0.34444323 0.07036509
0.12825906 -0.22249372 0.8159494 0.20802999 -0.08791677 -0.27082863 0.028137265 -0.22602157
-0.1667013 -0.1947339 0.085957564 -0.20997074 -0.0040947455 -0.357683 0.12327434 -0.27497268
00000000: b1b3 733e 123c 82be 8823 683e 2bd1 73be
00000010: 837a b53e fd46 a3be 9888 4e3d edeb a3be
00000020: 3e73 aa3f 4d2e e7be 3a33 dfbf 80bd f1be
00000030: 5723 d33d d715 1dbe cd41 b2bc cff9 d5bd
00000040: 2b38 b9bc e573 f9be 98b3 473d d969 9fbe
00000050: cd55 3bbd 21ca aabe 8ee7 6d3f da19 103e
00000060: b756 04c0 9a8a 013f aedb 7640 797e 663f
00000070: 99c6 52be aaba f1be c10d 683f cf4a 1c3d
00000080: 211c 20bc 8d17 843e 4b45 2a3f 8ef3 f8be
00000090: 6c4f 553d 5852 f1be ef11 80be 60cb d6bd
000000a0: 66e2 663f 8492 70be 8e00 4bbf 98c0 f7be
000000b0: 6e8c b9be 6a53 10bf 2d34 103f 45d5 373e
000000c0: cc1e 82be 56fd 03bf 41b2 d8be b7fb 673d
000000d0: fdce bcbd f657 80be d3a3 43be 21cd c4be
000000e0: 27ab 9b3f b714 d4be 73f8 c3bf bfaa eebe
000000f0: 4e3f 023f 60fb 843e 128d 173f 20ac 8dbe
00000100: bf40 8d3d 0de3 73be 9ae5 7a3f c111 6f3e
00000110: f1e4 a3bd 26a3 aabd 70bb 423e a8ef e9bb
00000120: a00b 093e e3ca c1be 796e 00be fe66 44be
00000130: 0325 29be 6626 043e d261 44bd 0a3b 103e
00000140: 5dd3 f03e 6048 d4bd 1a00 ed3d f2b9 eebd
00000150: a491 b5bd 92f5 ddbe 079c 87be 4c1d 66be
00000160: 6b41 c9bf 2353 213f 0806 7d40 db98 8e3f
00000170: 070a 593e f70c 49be 14b9 4bbe cd2a 27be
00000180: 1ebf 17be 9bd7 2dbf 1b5e 1f3f 3737 163e
00000190: bb48 6ebe 5ee2 e5be 37a5 413f b7ff 343e
000001a0: 2120 e6bf a3c6 833e 6b2a 5f40 5454 863f
000001b0: db5d 71be 83fd 0fbf dc3c 093f 4591 663e
000001c0: 118c 833d 0112 84be b632 c6bd a854 25bd
000001d0: 74f1 8b3f 247f 27bf 6e71 d3bf 5b3a 29bf
000001e0: d729 d93e 48eb a9bd a4e8 c53d 45dd 3fbd
000001f0: d082 1abe 16de c2be c967 2a3f 2a40 cf3d
00000200: 7ff1 8f3e fb60 72be cbfb 76bc 281c a7be
00000210: 610b bb3d 8fe5 4fbe bc5f 5cbe 56f2 e8bd
00000220: b950 ecbe f2d6 00bf dc05 d23e 7c0a 033f
00000230: ac3c 8cbe 5b43 16bf 23eb 09be e7f0 46bd
00000240: 3346 f63d 8b4d c7bd 8a1c bebd 779d 1abe
00000250: 504e 033f cabb d93e c4f9 b73e ed8d babd
00000260: 10cb 283e 62cd 9fbe 6947 96bd ff54 99be
00000270: 7267 083f d9ec 153e 30b1 c23e 21d7 89be
00000280: 25d4 8d3e c152 d3be 3b26 183d 235e bebe
00000290: 65af 4f3e 1bd2 713b cf87 37be 123d 973d
000002a0: 43a2 dc3c 72ea 1bbe 8c16 6cbe 2bad b7bc
000002b0: 800a d03f 5ff7 67be e59e 6cc0 f5a4 61bf
000002c0: 7831 003f 3f38 de3e ca7a 393f a0bf f2bd
000002d0: 4efd d8bc 436e 41bf 271f d83e 40b5 533d
000002e0: d0c8 d8bd e635 3fbd 6cb4 033e 32f6 2abe
000002f0: 909e 203e 50f7 01be 8799 233e b0b5 8ebd
00000300: 5e37 d8bc 9d12 a8be 1651 3c3d 0fa2 9dbe
00000310: d64a 8e3d 2018 963d 947b d53d e6b2 f0bc
00000320: 823a 6d3c 9eb4 a5be 3c08 583f f16c 003e
00000330: 36e8 9e3d 203c 73be 0086 e0ba e27f ecbc
00000340: a397 9f3e f66f 05be ebaf d6bd 7585 1dbe
00000350: faf9 8fbe 2b66 0ebf b161 c8be fde0 1a3d
00000360: 3105 a93e 6117 abbe fe7f 193e 1f34 5abe
00000370: 9d69 efbf 4e09 8b3e c206 5840 7f90 8d3f
00000380: 2fbc 0ac0 df58 483f bf76 6a40 4ed7 623f
00000390: 9653 bbbf 4a54 90bb 48a4 853f 3516 3d3e
000003a0: cccd 83bd 724f d3bd f4d6 01be 6476 62bc
000003b0: 35d5 22be 85ca 1abf dd5a b0be 931b 903d
000003c0: 5856 033e 65d5 63be 0fe2 503f d005 553e
000003d0: b50d b4bd 0daa 8abe 1f80 e63c 3372 67be
000003e0: bfb3 2abe 5368 47be 850a b03d 9202 57be
000003f0: 372d 86bb 3a22 b7be 4277 fc3d 38c9 8cbe

fc1.bias f4 [128]
0.6717128 0.7315289 0.7170828 -0.398776 1.0113503 0.75445545 0.0033625658 0.7610421
0.057842307 1.0705562 0.7494268 1.0399197 0.72172433 0.9294692 0.69740826 -0.7705058
0.77937734 -0.4676485 0.6966204 -0.40839827 0.6834703 1.1564283 0.14573713 -0.4610262
1.047317 0.9032783 -0.23580532 1.0550582 0.8812818 0.7808771 0.70758843 0.7416549
1.0760739 0.79458386 -0.21932903 0.7013316 -0.4537322 -0.74743986 0.9718853 -0.66723436
0.91527206 -0.15988968 0.9429151 -0.2248166 -0.7593368 0.9769442 -0.4949779 -0.22423095
0.76812446 -0.4221412 0.6997962 0.8912069 0.7145555 0.74449754 0.5928287 -0.25344342
-0.058064323 -0.58809626 -0.41195947 0.786265 0.6879112 0.74064803 -0.34578583 0.852955
0.0978395 -0.19762325 1.1298263 1.0584927 0.7801137 1.0080503 -0.19814476 0.5133054
0.7684065 -0.45214337 -0.029227415 0.6934897 0.7248658 0.6952214 0.88358206 1.0515211
-0.41602206 -0.24107157 0.71106803 0.69468814 -0.20680228 -0.5827335 0.737608 -0.13846858
0.742886 0.91754436 0.03489665 -0.2530485 -0.21304785 -0.23987418 0.8697051 0.94213665
0.8353926 0.12579957 0.77527267 0.8972761 1.02341 0.7344513 -0.040263575 0.8739331
1.0064931 1.0161383 0.6993081 -0.035489198 -0.19766684 -0.056751728 -0.30015427 0.70221585
0.995192 -0.18670647 -0.8155623 -0.4330017 0.7777238 -0.24616158 0.7821628 0.053985707
-0.32411176 -0.41010702 0.69973284 0.8827382 -0.7300527 -0.23254222 0.9927778 -0.20452346
00000000: 5ff5 2b3f 7a45 3b3f bd92 373f 5e2c ccbe
00000010: ed73 813f fe23 413f 7e5e 5c3b a8d3 423f
00000020: 0eec 6c3d fc07 893f 6fda 3f3f 171c 853f
00000030: edc2 383f b2f1 6d3f 5989 323f de3f 45bf
00000040: 4685 473f a06f efbe b755 323f 9419 d1be
00000050: e9f7 2e3f d805 943f 1d3c 153e a00b ecbe
00000060: 7c0e 863f 3f3d 673f f376 71be 260c 873f
00000070: af9b 613f 90e7 473f 8424 353f 18dd 3d3f
00000080: cabc 893f d969 4b3f ca97 60be 788a 333f
00000090: 964f e8be 3858 3fbf 7acd 783f dfcf 2abf
000000a0: 454f 6a3f 1fba 23be e262 713f 5336 66be
000000b0: e663 42bf 0419 7a3f be6d fdbe cc9c 65be
000000c0: cea3 443f e422 d8be d825 333f 2326 643f
000000d0: 1ced 363f 6497 3e3f 9fc3 173f 56c3 81be
000000e0: dbd4 6dbd 7a8d 16bf 5aec d2be aa48 493f
000000f0: f31a 303f 1c9b 3d3f d70a b1be 425b 5a3f
00000100: 1360 c83d c05d 4abe 269e 903f b07c 873f
00000110: 88b5 473f cb07 813f 76e6 4abe fc67 033f
00000120: 4ab6 443f 567f e7be 556e efbc 8a88 313f
00000130: ce90 393f 08fa 313f 6f32 623f 3e98 863f
00000140: d800 d5be 77db 76be 8e08 363f 15d7 313f
00000150: fac3 53be 062e 15bf e1d3 3c3f b5ca 0dbe
00000160: c72d 3e3f 30e4 6a3f caef 0e3d 938f 81be
00000170: 3729 5abe 94a1 75be fea4 5e3f de2f 713f
00000180: 4adc 553f 9ad1 003e 4578 463f e3b3 653f
00000190: 19ff 823f 0005 3c3f 6beb 24bd 14ba 5f3f
000001a0: c4d4 803f d210 823f db05 333f 1f5d 11bd
000001b0: 2d69 4abe 8074 68bd d2ad 99be 6bc4 333f
000001c0: e7c4 7e3f fb2f 3fbe b1c8 50bf 66b2 ddbe
000001d0: e818 473f c811 7cbe d23b 483f 1e20 5d3d
000001e0: faf1 a5be 8cf9 d1be b121 333f 21fb 613f
000001f0: bce4 3abf 8c1f 6ebe b026 7e3f 996e 51be

fc2.weight f4 [2, 128]
0.6712677 0.70539945 1.2144889 -0.10426448 0.6625238 0.792574 -2.0761714 0.8090523
0.35295665 0.7326114 0.718021 0.7336687 0.6773925 0.706446 0.8845592 1.1214284
0.84816414 -0.0010364217 0.70844203 0.098168164 0.7698203 0.46789515 -2.1277635 0.016997712
0.8988068 0.6160972 -2.0502968 0.7576446 0.4228155 1.1379886 0.5356161 0.5977223
0.6993456 0.45843798 -0.6846041 0.87512344 0.20835504 0.7684002 0.7178431 1.2237512
0.7579286 -0.20814398 0.76014894 -1.8379959 0.7684691 0.8513453 0.0025523445 0.13154185
0.69535935 -0.13648233 0.71088994 0.5383263 0.74087155 0.9108091 0.604798 -1.9261831
-2.281766 1.2567863 0.04353604 0.5952144 0.6571839 0.8523233 -0.10831657 0.8526587
-2.125561 -1.6642264 0.33372363 0.6665475 0.8187701 0.40935192 -1.6438074 0.56810254
0.6913488 0.014222398 -2.2020783 1.2029362 0.5894014 0.96410066 0.3830925 0.6133732
0.0047975197 -1.5874823 1.3003491 0.8041685 -1.8569866 2.1330438 0.43563336 -1.7350441
0.8478424 0.64002526 -2.1705909 -1.3114394 -2.1396387 -1.6797546 0.7994658 0.45866838
0.7383399 -2.087397 0.730905 0.6430422 0.47004226 0.73492396 -1.5708268 0.61270434
0.6344863 0.6225818 1.0777675 -2.5289288 -2.086555 -2.264601 -0.20371109 0.9969519
0.61486924 -1.5260632 0.81307554 -0.02371157 0.8355921 -0.19119391 0.37662935 0.57375556
0.16041735 0.07729121 0.59421253 0.8364135 1.2397289 -1.8619077 0.6013346 -1.842624
0.6972444 0.8661566 1.2256842 -0.023947364 0.6520496 0.7994087 -1.9405614 0.6153197
0.3747504 0.6015169 0.82341856 0.7907304 0.5875816 0.5636975 1.1600549 0.93546516
0.4882621 -0.11145246 0.83318573 -0.07756309 0.47946078 0.7286318 -2.06904 -0.14724265
0.75025827 0.7733422 -1.9932687 0.8219534 0.45838556 1.2430476 0.60269874 0.783517
0.7368844 0.7585224 -0.67598975 0.7998857 -0.20597944 0.84128034 0.44486755 1.0272048
0.51777077 -0.15453172 0.3485014 -2.0009522 0.81703377 0.49998575 0.13300176 -0.10997086
0.5892032 -0.015977066 0.7519284 0.45730475 0.64633954 0.70865625 0.6297363 -2.097285
-2.423493 1.2853618 -0.044508435 0.9742801 0.60344297 0.60802454 0.0014381156 0.4782026
-2.0457256 -1.7525877 0.7419094 0.6402516 0.67439044 0.602151 -1.8369896 0.84654635
0.48648703 0.2000978 -2.2068853 1.1076047 0.5098641 0.6122377 0.5851044 0.5737395
0.018322889 -1.7401235 1.4226322 0.7444411 -1.5401663 2.0302472 0.654645 -1.9045864
0.6855564 0.42194265 -1.9966751 -1.1820203 -2.0175548 -1.5634377 1.0144534 0.79156905
0.70185924 -1.9313415 0.6387992 0.8214425 0.776584 0.76050174 -1.364729 0.7991614
0.7790764 0.48562288 1.0586101 -2.471054 -1.9903139 -2.5805657 0.0017723483 1.0365502
0.33507812 -1.8579718 1.084683 -0.108758286 0.78032124 -0.10560229 0.6923402 0.46168444
-0.18502317 0.036881983 0.91567385 0.6049901 0.9117299 -1.8887143 0.7537408 -1.7058864
00000000: 33d8 2b3f 0f95 343f 5f74 9b3f 9e88 d5bd
00000010: 299b 293f 21e6 4a3f fedf 04c0 0d1e 4f3f
00000020: bcb6 b43e 6c8c 3b3f 39d0 373f b6d1 3b3f
00000030: 9869 2d3f a5d9 343f 7972 623f f78a 8f3f
00000040: 4921 593f 8bd8 87ba 755c 353f 640c c93d
00000050: f112 453f f48f ef3e 472d 08c0 c93e 8b3c
00000060: 3418 663f 8cb8 1d3f 1038 03c0 fff4 413f
00000070: 467b d83e 9ca9 913f 231e 093f 5404 193f
00000080: 5008 333f 62b8 ea3e 3742 2fbf 1708 603f
00000090: 065b 553e e0b5 443f 91c4 373f e1a3 9c3f
000000a0: 9c07 423f b223 55be 1f99 423f 7343 ebbf
000000b0: 64ba 443f c4f1 593f 3c45 273b e8b2 063e
000000c0: 1203 323f 06c2 0bbe e2fc 353f c1cf 093f
000000d0: c2a9 3d3f c92a 693f 0bd4 1a3f 2b8d f6bf
000000e0: 7408 12c0 60de a03f d952 323d f95f 183f
000000f0: 343d 283f dc31 5a3f 14d5 ddbd d747 5a3f
00000100: 3109 08c0 5f05 d5bf d3dd aa3e dba2 2a3f
00000110: eb9a 513f 9396 d13e 4868 d2bf 2b6f 113f
00000120: 3cfc 303f 1005 693c daee 0cc0 d0f9 993f
00000130: 03e3 163f 4dcf 763f b324 c43e 0706 1d3f
00000140: 8334 9d3b 9f32 cbbf d771 a63f fddd 4d3f
00000150: bdb1 edbf ca83 0840 560b df3e ed15 debf
00000160: 330c 593f b2d8 233f f6ea 0ac0 3fdd a7bf
00000170: d7ef 08c0 3302 d7bf caa9 4c3f 95d6 ea3e
00000180: d803 3d3f ea97 05c0 971c 3b3f 6a9e 243f
00000190: 61a9 f03e fa23 3c3f da10 c9bf 31da 1c3f
000001a0: b26d 223f 8561 1f3f 49f4 893f f8d9 21c0
000001b0: 1e8a 05c0 39ef 10c0 a499 50be 3d38 7f3f
000001c0: 1268 1d3f 0a56 c3bf b825 503f c43e c2bc
000001d0: 5de9 553f 56c8 43be 90d5 c03e a5e1 123f
000001e0: 7244 243e db4a 9e3d 501e 183f 321f 563f
000001f0: 70af 9e3f fe52 eebf 10f1 193f 1adb ebbf
00000200: 9c7e 323f 70bc 5d3f 38e3 9c3f 432d c4bc
00000210: b9ec 263f 0ca6 4c3f 5164 f8bf 9885 1d3f
00000220: 49df bf3e 03fd 193f 8fcb 523f 4f6d 4a3f
00000230: bf6b 163f 7b4e 103f ae7c 943f a57a 6f3f
00000240: 7dfd f93e 3041 e4bd a94b 553f 66d9 9ebd
00000250: e27b f53e 9d87 3a3f 276b 04c0 c7c6 16be
00000260: ed10 403f c1f9 453f 6e23 ffbf 8a6b 523f
00000270: 83b1 ea3e 2f1c 9f3f 774a 1a3f 9294 483f
00000280: 75a4 3c3f 862e 423f aa0d 2dbf 4fc5 4c3f
00000290: 46ec 52be 265e 573f aec5 e33e 727b 833f
000002a0: a08c 043f 903d 1ebe c76e b23e 9a0f 00c0
000002b0: 2029 513f 22fe ff3e 9d31 083e 6738 e1bd
000002c0: 05d6 163f 56e2 82bc 617e 403f d923 ea3e
000002d0: 8276 253f 7f6a 353f 6636 213f eb39 06c0
000002e0: 821a 1bc0 bc86 a43f 7a4e 36bd 6c6a 793f
000002f0: 3d7b 1a3f 7fa7 1b3f 277f bc3a f9d6 f43e
00000300: 2bed 02c0 cb54 e0bf c6ed 3d3f 87e7 233f
00000310: daa4 2c3f 9126 1a3f 7a22 ebbf 43b7 583f
00000320: d414 f93e 70e6 4c3e 9c3d 0dc0 fec5 8d3f
00000330: 7486 023f 9cbb 1c3f 67c9 153f 98e0 123f
00000340: e219 963c 5ebc debf d018 b63f b193 3e3f
00000350: 2b24 c5bf 92ef 0140 d196 273f 7dc9 f3bf
00000360: a080 2f3f de08 d83e 0d93 ffbf 714c 97bf
00000370: 9e1f 01c0 ba1e c8bf 9cd9 813f 45a4 4a3f
00000380: 0cad 333f 3336 f7bf 5888 233f 0e4a 523f
00000390: 36ce 463f 3eb0 423f 71af aebf d795 4c3f
000003a0: 8d71 473f 90a3 f83e 8980 873f c025 1ec0
000003b0: 9bc2 febf fd27 25c0 244e e83a adad 843f
000003c0: 5c8f ab3e 05d2 edbf e4d6 8a3f aabc debd
000003d0: 22c3 473f 0346 d8bd 353d 313f e761 ec3e
000003e0: b776 3dbe 9011 173d 9a69 6a3f a2e0 1a3f
000003f0: 2167 693f 64c1 f1bf 28f5 403f 7c5a dabf

fc2.bias f4 [2]
0.597504 0.53653145
00000000: 06f6 183f 205a 093f
