saved_models/train_5000e_1xp_1lr/best_online_net.pth (torch, 5712 bytes, 4 tensors)

fc1.weight f4 [128, 4]
00000000: e9cd 563e 6975 dabe 920f 0dc0 bf94 84bf
00000010: de53 543e 53e9 8abe 1366 82bd b41c 0c3f
00000020: dddb 89bd 386e 903d 1ee7 cb3e f49c bdbd
00000030: d5fd 0bbf 9b68 ad3e 26e0 b83f 9b86 4d3f
00000040: 41fd b43e 6806 b3be 7700 0ec0 e5c9 7abf
00000050: a8f7 5fbc 8dec 0dbf 1cd0 35be b5a5 973e
00000060: 0455 bd3e a9cc b1be b177 01c0 2c28 6fbf
00000070: 238e f5be 5d7a 8c3e d3b2 af3f 841f 403f
00000080: 9042 163e ff01 6d3e 9a9b dc3e 9611 8ebd
00000090: 2363 c83e a6bf 78be b11a f9bf ac1d 6cbf
000000a0: 1f44 e33d 9b4e 9c3e d9e9 cb3e 1e50 783e
000000b0: 87b7 40bd 1b61 febd 9f7a 093e 4c96 21bd
000000c0: 0539 a2bd 07de 5a3d 0d99 893d 3387 8e3d
000000d0: 67d3 30bd 23dc c73e 273d e83e 8965 533e
000000e0: f4c2 a53d aa35 6c3e 2036 ec3e 9d36 e03d
000000f0: 777c 61bc 81ec 813e 0865 d53e 3550 f83d
00000100: 954d 3d3e f8ba 8c3d 1d0f df3e ae04 9e3e
00000110: dc31 c83d 22bc f53d d0a0 1ebe 38c5 1a3e
00000120: 13d3 2b3e cc9e 36bd bb77 b33d 3d35 0b3f
00000130: 2581 da3e f610 8fbe 5fa1 e8bf 5706 54bf
00000140: 9e8c e83c 2377 f1bc ddd3 5f3e cdf9 d83d
00000150: ba51 43be aefc f6be c40f 4e3e 71f2 c73e
00000160: b9ff 823e 06ce 6c3e 9cc8 d33e be2b 5fbd
00000170: 028f 15bf cb0a 1b3e 7cf0 b83f 1783 473f
00000180: ee87 913d 635f 3e3d e019 ab3e 8a54 173e
00000190: 53d1 a73d dfab 9d3e 3091 d33e 80cc f63d
000001a0: 3cb7 a13d 29f5 4ebe d8bd 12be 3a88 cf3a
000001b0: a6d8 833e c542 683e 8fac 1d3e 9c20 3b3e
000001c0: 8632 aabc 1345 173f d073 823f 1b6f b0be
000001d0: 3504 2bbd f190 fa3d 3552 1abe 552f 903c
000001e0: 85f3 9abe f766 483e ecb4 f23f e519 3c3f
000001f0: a2e7 08bf 3636 f03d 2090 c23f 0179 313f
00000200: f612 863d 7fd5 efbe da0a 093d 54ca e13e
00000210: d116 ce3b 0f30 073e 8a76 6b3e 6e82 883e
00000220: c669 e7be 265f 663e e50b b33f 6c59 543f
00000230: b0a9 ce3c e99e 803e 9681 883e 6ec0 3cbc
00000240: ed0f cc3d 7c8a 633d a435 0a3f 3e49 d73e
00000250: 7470 2b3c 4013 4c3f 4ecc 613f b41e 8abe
00000260: 3386 e7bd f957 5e3e 8882 2d3e c125 2d3e
00000270: a704 833d 0c2a 73bb b757 bb3e 7196 e3bd
00000280: e5d5 dfbe 63ad 743e 2c55 b93f c8c6 513f
00000290: b796 473e 14a6 19bf 9ee5 c03d 3d84 843e
000002a0: 838f 173e d951 13be 61b0 183e afa8 d4bd
000002b0: 2087 61bf d9e2 113f bc50 1340 e078 e73e
000002c0: 5fb4 cb3d 6436 493e ca07 143e b97d 043d
000002d0: c1be 53bd c717 583e 210b c33e 22d1 653e
000002e0: 3a82 86bd 37ee 20bf 9b28 b63d 7624 133e
000002f0: afbd 143e 8522 16bd 95f5 cc3e 3cd1 dabc
00000300: 2802 2a3e e834 f73d e2e0 cf3d 674d 7e3e
00000310: 48a0 fd3d d345 9f3e 5306 663e 0386 3f3e
00000320: 5167 b8be e8fb 713e c9c2 de3f 6f47 553f
00000330: 3dd4 51bf 56b9 693e b1f1 d93f be5e 4e3f
00000340: 4f1b 6c3e d159 373e b303 c33e 8026 a23e
00000350: 6393 4f3e 70ef db3d 8de7 453e d43f d93d
00000360: c2c6 993e 1751 ab3c 1301 823e 9df4 85bd
00000370: 7f1d 20bf c9e5 313f e96b 0240 7c5e 5a3e
00000380: c4a8 f13e 33ff 9ebe fa25 13c0 ff0a 74bf
00000390: d882 743d bf87 09be 4a4c 553e 0708 d13c
000003a0: 4ce6 aebe 6cdd 933d d179 c23f 3f98 213f
000003b0: 0c89 793e 2469 963e bb7a b33e b2e8 8d3e
000003c0: fe2d fdbe 7d9a 7c3e 525d d73f 49a6 513f
000003d0: e456 bc3d 41f7 b7be 6770 f13b 1cb0 063f
000003e0: e75f 55bf 9880 4f3f 6852 0540 e2bb c93e
000003f0: 32f1 3e3e e2cf 14be ee43 9dbd 755d febd
0.20976986 -0.42667702 -2.2040753 -1.0357894 0.20735118 -0.27131137 -0.06367125 0.547313
-0.06731389 0.070522726 0.39824766 -0.09258452 -0.5468419 0.3386887 1.4443405 0.80283517
0.35349467 -0.34965825 -2.2187784 -0.97964317 -0.013669886 -0.5543907 -0.17755169 0.29618612
0.36978924 -0.34726456 -2.0229304 -0.9342067 -0.47960004 0.27437106 1.3726448 0.7504809
0.14673829 0.23145293 0.43087465 -0.06936948 0.39138135 -0.24291858 -1.946127 -0.92232776
0.110969774 0.3052872 0.3982685 0.24249312 -0.047050025 -0.12420865 0.13425682 -0.039449975
-0.07921032 0.053434398 0.06718645 0.06959381 -0.04317036 0.39035138 0.45359156 0.20644201
0.08093825 0.23067346 0.46135044 0.10947917 -0.013762585 0.2537575 0.41678643 0.12124673
0.18486626 0.06871599 0.43566218 0.30862945 0.09775135 0.11998774 -0.15491033 0.15114295
0.16779737 -0.044585034 0.08763071 0.5437811 0.42676654 -0.27942628 -1.8174247 -0.82822174
0.028387364 -0.029475754 0.21858163 0.10594521 -0.19074145 -0.48239654 0.20123202 0.39052156
0.25585726 0.23125467 0.4136399 -0.054485075 -0.5842134 0.15140836 1.444839 0.779344
0.07106005 0.046477687 0.3341818 0.14778343 0.08194222 0.3079519 0.41321707 0.12050724
0.07896277 -0.20210709 -0.14330232 0.0015833445 0.25751227 0.2268172 0.15397857 0.18274158
-0.020776045 0.59089774 1.0191593 -0.34459767 -0.04175206 0.12234677 -0.15070422 0.017600695
-0.30263916 0.19570528 1.8961463 0.7347701 -0.53478444 0.1172909 1.5200233 0.6932526
0.06546585 -0.46842572 0.033457614 0.44099677 0.006289341 0.13201927 0.22994438 0.2666201
-0.45197886 0.22497234 1.3988005 0.82948947 0.025227398 0.2512124 0.26661366 -0.011520488
0.09963975 0.05555199 0.539881 0.42048067 0.010463823 0.79716873 0.8820237 -0.2697655
-0.11304893 0.21713246 0.16944325 0.16908933 0.06397372 -0.003710392 0.3659036 -0.11112679
-0.43717876 0.23894267 1.4479117 0.8194394 0.19491087 -0.6001904 0.09418796 0.2588214
0.14800839 -0.14386691 0.14911033 -0.10383736 -0.8809681 0.5698677 2.3018026 0.45209408
0.099465124 0.19649655 0.14456096 0.03234646 -0.05169559 0.2110282 0.38094428 0.22443059
-0.065678075 -0.62863487 0.08894464 0.14369377 0.14525484 -0.036654014 0.40031114 -0.026711099
0.16602385 0.12070638 0.10150315 0.24834214 0.12384087 0.3110796 0.2246335 0.18703465
-0.36016324 0.23631251 1.7403194 0.83312124 -0.81964475 0.22824606 1.7026883 0.80613315
0.23057292 0.17905356 0.3808876 0.31669998 0.20271067 0.107390285 0.19326611 0.106078774
0.30034453 0.02091269 0.25391445 -0.06540797 -0.6254501 0.6949125 2.0378363 0.21325105
0.4719907 -0.31054077 -2.299193 -0.9532928 0.059695095 -0.1343069 0.20829883 0.025516523
-0.34160078 0.07219967 1.5193425 0.63122934 0.24368685 0.2937709 0.35054573 0.27716595
-0.49449152 0.24668308 1.6825354 0.81894356 0.091962606 -0.35930827 0.0073681357 0.5261247
-0.8334946 0.81055593 2.0831547 0.39401156 0.18646696 -0.14532426 -0.07678972 -0.12420169

fc1.bias f4 [128]
00000000: a8c3 4abe 298b 603e 7a3f 4f3f 2b26 0b3d
00000010: 1dde 87be 2b92 163e bb1b b8be 97a0 f93d
00000020: aba7 143f 77ce 25be d192 113f 7ea6 e9be
00000030: d451 5bbe 9abd c83e 15ae 4f3f 542f 173f
00000040: e414 e73e e9ff fbbe dbe5 993e d0cf e0bd
00000050: 7444 443f 8988 cabe 7f22 193f 623b 2e3c
00000060: 24ca 4f3f 8310 cb3e c46f cebe 84d7 f13e
00000070: 4376 8dbd fee3 e3be 36d6 34bd ba68 253d
00000080: d9b2 6e3e 2519 433f 4586 f33b 4b1a fe3e
00000090: 1b79 2d3f e322 7d3d eb28 323f 6e44 533f
000000a0: e3f0 6d3c f916 1f3e 1656 87be 4e03 fcbe
000000b0: e093 343f 6272 5d3f 9073 dd3d 6d02 473f
000000c0: 63bc 4e3f f26c f73e 7fc8 c1bb 1f6f a7be
000000d0: a124 4f3f a254 163f 7846 d53e f229 21be
000000e0: 1a77 96be 506f 4c3f b608 3abb 7155 5b3f
000000f0: fcd3 6f3e 12ef 7f3e 085d 92be 8e6d c0be
00000100: 97f9 243f a48a e4be 88f2 d43d c54f 113f
00000110: a5b4 9abe 8a03 80be 10fc f23e 2f22 d23e
00000120: 5e3c 12bf c2a9 673f b514 313f 197e f33e
00000130: 7f37 253f c58b 663f b8e0 18be 1dc7 0d3f
00000140: cc29 9cbe 04d6 003f d60b e6be eea6 143f
00000150: 282b ba3d a779 8ebe 5e1f 333f b2bd c0bd
00000160: 7fc8 143d 7979 0b3e 49a7 a23d 6ed0 c6be
00000170: 8072 1bbe f67f 943e 53ad db3e c9c1 443f
00000180: 5c6b e4be a4df e83d 1e3e 89be f9df 003f
00000190: 403d e83d cf12 c83e 1e1e 4cbe 26f9 3c3e
000001a0: c0ac 70be acff 1f3f 3c43 3f3f e8e3 523f
000001b0: 1d82 0f3f a95d f23e 4935 713f fbd1 46be
000001c0: 4e93 e9be 51c7 a2bc 51e4 77be 178d 413d
000001d0: 2767 393f e393 b23c 88a6 073c 4a21 6c3f
000001e0: e351 82be 627d 893e 635f 39be 1081 49be
000001f0: 5daa 803e 9dec e1be 884f 0c3f 98c2 dcbe
-0.198012 0.21928085 0.8095623 0.033971947 -0.26536646 0.14704196 -0.35958657 0.12188833
0.5806834 -0.16192041 0.5686465 -0.45634836 -0.21417934 0.39207155 0.81125003 0.5905659
0.45133126 -0.4921868 0.30058178 -0.10977137 0.7666695 -0.39557293 0.5981826 0.010634275
0.8116782 0.39661035 -0.40319645 0.47234738 -0.06907322 -0.44509882 -0.0441496 0.04038308
0.23310412 0.7621024 0.0074317777 0.49629435 0.6776292 0.06180085 0.69593686 0.8252629
0.014522764 0.15536107 -0.26432866 -0.4922127 0.7053814 0.8650266 0.108130574 0.77738076
0.80756205 0.48325306 -0.0059137936 -0.32701966 0.80915266 0.5872289 0.41655326 -0.15738657
-0.29387742 0.7985735 -0.002838654 0.8567725 0.2342071 0.24993542 -0.28586602 -0.37583584
0.64443344 -0.44637024 0.10397822 0.56762344 -0.30215946 -0.250027 0.47457933 0.41041705
-0.57123363 0.90493405 0.6917222 0.47557142 0.64537805 0.9005702 -0.14929473 0.5538195
-0.30500638 0.5032656 -0.44930905 0.58067214 0.09090263 -0.27827188 0.6996974 -0.094111815
0.03632402 0.13620557 0.07942063 -0.38830894 -0.15180397 0.29003876 0.42905673 0.7685819
-0.4461316 0.11370781 -0.26805204 0.50341755 0.113398075 0.3907685 -0.19933364 0.18454418
-0.23503399 0.624995 0.74711967 0.8237901 0.5605791 0.47337082 0.9422193 -0.19416039
-0.45620197 -0.019870432 -0.2420819 0.047253694 0.72423023 0.021799034 0.00827945 0.92238295
-0.254531 0.26853472 -0.18102793 -0.1967814 0.25129977 -0.44125834 0.54808855 -0.43117213

fc2.weight f4 [2, 128]
00000000: 3833 c5bf 34d3 113f 7b18 ef3e 6865 88bf
00000010: d326 a7bf f2d7 dd3e dd3c b6bf 422f 79bf
00000020: 300c ed3e 1017 70bf 16f1 183f e293 30be
00000030: c4bb e43d 3c6d 133f a188 ba3e 9148 e33e
00000040: f8da 243f a17c f2bd 078a 823e ce7b 81bf
00000050: 250c af3e a398 523f a863 c43e 9358 57bf
00000060: 20ee 043f 0534 253f 7a0e 1ebe 2aad 263f
00000070: 7baf 913f 199a 153e d369 8fbf 6471 77bf
00000080: 2b3d aa3e a0ec 093f 7f46 84bf 6b4a 093f
00000090: 0040 233f edaf 783f e84f ed3e a908 bc3e
000000a0: 4265 85bf f23f c03e f5e2 20be 0d3c 8fbf
000000b0: 9ea4 543e f866 603e ac7b a83e c7df 103f
000000c0: 17f6 f63e 8699 1a3f 6449 7abf 3d5f 6ebf
000000d0: deba 103f 68f7 fc3e d149 ea3e f8db d2bf
000000e0: 3e53 b7bf 748e 513e c8c4 7abf a5e0 103f
000000f0: 98d5 43bf 2b65 163f 61ef c1bf 9ffc 29be
00000100: 8aef a63e 64e2 28be 663d 52bf da81 af3e
00000110: e9cc 5d3f 368d 46be 023f 1f3f e847 a23e
00000120: 194e a03f fc39 e73e f307 443e 4cde 033f
00000130: e3f9 dd3e 43ac a43e 00eb 543e e5d2 253f
00000140: a0d7 1dbe 1929 ff3e fdff d03d 1583 d33e
00000150: 9c0e 903e 8a7c a1bf 50e8 fd3e fa2f 76bf
00000160: 2614 63bf 37f4 6fbf 3916 943e 1ddb 193e
00000170: d8f9 8bbf 9583 943e 08ea 123f 7e52 ca3e
00000180: feb7 a43d f8d9 55bf b761 463e be26 a13e
00000190: 2933 143f 1293 e63e d8e8 4dbe b3fe 183f
000001a0: 7303 5cbf 738d 933e cea0 8e3e 3bce 003f
000001b0: 9bae 083f 2665 493e b09e d13e e395 683f
000001c0: dde5 603d f3e1 91bf ff1f 60be bc66 74bf
000001d0: 4c7e f63e d1cb 95bf fe23 8fbf c2c5 cc3e
000001e0: 80ec d7bf ac54 c63e 947b 843f 57c3 c0bf
000001f0: 235a 2a3f 1e4a afbf 7258 923e cac7 60bd
00000200: 4cc5 abbf c4a8 bd3e 0325 ad3e 3dda 71bf
00000210: 7121 bcbf 7f61 f43e e259 a9bf 2269 79bf
00000220: 1b6e 9f3e d185 91bf 4bbd e53e 8bac d33d
00000230: d71f 933d 4f84 4b3f d2e2 dc3e 434b ac3e
00000240: ec89 313f 4d33 a7bd 2d76 163f e50e 81bf
00000250: a0fb de3e 577e 463f 3ffe df3e 7e4c 5ebf
00000260: b077 f13e abea 253f 7257 643e d655 0b3f
00000270: 7762 503f 315f 51be 34b8 96bf b78c 46bf
00000280: 1c36 0d3f 4109 8c3e 53b6 7fbf 9c75 0c3f
00000290: 61bc 1e3f d61b 923f 8fa8 583e d15f a43e
000002a0: 5fbf 81bf d257 943e 405a 073e 207c 97bf
000002b0: 2f91 003f 943c e53e 0a67 983e 801a ac3e
000002c0: aecf 963e ba73 133f c078 83bf a6a2 53bf
000002d0: 78db 083f e3d7 fa3e e8ff 053f c75a ecbf
000002e0: b9fc 8bbf cb5f d83e 7b32 66bf 5415 d73e
000002f0: d40d 52bf d54b 113f 157d c6bf d4d5 583e
00000300: de62 0a3f aa56 b4bd f085 52bf f282 103f
00000310: 01dc 323f 0a47 a3bd 1de1 e53e 8651 e13e
00000320: 1267 9b3f c998 a43e 7046 ad3e 1798 c33e
00000330: 4027 153f 261c c13e 6892 9cbd a262 a83e
00000340: ba5f 07bd 57d5 843e f992 0abd deaa d43e
00000350: d2c7 d83e 6774 bdbf 2450 0e3f f1f8 80bf
00000360: 971e 8bbf 4814 68bf 2e56 513e fbad ad3d
00000370: c69b 78bf 3b7a 773e f172 f03e 765c f73e
00000380: 52ff 6b3d a71c 60bf 489f 16be 5f07 da3e
00000390: df6c 9f3e 805e 1e3e e766 7bbc ce78 383f
000003a0: 9fff 4dbf fa4b 153f 2970 f43e 4cee ef3e
000003b0: 3edb 093f b869 113f e8b0 b43e 8c89 7d3f
000003c0: f7b8 57be 4d1f 8cbf 36e5 3ebe 88f6 86bf
000003d0: bc83 ea3e 4341 9fbf ca1f 8fbf 1efb d33e
000003e0: 4d8c bdbf 57c3 823e 157a 9a3f 17ff cbbf
000003f0: 4b74 213f bf81 cfbf cad8 0f3f 4757 0c3e
-1.5406256 0.56962895 0.46698365 -1.0655947 -1.3058723 0.43328816 -1.4237324 -0.97337735
0.4629836 -0.9378519 0.5974287 -0.17243913 0.11168626 0.57588553 0.36432365 0.443913
0.6439662 -0.11840177 0.25495932 -1.0115907 0.34188953 0.82264155 0.38357282 -0.8411953
0.5192585 0.645325 -0.1543521 0.6510798 1.1381677 0.14609565 -1.120417 -0.96657395
0.33249792 0.53876686 -1.0334014 0.5362918 0.6376953 0.9714344 0.46350026 0.36725357
-1.0421526 0.37548786 -0.15711577 -1.1190201 0.20765921 0.2191428 0.32906854 0.5659146
0.48234627 0.6039051 -0.97768235 -0.9311407 0.56535137 0.49407506 0.45759442 -1.6473379
-1.4322278 0.20464498 -0.97956514 0.5659278 -0.76497793 0.5874812 -1.5151178 -0.16600274
0.3260463 -0.16492611 -0.82124937 0.34278756 0.86640793 -0.19389805 0.6220552 0.31695485
1.2523834 0.45161426 0.19143657 0.51511073 0.4335471 0.32162675 0.2079277 0.64774925
-0.15414286 0.49836043 0.10205076 0.41310945 0.28136146 -1.2616131 0.49591303 -0.96166956
-0.8870262 -0.9373202 0.28923205 0.15024991 -1.0935621 0.2900664 0.57388353 0.39516062
0.08042906 -0.8353572 0.19373213 0.3147487 0.57890564 0.4503408 -0.20108354 0.5976364
-0.85942763 0.28818855 0.2785706 0.5031468 0.53391427 0.19667491 0.4094138 0.9085371
0.054906715 -1.1397079 -0.21887206 -0.9546926 0.48143232 -1.1702825 -1.1182859 0.39994627
-1.6869049 0.38736475 1.0350213 -1.5059613 0.6654379 -1.3694494 0.28583103 -0.054878034
-1.3419585 0.3704282 0.338173 -0.9447363 -1.4697706 0.47730634 -1.3230555 -0.97426045
0.3113869 -1.1368963 0.44870982 0.10335644 0.07183807 0.7949876 0.431418 0.3365117
0.6935108 -0.08164082 0.5877407 -1.008267 0.4355135 0.7753653 0.43748662 -0.8683547
0.47161627 0.648112 0.22298983 0.5442785 0.81400245 -0.20446469 -1.1774964 -0.77558464
0.5516069 0.2735081 -0.9988758 0.5486696 0.62006193 1.1414745 0.2115805 0.32104352
-1.0136527 0.28973252 0.13218021 -1.1834755 0.5022153 0.4477278 0.29766113 0.33613968
0.29455322 0.5759846 -1.0271225 -0.82670057 0.5345988 0.48992833 0.52343607 -1.8465203
-1.09365 0.42260584 -0.8992078 0.4200846 -0.8205235 0.56756335 -1.5506922 0.21175319
0.5405711 -0.08805592 -0.8223562 0.56449807 0.6986695 -0.07972534 0.4489831 0.4400751
1.214083 0.32147816 0.33842802 0.38201973 0.58263016 0.37716788 -0.07645112 0.3288775
-0.033050276 0.25944015 -0.03383157 0.4153661 0.4233995 -1.4801148 0.55591035 -1.0075971
-1.086871 -0.90655947 0.20443031 0.0848045 -0.9711269 0.24167721 0.46962693 0.4831273
0.05761654 -0.8754372 -0.14709198 0.4258375 0.3113775 0.15465736 -0.015344358 0.72059333
-0.8046817 0.58319056 0.4774182 0.46861494 0.5385016 0.5680194 0.3529122 0.99038005
-0.21066652 -1.0947052 -0.18642125 -1.0543985 0.4580363 -1.2441791 -1.1181576 0.41402525
-1.4808441 0.25539657 1.2068506 -1.5937222 0.63068074 -1.621147 0.5619017 0.13705169

fc2.bias f4 [2]
00000000: 808e cf3e c04e 8d3e
0.40538406 0.27599144
