saved_models/pole_dqn/train_new_done_steady/online_net.pth (torch, 5672 bytes, 4 tensors)

fc1.weight f4 [128, 4]
0.43709925 -0.19519915 -0.33636835 0.20800602 0.113571 0.17264414 -2.0753047 -0.9109294
0.20435384 -0.42392498 -0.41556907 0.32836527 0.8283819 -0.7114386 -3.0636473 -0.6789197
0.13999431 -0.2895535 -0.63978165 -0.2001213 0.27017024 -0.43859503 -0.37819627 0.2837159
0.25309741 -0.41075474 -0.53325635 -0.08806775 -0.0030223357 0.17101899 -0.053502817 0.20118064
0.20036823 -0.559614 -0.6841639 0.37587732 0.37306705 -0.40645385 -0.6014402 0.23363574
0.15737388 -0.20842525 -0.53837466 -0.19183475 0.11114214 0.146992 -0.09435884 -0.022196217
0.31345475 -0.656059 -0.5953615 0.29693294 0.19891572 0.047913726 -1.9244393 -0.93697494
-0.046209507 -0.01001681 -0.074859515 -0.009563804 -0.9557018 -0.079127654 -0.17656237 -0.3683053
0.4518889 0.97568315 2.9746373 0.61017615 0.36585927 -0.073573254 -1.0853072 -0.576815
0.38182774 0.7793587 3.3552706 0.92576694 0.18615258 -0.3114334 -0.49128255 -0.08530744
-0.14571972 -0.03357041 -0.09153004 0.040579535 0.2838955 -0.20778985 -0.5823559 0.018042253
-0.116643675 0.041681126 -0.032114908 0.08422963 0.35234538 -0.20027313 -0.7957795 -0.06211817
0.60596055 -0.38762417 -0.691622 -0.08631356 0.35242748 -0.076219454 -1.0716985 -0.5200831
0.19693772 -0.24186647 -0.6390173 -0.110482685 0.79037356 -0.6903619 -2.9840803 -0.6586965
-0.03865594 0.0061011594 -2.130839 -0.75886947 0.26894733 0.004014162 -1.092185 -0.47523233
0.4469671 -0.4921077 -0.4664464 0.359174 0.31973124 -0.08456352 -1.2877487 -0.7227665
0.29130864 -0.57291645 -0.42972997 0.25546727 0.21299887 0.0401275 -0.90397096 -0.4940044
0.15291701 -0.4354191 -0.5554062 0.3406317 -0.3806968 -0.1824918 -0.52321273 0.05434656
-0.110123776 -0.088033244 -1.8291728 -1.0445874 0.3628227 -0.13000368 -0.7776403 -0.051653743
0.16346584 1.0055411 3.1934059 0.7995151 -0.46941286 -0.49187246 -0.62900877 -0.14508222
0.5255187 -0.3344193 -0.446496 -0.0707041 0.4528913 -0.10569274 -1.1697735 -0.67013335
0.13523114 0.93373376 3.0094614 0.95814234 -0.0068813525 -1.0708939 -1.301749 0.40135106
0.114128724 -0.6116962 -0.48474902 0.39650497 -0.07565296 -0.7451293 -0.980198 0.31551415
0.37079543 0.57431656 2.99773 0.810646 0.14325742 -0.0072581903 -0.92036474 -0.669881
0.40627152 -0.5406338 -0.4464837 0.22664559 0.21376628 -0.32559025 -0.6266809 -0.10635379
0.34408364 -0.59475845 -0.29843217 0.2161497 0.23159508 -0.3457789 -0.51275694 0.17139457
0.22974835 -0.46513984 -0.76954556 -0.19608006 0.31750003 -0.2658302 -0.44856215 -0.1545562
0.32053638 -0.33402333 -0.34664848 0.2866277 0.32515493 0.08280782 -0.95526665 -0.69737875
-0.029018905 -0.15010507 0.06791541 -0.031200297 0.16617395 0.1077837 0.190354 -0.0010215689
0.27994233 -0.40613198 -0.7160443 -0.10576631 0.43389988 -0.1753605 -0.7190228 -0.041756116
0.4505118 -0.29915813 -0.45604113 -0.16023846 0.43104538 -0.21967107 -0.36500752 0.034593742
0.45720634 -0.6657287 -0.3907444 0.12866448 -0.12304775 0.21082066 0.036669392 0.029228035
00000000: 79cb df3e 49e2 47be 7938 acbe 88ff 543e
00000010: ea97 e83d a0c9 303e cbd1 04c0 ab32 69bf
00000020: 2242 513e b20c d9be 78c5 d4be 7e1f a83e
00000030: d610 543f d720 36bf cc12 44c0 aecd 2dbf
00000040: ab5a 0f3e 5b40 94be bbc8 23bf 99ec 4cbe
00000050: c153 8a3e 878f e0be f1a2 c1be 3643 913e
00000060: fc95 813e 724e d2be 7d83 08bf dd5c b4bd
00000070: 6112 46bb 9a1f 2f3e c525 5bbd 4c02 4e3e
00000080: 542d 4d3e dd42 0fbf 5e25 2fbf fe72 c03e
00000090: a502 bf3e b81a d0be fcf7 19bf 353e 6f3e
000000a0: 9e26 213e 6e6d 55be ecd2 09bf 5470 44be
000000b0: 7e9e e33d 1285 163e 353f c1bd d7d4 b5bc
000000c0: 247d a03e 7cf3 27bf 9c69 18bf 9807 983e
000000d0: 90b0 4b3e 2f41 443d 0754 f6bf 97dd 6fbf
000000e0: 2e46 3dbd 8c1d 24bc f24f 99bd 80b1 1cbc
000000f0: e0a8 74bf ae0d a2bd c4cc 34be 8392 bcbe
00000100: fb5d e73e 5fc6 793f 7560 3e40 8134 1c3f
00000110: e851 bb3e 93ad 96bd 59eb 8abf 26aa 13bf
00000120: ed7e c33e 0d84 473f c1bc 5640 10ff 6c3f
00000130: c89e 3e3e 3374 9fbe 6389 fbbe abb5 aebd
00000140: 8d37 15be 2081 09bd 1a74 bbbd ba36 263d
00000150: c05a 913e ddc6 54be 4715 15bf 59cd 933c
00000160: e1e2 eebd d4b9 2a3d ec8a 03bd 9680 ac3d
00000170: 9d66 b43e 6614 4dbe 35b8 4bbf 9f6f 7ebd
00000180: 3b20 1b3f ad76 c6be 240e 31bf 2ac5 b0bd
00000190: 6071 b43e f218 9cbd 6b2d 89bf 2b24 05bf
000001a0: 0baa 493e d8ab 77be a396 23bf bf44 e2bd
000001b0: ec55 4a3f 8fbb 30bf 2cfb 3ec0 55a0 28bf
000001c0: b155 1ebd 3cec c73b ab5f 08c0 4545 42bf
000001d0: 77b3 893e 3b89 833b b8cc 8bbf a751 f3be
000001e0: dfd8 e43e 8af5 fbbe 10d2 eebe a8e5 b73e
000001f0: d0b3 a33e a42f adbd f3d4 a4bf 3a07 39bf
00000200: 6826 953e a7aa 12bf 9105 dcbe 9bcc 823e
00000210: 601c 5a3e bc5c 243d a46a 67bf 25ee fcbe
00000220: 4796 1c3e 41ef debe 1a2f 0ebf 4767 ae3e
00000230: b1ea c2be 21df 3abe 45f1 05bf 809a 5e3d
00000240: 9388 e1bd c64a b4bd 5622 eabf 0ab5 85bf
00000250: e6c3 b93e af1f 05be 6f13 47bf e092 53bd
00000260: 9763 273e 92b5 803f c360 4c40 06ad 4c3f
00000270: e256 f0be b5d6 fbbe b806 21bf 6f90 14be
00000280: 6588 063f 0239 abbe 209b e4be 50cd 90bd
00000290: 5ee1 e73e 6f75 d8bd 23bb 95bf dc8d 2bbf
000002a0: 087a 0a3e 2d09 6f3f 049b 4040 d148 753f
000002b0: f87c e1bb 0d13 89bf b69f a6bf e37d cd3e
000002c0: 52bc e93d 1f98 1cbf 0631 f8be b302 cb3e
000002d0: f0ef 9abd cbc0 3ebf 42ee 7abf 128b a13e
000002e0: e6d8 bd3e 6906 133f cfda 3f40 7f86 4f3f
000002f0: 13b2 123e 1dd6 edbb 069d 6bbf 527d 2bbf
00000300: d202 d03e fa66 0abf 8399 e4be c815 683e
00000310: 8ce5 5a3e c4b3 a6be 296e 20bf 04d0 d9bd
00000320: bb2b b03e 1742 18bf 1acc 98be 5956 5d3e
00000330: 4327 6d3e ef09 b1be 0a44 03bf 0f82 2f3e
00000340: 2743 6b3e cf26 eebe f000 45bf 36c9 48be
00000350: 5d8f a23e e51a 88be f0a9 e5be fb43 1ebe
00000360: 581d a43e 1b05 abbe e97b b1be dec0 923e
00000370: b57a a63e 2597 a93d 5b8c 74bf 6a87 32bf
00000380: 0eb9 edbc 25b5 19be 3c17 8b3d c497 ffbc
00000390: 8129 2a3e b3bd dc3d 29ec 423e 2ae6 85ba
000003a0: 9a54 8f3e 88f0 cfbe ae4e 37bf 029c d8bd
000003b0: 2028 de3e b491 33be e111 38bf 7608 2bbd
000003c0: 7ca9 e63e 412b 99be 397e e9be 8d15 24be
000003d0: fbb1 dc3e 74f1 60be 44e2 babe 2bb2 0d3d
000003e0: f316 ea3e 326d 2abf a60f c8be 9fc0 033e
000003f0: 7500 fcbd 5fe1 573e a532 163d a26f ef3c

fc1.bias f4 [128]
0.64340895 -0.1697228 0.5381493 -0.6888623 0.8228903 0.50103015 0.89467734 -0.47490084
0.7587941 0.43387663 0.9171093 -0.50358915 0.65206856 -0.2129289 -0.2764501 0.026153697
0.02350904 0.56659657 -0.29994056 0.43404958 -0.4661153 0.40163487 -0.2558068 0.5339643
0.67396736 0.5076632 0.7640976 -0.6684091 -0.30718914 0.50766987 0.68254673 0.7133073
0.7103072 0.5247935 0.5481759 -0.04479633 -0.15217851 0.4972226 0.019997204 -0.12824294
0.5002272 0.6494913 -0.28460166 0.40486827 0.43483862 0.32144755 -0.26865402 0.6626955
0.54873586 0.7210986 0.56075674 0.6071231 0.79396784 0.8035189 0.46218428 0.7568463
-0.43502614 -0.33118546 0.5329656 0.4976422 0.55328166 0.702708 0.80110615 -0.43387717
-0.25295383 0.72944754 0.6701935 0.96726406 -0.484061 0.7719735 0.891965 -0.23416646
0.84461135 -0.65519696 -0.5704802 -0.287732 0.39545146 -0.46049803 0.5538912 0.41757852
0.549569 -0.2596359 -0.5915178 0.40847158 0.824532 -0.14592656 0.5174867 -0.49320602
0.34489864 0.49113816 0.67629325 -0.2791899 -0.3151713 0.43039137 -0.42165834 -0.08001921
0.27570435 -0.65903735 0.663907 0.7694544 0.869821 0.3688205 -0.17746505 0.54251987
-0.48389536 0.8731641 -0.30543494 0.75843865 0.38975996 0.8086667 -0.4535656 0.28217956
0.24465895 0.44492823 0.57983357 -0.12413614 0.0057324194 -0.12981051 0.012955236 0.64175665
0.5857733 0.42810965 0.30136022 0.2885018 0.44583744 0.26603466 -0.61125404 0.6563987
00000000: 73b6 243f d0cb 2dbe 27c4 093f 4859 30bf
00000010: f0a8 523f 8343 003f 9309 653f 3426 f3be
00000020: 5540 423f 1425 de3e adc7 6a3f 38eb 00bf
00000030: f7ed 263f 090a 5abe de8a 8dbe 4740 d63c
00000040: 0896 c03c 790c 113f cf91 99be bf3b de3e
00000050: aaa6 eebe 16a3 cd3e 1cf9 82be e2b1 083f
00000060: 2089 2c3f 37f6 013f e69b 433f dc1c 2bbf
00000070: e547 9dbe a7f6 013f 62bb 2e3f 4f9b 363f
00000080: b1d6 353f de58 063f 4155 0c3f 5b7c 37bd
00000090: afd4 1bbe f693 fe3e 2dd1 a33c 1e52 03be
000000a0: e40e 003f 1045 263f 4fb7 91be e54a cf3e
000000b0: 2ba3 de3e c694 a43e 058d 89be 6aa6 293f
000000c0: f479 0c3f eb99 383f c18d 0f3f 6b6c 1b3f
000000d0: 7a41 4b3f 6ab3 4d3f 6ba3 ec3e aec0 413f
000000e0: bfbb debe 2491 a9be 6f70 083f f5ca fe3e
000000f0: dea3 0d3f ace4 333f 4b15 4d3f 2625 debe
00000100: 2a83 81be 13bd 3a3f cd91 2b3f 9e9e 773f
00000110: d8d6 f7be 0ea0 453f d157 643f 55c9 6fbe
00000120: 7338 583f fdba 27bf fe0a 12bf 9c51 93be
00000130: 9d78 ca3e 66c6 ebbe d0cb 0d3f dacc d53e
00000140: 8eb0 0c3f ffee 84be b66d 17bf 3023 d13e
00000150: 8714 533f c66d 15be 027a 043f 8085 fcbe
00000160: 8e96 b03e 7676 fb3e 8e21 2d3f fbf1 8ebe
00000170: 225e a1be 425c dc3e 9ae3 d7be 1de1 a3bd
00000180: 1f29 8d3e acb6 28bf cff5 293f f7fa 443f
00000190: 97ac 5e3f 0ad6 bc3e 66b9 35be 95e2 0a3f
000001a0: 22c1 f7be af87 5f3f f861 9cbe 0929 423f
000001b0: 9e8e c73e c804 4f3f c039 e8be d779 903e
000001c0: e087 7a3e a2cd e33e f96f 143f 173b febd
000001d0: 05d7 bb3b 0ced 04be 3342 543c 2a4a 243f
000001e0: 3df5 153f 3031 db3e e34b 9a3e 82b6 933e
000001f0: ce44 e43e b235 883e 257b 1cbf bf09 283f

fc2.weight f4 [2, 128]
0.18658468 -1.363274 0.55224675 -2.6796348 0.40546703 0.56548005 0.605126 0.08733587
0.5268921 0.5215098 0.42623302 -0.020812305 0.5491492 -1.0718501 0.09297371 -0.7691794
-2.0760708 0.783267 -1.9225553 0.5559292 -0.10849585 0.60915846 0.100945875 0.55345595
0.36804116 0.65140676 0.23317358 -2.4189236 -0.9098559 0.6913288 0.62693316 0.55031747
0.4489504 0.82745034 0.6069062 -0.42005357 -1.3055207 0.50701463 -2.0823631 -1.4493965
0.72290623 0.74383456 -2.0582001 1.358278 0.19195285 0.99889946 -1.9334655 0.8347269
0.725206 0.51477754 0.85856396 0.6292345 0.5923041 0.47032198 0.7797725 0.5751657
-0.12757014 -0.022905989 0.740976 0.66653186 0.523927 0.547029 0.59871656 0.1322734
-1.0232527 0.4492035 0.6292107 0.29964682 -0.06696216 0.32147062 0.36887187 -1.3873547
0.4828425 -2.3691177 1.2987967 0.010635943 0.5808399 -0.18434824 0.57339334 0.5655793
0.30862293 -0.08727861 1.1711787 0.5265302 0.5282686 -1.143208 0.7532124 -0.000880276
0.31039897 0.5215289 0.45460042 -1.6049536 -0.0018123615 0.73124397 0.15058877 -1.0776391
0.86851746 -2.5724108 0.49388075 0.40074688 0.7407588 0.36539742 -2.0467973 0.5958699
0.052546296 0.47594258 0.06947691 0.5793604 0.4930401 0.56079483 0.09957844 -1.7641922
-1.8170435 0.4670775 0.65354186 -1.908767 -1.6352261 -1.1038692 -1.7255912 0.3539548
0.7918761 0.7658854 -1.669387 -1.7533183 0.37388018 0.33573502 -1.2159488 0.4858171
0.44511658 -1.2941809 0.3648686 -2.3861382 0.49273688 0.5253226 0.37111154 0.019181652
0.71582454 0.5951637 0.42524406 -0.025968103 0.8015959 -1.1820115 0.12648523 -0.76075155
-2.0649352 0.54806507 -2.178756 0.27582198 0.14768802 0.30641544 -0.17938006 0.692793
0.4023899 0.8227817 0.6117437 -2.363615 -1.2640835 0.7998704 0.4104988 0.85595685
0.57223886 0.5407981 0.7477636 -0.49563825 -1.2350854 0.5682733 -2.0664053 -1.2095072
0.53745884 0.7636014 -2.2296915 1.2055488 0.6204351 0.9363319 -1.8582517 0.43351343
0.5315805 0.5158429 0.76330477 0.6578589 0.7020476 0.30393624 0.58109707 0.5976409
0.02120983 0.066620864 0.5480912 0.6924044 0.5343915 0.25057676 0.5304928 0.053771414
-1.3018644 0.33587494 0.68253815 0.558523 -0.052099295 0.33856216 0.43834466 -1.3075117
0.3930952 -2.3551161 1.2487884 -0.02079323 0.4227343 0.1837706 0.6363851 0.4835294
0.66383797 0.16283502 1.0962551 0.41635522 0.37156448 -1.3095913 0.89874834 0.20270038
0.35579163 0.6555036 0.447965 -1.8053609 0.14936629 0.67005664 0.15248282 -0.7840457
0.8498355 -2.6169481 0.8119112 0.7722656 0.5424483 0.33140177 -1.9846741 0.55207485
-0.12514317 0.28568473 0.045005918 0.44713584 0.4597229 0.45523828 -0.08578885 -1.797291
-1.8375747 0.5346429 0.7700095 -1.5925745 -1.736095 -1.2355722 -1.8317333 0.44701236
0.3897255 0.670864 -1.5089833 -1.6664344 0.4679385 0.49014547 -1.4464643 0.5204923
00000000: 0e10 3f3e c37f aebf 0b60 0d3f 237f 2bc0
00000010: 6099 cf3e 4dc3 103f 8ae9 1a3f 26dd b23d
00000020: 67e2 063f ab81 053f 373b da3e 917e aabc
00000030: 0b95 0c3f 6232 89bf 0069 be3d f1e8 44bf
00000040: 58de 04c0 3084 483f 4b16 f6bf 6051 0e3f
00000050: 1233 debd cff1 1b3f b6bc ce3d 4aaf 0d3f
00000060: e46f bc3e 98c2 263f 0ec5 6e3e a5cf 1ac0
00000070: 51ec 68bf edfa 303f b17e 203f 9be1 0c3f
00000080: d4dc e53e c9d3 533f 345e 1b3f 4311 d7be
00000090: 4d1b a7bf b6cb 013f 7045 05c0 d385 b9bf
000000a0: 6210 393f f16b 3e3f 8db9 03c0 0edc ad3f
000000b0: 4a8f 443e e0b7 7f3f cc7b f7bf aab0 553f
000000c0: 1aa7 393f 76c8 033f d9ca 5b3f 8315 213f
000000d0: 3ea1 173f 0bce f03e 2c9f 473f 0f3e 133f
000000e0: bfa1 02be 57a5 bbbc 9ab0 3d3f d5a1 2a3f
000000f0: 1420 063f 180a 0c3f 7d45 193f ae72 073e
00000100: f2f9 82bf 00fe e53e f413 213f 4f6b 993e
00000110: 7523 89bd cc97 a43e c6dc bc3e d794 b1bf
00000120: 2237 f73e a09f 17c0 f83e a63f 6142 2e3c
00000130: ecb1 143f c9c5 3cbe e8c9 123f cec9 103f
00000140: d303 9e3e 21bf b2bd 2fe9 953f afca 063f
00000150: 9c3c 073f a454 92bf 87d2 403f 53c2 66ba
00000160: 9dec 9e3e eb82 053f 63c1 e83e 1f6f cdbf
00000170: c38c edba ce32 3b3f f133 1a3e 14f0 89bf
00000180: 2957 5e3f 61a2 24c0 f0dd fc3e b22e cd3e
00000190: 5ea2 3d3f 5f15 bb3e bafe 02c0 ee8a 183f
000001a0: c93a 573d bfae f33e e949 8e3d f750 143f
000001b0: c16f fc3e 4090 0f3f c8ef cb3d 0dd1 e1bf
000001c0: e294 e8bf c824 ef3e 854e 273f 7a52 f4bf
000001d0: 174f d1bf 964b 8dbf 2ce0 dcbf 9039 b53e
000001e0: 64b8 4a3f 1111 443f 79ae d5bf bc6c e0bf
000001f0: 396d bf3e 76e5 ab3e 36a4 9bbf 05bd f83e
00000200: 52e6 e33e b8a7 a5bf 0fd0 ba3e 7db6 18c0
00000210: 0248 fc3e 8b7b 063f 5502 be3e d722 9d3c
00000220: 4740 373f a65c 183f 97b9 d93e 0fbb d4bc
00000230: 6435 4d3f 274c 97bf 5885 013e 9dc0 42bf
00000240: e627 04c0 fe4d 0c3f bd70 0bc0 8a38 8d3e
00000250: 873b 173e 7ce2 9c3e 68af 37be e25a 313f
00000260: 0d06 ce3e d2a1 523f 3c9b 1c3f 7845 17c0
00000270: 7dcd a1bf 4ec4 4c3f e62c d23e fd1f 5b3f
00000280: 3f7e 123f bf71 0a3f 6f6d 3f3f 4cc4 fdbe
00000290: 4717 9ebf 5c7a 113f fc3f 04c0 22d1 9abf
000002a0: e796 093f 627b 433f 44b3 0ec0 6c4f 9a3f
000002b0: d6d4 1e3f 73b3 6f3f 31db edbf 79f5 dd3e
000002c0: a915 083f 480e 043f f167 433f 7169 283f
000002d0: 64b9 333f 889d 9b3e c7c2 143f fefe 183f
000002e0: 3dc0 ad3c 8570 883d b44f 0c3f 6a41 313f
000002f0: e2cd 083f 994b 803e 60ce 073f 6a3f 5c3d
00000300: 7ea3 a6bf cdf7 ab3e d2ba 2e3f 5dfb 0e3f
00000310: 1266 55bd 0558 ad3e b66e e03e 8b5c a7bf
00000320: c643 c93e 39ba 16c0 4cd8 9f3f 9056 aabc
00000330: a170 d83e 5c2e 3c3e 22ea 223f 2a91 f73e
00000340: 49f1 293f 39be 263e 1652 8c3f 832c d53e
00000350: b33d be3e b0a0 a7bf 5f14 663f b090 4f3e
00000360: 522a b63e 15cf 273f ab5b e53e 1116 e7bf
00000370: 7af3 183e d588 2b3f 7524 1c3e 38b7 48bf
00000380: d28e 593f 147c 27c0 6ad9 4f3f 33b3 453f
00000390: e4dd 0a3f 7ead a93e cd09 febf c754 0d3f
000003a0: 8825 00be 4545 923e 2058 383d fdee e43e
000003b0: cd60 eb3e fe14 e93e 11b2 afbd a20d e6bf
000003c0: a635 ebbf 5bde 083f 581f 453f 7bd9 cbbf
000003d0: 5c38 debf 3b27 9ebf 3d76 eabf cede e43e
000003e0: 1a8a c73e bebd 2b3f 5d26 c1bf b94d d5bf
000003f0: a395 ef3e 59f4 fa3e be25 b9bf fc3e 053f

fc2.bias f4 [2]
0.27942994 0.30304354
00000000: 7111 8f3e 8628 9b3e
