saved_models/train_20240501_121233/best_target_net.pth (torch, 5712 bytes, 4 tensors)

fc1.weight f4 [128, 4]
000000 e0 fd 82 bd 34 ce 11 be 35 70 57 be e7 25 ed bd
       -0.06396079 -0.14238816 -0.21038897 -0.11579495
000010 b1 13 fe bd 01 22 9a 3d 45 84 ce 3b 63 cd 21 3e
       -0.124060996 0.07526017 0.006302389 0.15801005
000020 3f a0 b5 3e 83 95 01 be 0a a9 8e be ef c0 e0 bc
       0.3547382 -0.1265469 -0.27863342 -0.027435748
000030 2c a6 95 3e 7c 20 dd 3d 7a c9 49 be 11 68 86 be
       0.29228342 0.107972115 -0.19705763 -0.2625127
000040 cc bb 3f bf 2f f0 60 bf f9 4d 3d bf 7c a3 05 3f
       -0.7489593 -0.8786649 -0.739471 0.5220258
000050 b6 7a 88 3e 6a 43 a1 be 9f 99 c0 bd f4 ce 8c 3e
       0.2665612 -0.31496745 -0.09404301 0.27501643
000060 3e b9 a5 3d 9e f6 42 bf 15 5e e5 bf 62 c1 e2 be
       0.08091973 -0.7615756 -1.7919337 -0.44288164
000070 0f 26 25 bf 91 d1 a4 3e 6e 0a 30 40 c7 c6 61 3f
       -0.645112 0.32191136 2.7506366 0.88193935
000080 c5 b8 ac 3e 11 83 be 3d a4 ef 85 be 82 6b 47 3d
       0.33734718 0.09302343 -0.26159394 0.04868651
000090 83 51 22 3d c5 71 77 bc c2 f1 65 3d ce d6 23 be
       0.039628517 -0.015102808 0.05613876 -0.1599991
0000a0 6a 58 21 bf ba 50 01 3f 35 91 20 40 91 55 61 3f
       -0.63025534 0.50513804 2.5088627 0.8802119
0000b0 a2 fe f7 3e c4 7c b0 be ab e7 2b c0 11 25 6f bf
       0.48436457 -0.3447019 -2.686015 -0.93415934
0000c0 d1 48 c2 3e d5 72 cb bd a6 fc f6 be bd 4d d0 3d
       0.3794618 -0.09934012 -0.4823963 0.101710774
0000d0 bf 56 8c 3d 46 5e 41 3e 93 69 c2 3b 46 fd d9 3d
       0.06852483 0.18883619 0.0059329956 0.10644011
0000e0 aa a6 b9 3e 93 7a c1 be 8a 59 1b c0 5d ff 53 bf
       0.36259967 -0.3778883 -2.42734 -0.8281153
0000f0 db 7b 73 3e da 39 27 be d5 28 c5 be 76 1b 4e 3e
       0.23777716 -0.16330662 -0.38507715 0.20127663
000100 32 31 1b 3f 5c ff 83 3e c8 02 02 3f 8e 69 a5 3e
       0.6062194 0.2578076 0.50785494 0.32307094
000110 ad bb ef 3e 24 f5 1d 3e fc c3 f1 be 46 a2 e6 be
       0.46822873 0.15425545 -0.47219837 -0.4504568
000120 0e 8e 60 3d 61 1e 51 3c dd b6 23 be ac 58 7c bc
       0.054822974 0.012763591 -0.15987726 -0.015402
000130 7f fe 5f 3e 5f 2f 4e bf ef a8 da bf 72 f7 8e be
       0.21874426 -0.8054103 -1.7082804 -0.2792316
000140 7d be 6b 3d 1e 12 ca bd c2 d3 ab 3d 1e ea b9 bd
       0.05755471 -0.09866737 0.08389999 -0.090778574
000150 07 bc 53 bf c8 35 17 bf ec 1e 87 bd e3 26 ea 3e
       -0.8270878 -0.5906644 -0.06597695 0.45732793
000160 9b d6 ed 3e a4 fc ba 3e ba 85 9b be 2a 58 a7 be
       0.46452793 0.36520875 -0.30375463 -0.3268445
000170 f1 26 48 3e 72 89 bf bc a7 63 b7 3c 83 09 2a bd
       0.19546105 -0.023380969 0.022386385 -0.041512977
000180 7b bb 39 3e 49 c2 18 bf 10 da 1b c0 39 2a 53 bf
       0.18137924 -0.59671456 -2.4351845 -0.824863
000190 fb 39 bf 3e 4d f1 68 3d 61 ca 2d bd 2d a7 30 3b
       0.37348923 0.056870747 -0.04242933 0.0026955113
0001a0 08 d0 d8 3e 44 59 d1 be 09 d0 34 c0 ae b9 66 bf
       0.42346215 -0.40888417 -2.8251975 -0.90127075
0001b0 f9 49 d3 3e a7 77 10 bf 19 7c 21 c0 e5 fb 46 bf
       0.41267374 -0.56432575 -2.5231993 -0.7772811
0001c0 c6 6b b0 bd d6 7f 42 3e b5 09 da 3d 95 4c 42 bb
       -0.08614306 0.18994078 0.10646383 -0.0029647697
0001d0 dc e6 8f 3c de 95 3c bd a9 7c ac be 57 36 81 3d
       0.017566137 -0.046041362 -0.33688858 0.06309193
0001e0 56 90 c7 3e 1f e1 b3 3d b9 40 bb bd c1 9f 48 3e
       0.38977307 0.08783173 -0.09143204 0.19592191
0001f0 c5 90 5c 3e 67 70 36 3e 47 95 8b be b4 71 38 bb
       0.215396 0.17816316 -0.27262327 -0.0028143944
000200 e4 a8 a3 3e 69 1e 81 3d c4 e4 c3 be 89 07 c7 3d
       0.3196479 0.063046284 -0.38260472 0.09718234
000210 52 6b 5c 3e 5d da 08 3e 73 7d df be 49 15 15 bd
       0.21525314 0.13364549 -0.43650398 -0.036397252
000220 5f 6a db 3e e0 59 3a 3d 88 32 8d be d5 7b 16 3e
       0.42854592 0.045495868 -0.27577615 0.14695676
000230 05 43 9e 3e b5 20 11 3d e5 b4 ca be 4f a0 39 3e
       0.30910507 0.035431582 -0.39591137 0.18127559
000240 b5 4c 0f 3f 5a 07 93 be f8 c1 23 c0 b8 7f 4f bf
       0.5597642 -0.28716546 -2.558714 -0.8105426
000250 35 e6 82 3d 45 60 f3 bc 94 fb 20 be 86 2e a0 3d
       0.06391565 -0.02970899 -0.1572097 0.07821374
000260 f1 7a 34 be e2 ac f9 bc b1 7b 38 be 87 66 a4 bd
       -0.17625023 -0.030477945 -0.18015935 -0.08027368
000270 d4 cc 38 bf ff cd d7 3e cc f6 2c 40 a5 15 53 3f
       -0.7218754 0.4214935 2.7025633 0.824549
000280 a3 68 33 3e 11 ec a6 3d fb 94 90 be 99 9f 0b 3c
       0.17520384 0.08150495 -0.28238663 0.008521938
000290 d8 29 0a 3d c4 2f 9e be 06 fb 81 be 19 50 46 3e
       0.03373131 -0.30895817 -0.25386828 0.19366492
0002a0 70 b4 b1 3e 5d 62 52 3e d2 78 e5 be bb 32 a0 be
       0.34707975 0.20545335 -0.4481874 -0.31288704
0002b0 c0 21 2f 3e ab 5d d5 be 24 ae 1d c0 a2 1e 52 bf
       0.17102718 -0.41673025 -2.4637537 -0.8207799
0002c0 9b 56 05 3e 32 75 2a 3e be e1 8f be f4 18 0b 3e
       0.13021319 0.16646269 -0.28101915 0.13583738
0002d0 4c 31 83 3e ab 12 42 be f8 ae b0 be 9e 03 83 3d
       0.25623548 -0.18952434 -0.3450849 0.06397174
0002e0 58 e1 82 3e 02 0c 83 be a2 3d 4a be 3f d9 9e 3b
       0.2556255 -0.255951 -0.19750074 0.004847675
0002f0 4d 3a a4 3e 1e 07 85 3e bc 01 d2 bd 12 2d 93 be
       0.3207573 0.25981992 -0.10254237 -0.28745323
000300 e1 50 1a bf f0 ad 06 3f c5 eb 0e 40 6b e3 06 3f
       -0.6027966 0.5260916 2.2331402 0.5269076
000310 82 af 57 3e 75 d3 89 3d b7 54 27 be 7f cd 2d 3e
       0.21063045 0.06729785 -0.1634091 0.16972922
000320 81 82 33 3f 7c ae 1f bd a6 af 27 bf 7b 5c a6 be
       0.7012101 -0.03898476 -0.65502393 -0.32492432
000330 cc f3 23 3e 9e 83 a6 3c 73 99 02 be a8 42 a3 3c
       0.1601097 0.020326432 -0.12753849 0.019929245
000340 4b 98 af 3e 1d ac f5 be ca 46 20 c0 57 64 58 bf
       0.34295878 -0.47982875 -2.5043206 -0.84528106
000350 86 28 b5 3e 82 95 6a 3e 18 a3 a6 be 46 47 6f be
       0.3538248 0.22908595 -0.32546306 -0.23367032
000360 9d 6f e7 3e c1 e2 6d 3d 1b e2 13 be 97 a8 98 be
       0.45202342 0.058077578 -0.14441721 -0.29816124
000370 c8 56 d4 3e ba ac c1 3d 4d c0 fe bd 90 80 68 be
       0.4147246 0.09456773 -0.12439022 -0.22705293
000380 54 8a 22 3d 80 0c 15 bd 22 5e 78 be e9 33 1c 3e
       0.0396827 -0.036388874 -0.24254659 0.15254177
000390 08 82 87 3d 76 28 25 be de bb 2f be 72 7f 16 be
       0.06616598 -0.16128716 -0.1716151 -0.14697054
0003a0 d9 ae b2 3e 13 53 06 bd 5c 58 c9 bd aa 6a 9f 3d
       0.34899023 -0.03279407 -0.09831306 0.077840164
0003b0 2e 1a 98 3e 80 19 91 bd 9d 0d 8d be 9b 7f 7f bd
       0.29707474 -0.07084942 -0.2754945 -0.062377553
0003c0 34 3f 1a 3d f4 8c cf be 52 22 5b be a5 d9 d1 3e
       0.03765793 -0.40537226 -0.21399811 0.40986362
0003d0 f0 0b d7 3e 43 b5 cc 3d 25 0b f2 bc 1a 07 98 3d
       0.42001295 0.099955104 -0.02954633 0.074232295
0003e0 3f 56 7d 3d 5a 2b 25 bc e3 9d 00 be ba e8 67 b9
       0.06184983 -0.010081137 -0.12560229 -0.00022116574
0003f0 ce 48 4d 3d 7e fe 3b be fe 97 24 3e 88 14 4c be
       0.05011826 -0.183588 0.16073605 -0.19929707

fc1.bias f4 [128]
000000 0c e8 c7 be ee c5 ba be 06 05 03 3f 42 fb 17 3f
       -0.39044225 -0.36479133 0.5117954 0.59367764
000010 fb 83 26 bd 8a 71 f5 3e a4 75 8d 3e 63 12 d4 bd
       -0.04065321 0.47938186 0.27628815 -0.103550695
000020 ec f9 3b 3f b6 95 ec be 61 8e 02 be 20 03 ab bc
       0.73428226 -0.4620797 -0.12749626 -0.020875514
000030 5b 56 01 3f d6 ec ec be fd 03 29 3d 39 30 3f 3f
       0.50522393 -0.4627444 0.04126357 0.74682957
000040 c9 94 58 be 08 ab 8f 3e 76 31 82 be 8d e7 84 3d
       -0.21150507 0.28060174 -0.2542836 0.06489477
000050 be 8d ce be fa 73 0a be 04 a1 93 3e d2 94 df be
       -0.40342516 -0.13520804 0.28833783 -0.43668228
000060 e4 e2 70 3d 4b 61 3d 3f 00 b6 35 bd dc 17 b6 3c
       0.05881013 0.7397658 -0.04436302 0.022228174
000070 9a e0 df be 64 13 ff 3e 24 88 1e be 21 d1 2a 3f
       -0.43726045 0.4981948 -0.15481621 0.66725355
000080 bf 23 fe 3e 2a 45 45 3f e7 5e 12 3f 55 55 bb 3e
       0.49636647 0.7705866 0.5717606 0.3658854
000090 28 84 3d be ae f1 a1 be cc c6 bf be eb 4a e1 bd
       -0.18507445 -0.316297 -0.37456357 -0.110006176
0000a0 05 51 b2 3e 48 62 bc 3e 22 04 0e 3f e9 7b 01 3b
       0.34827438 0.36793733 0.55475056 0.0019757694
0000b0 a1 3e 55 3f 01 6a a7 3e d1 5e 05 3f 5b 0e cb 3e
       0.8329869 0.32698062 0.52097803 0.3965939
0000c0 d0 c6 f7 be 2e 8a 4d 3f 8e 0a b9 be eb b0 da 3e
       -0.4839387 0.8028897 -0.36140865 0.42713103
0000d0 fb 73 1a be d5 d0 e2 3d bf 8e 11 3f 90 09 f2 3e
       -0.15083306 0.11074988 0.5685844 0.4727292
0000e0 6f a6 e5 3e bb 06 f4 3e ac e7 d7 3e a5 4d f7 3e
       0.4485354 0.47661385 0.4216894 0.48301426
0000f0 be 52 3e 3f ae 74 3a 3f 08 4c 99 be 64 a6 e0 be
       0.74345005 0.7283429 -0.2994082 -0.43876946
000100 7a df 4d 3f d4 05 ea be 3c a7 98 3e 76 f2 db 3e
       0.80419123 -0.45707572 0.2981509 0.4295842
000110 48 05 34 3f fc f7 f5 3e a9 a8 63 be 2b fd 5b 3e
       0.7032056 0.4804076 -0.22232307 0.21483295
000120 30 05 96 3e 46 da 1f 3f 5f 39 b1 3e e7 5d 51 3f
       0.29300833 0.62442434 0.34614083 0.8178391
000130 1f 2b 3f 3f 21 93 e8 3e 27 37 11 bd 8d 2f e4 be
       0.7467517 0.4542475 -0.035452988 -0.44567528
000140 9a 29 a9 3e 78 6c d3 be 49 34 18 3f 66 b5 cc be
       0.33039552 -0.41293693 0.5945478 -0.39982146
000150 1e 88 a5 3e 0d 2a 9a 3e 55 2b e5 be 93 f5 0f 3f
       0.32330412 0.30110207 -0.44759622 0.5623409
000160 e0 2e 2c 3f fb 72 1c 3f 91 fe 52 3f 74 93 6f be
       0.67259026 0.61112946 0.8241969 -0.23396093
000170 10 b2 fa bd ba 91 f6 3e 84 03 c7 3e 99 17 3f 3f
       -0.12240994 0.48158056 0.3886987 0.7464538
000180 b3 69 fc 3d aa 0f e8 3e 16 82 1a 3f 84 cd ea bd
       0.12324848 0.4532445 0.60354745 -0.1146498
000190 ef 30 ea 3e 29 2f 12 be b0 1e 52 3f 2b 39 d7 3d
       0.45740458 -0.14275803 0.82078075 0.10508951
0001a0 a6 4a 14 3f 08 0e 47 3f f2 1e 26 3f af 31 52 be
       0.57926404 0.77755785 0.6489097 -0.20526765
0001b0 a6 37 8a bc 8f 14 a6 be 23 e5 8f 3e 49 93 21 3f
       -0.016872238 -0.3243756 0.28104505 0.63115364
0001c0 26 91 b4 be cc f2 99 3e 7d 53 89 3e ba 83 61 3f
       -0.3526699 0.30068052 0.2682151 0.88091624
0001d0 f9 fa cf 3e 65 69 50 3f a6 e8 b3 be ac 2c d2 3e
       0.40621164 0.8141082 -0.35138434 0.41049707
0001e0 cc 9d 0c 3f c2 df 2e 3f fb e9 ef bc a1 ec d9 be
       0.5492828 0.6831018 -0.029286375 -0.42563346
0001f0 f5 30 33 bd bc 8c 00 be 1a 0e 24 be 32 66 bd 3e
       -0.04374786 -0.12553686 -0.16021004 0.3699203

fc2.weight f4 [2, 128]
000000 e7 b1 56 be 74 9e ff 3d d2 6e 0d 3f 18 ad f9 3d
       -0.20966302 0.124813944 0.55247223 0.12191218
000010 12 5c 85 3f 8d 7a 77 3e fa 55 cf bf b6 b3 95 bf
       1.0418723 0.24167843 -1.6198113 -1.1695468
000020 7b fb 8f 3e a3 8b 5b be d3 0d a2 bf e9 ae 8e bf
       0.28121552 -0.21439986 -1.2660469 -1.1147128
000030 55 54 8d 3e 53 73 f7 3c 52 a1 5b bf ed c0 b1 3e
       0.27603403 0.030206358 -0.8579303 0.34717503
000040 47 11 3f bf 0d 30 c0 3e 1e 12 27 be 40 f0 b6 bf
       -0.7463574 0.3753666 -0.16315505 -1.4292068
000050 8a 61 34 3d ee 29 63 3f 31 f2 99 3e 1a dc 73 bd
       0.044038333 0.88735855 0.3006759 -0.059536077
000060 45 ec b0 bf ff 07 db 3e a2 dd c2 bf 4a 7f bf bf
       -1.3822104 0.42779538 -1.5223887 -1.496072
000070 5a 55 18 be ac 0a a9 3e 70 15 52 be 02 36 c8 3e
       -0.14876309 0.33015954 -0.2051599 0.39103705
000080 8d 09 db 3d c5 f4 1d 3e 95 a9 b9 3e fb 25 5d 3e
       0.10695181 0.15425403 0.36262193 0.2159652
000090 fc 42 80 bf e6 35 e3 3c 4e bb 4c 3e 8c 87 a5 bf
       -1.0020442 0.027735662 0.19993326 -1.2931991
0000a0 83 e2 1f 3e 91 56 a5 3e 82 ea 0e 3f d1 50 91 bf
       0.15613751 0.32292607 0.5582658 -1.1352788
0000b0 9a 22 29 3e ca bc ed 3d 45 7a d6 3e 8a 69 98 3e
       0.16517106 0.11608274 0.4189016 0.2976802
0000c0 92 bf a0 bf a9 42 e8 3e ca 16 88 3f d8 e9 2e 3e
       -1.2558463 0.45363358 1.0631955 0.17081392
0000d0 2f 39 d5 bf 7a 8f 85 3e 99 27 5e 3e 84 3c a3 3e
       -1.6658076 0.26086026 0.21694793 0.31882107
0000e0 20 36 21 3e d8 12 98 3e 7d 61 a9 3d e4 8d ec 3e
       0.15743303 0.29701877 0.082705475 0.46202004
0000f0 16 bc c7 3e 5d 5e e5 3e 70 e4 32 be 03 2c 3a 3e
       0.39010686 0.44798556 -0.17469954 0.18180852
000100 33 2a cb 3e 32 a5 06 3e 0c 34 69 3e 32 b3 92 3e
       0.39680633 0.13148955 0.2277376 0.2865234
000110 d0 94 97 3e a0 8d 01 3f 56 25 4e 3e 4b 2c ee 3e
       0.29605722 0.5060673 0.2013143 0.46518168
000120 e3 56 b2 3e a6 c0 f5 3e ac 43 19 3e 76 73 ba 3e
       0.34831914 0.47998542 0.14967221 0.36416215
000130 1e 89 e9 3e 7c 84 b0 3e 13 c5 9d bf b8 b4 91 3e
       0.45612425 0.34476078 -1.2325767 0.2845819
000140 08 ad 20 3f d0 18 9d 3d 8b 89 a6 3e 22 6c f2 3d
       0.62764025 0.07670748 0.32526812 0.11837031
000150 65 f6 a7 3e c1 29 f5 3e c7 c5 91 bf 46 18 14 3f
       0.32805172 0.47883418 -1.1388482 0.5784954
000160 eb e7 30 3e d2 da 93 3e 03 58 f6 3d 44 8d 84 bd
       0.1727597 0.28877884 0.12028506 -0.06472257
000170 f7 f8 10 be 61 36 9f 3e 61 11 05 3f 09 7a 9b 3e
       -0.14157473 0.31096175 0.51979643 0.30366543
000180 22 bc 31 3f e1 f4 dd 3e 5a ec db 3e 43 95 ac bf
       0.6942769 0.4335089 0.4295376 -1.3483051
000190 74 52 8c 3e a3 92 7d bf cf 48 cf 3e 93 d3 9a bf
       0.27406657 -0.99051875 0.40485236 -1.2095817
0001a0 97 b2 e1 3e d4 aa f5 3e eb b7 41 3e 68 59 56 bc
       0.44081566 0.47981894 0.18917815 -0.01308284
0001b0 e8 7d 8e bf 47 47 a3 bf d0 8c d5 3e c0 77 e3 3e
       -1.1132174 -1.2756127 0.41708994 0.444273
0001c0 04 4f 1f be 35 bc 05 3f f1 34 1d 3f 96 d0 c9 3e
       -0.15557486 0.52240306 0.6140891 0.3941695
0001d0 9e 5d 8e 3d 09 da e4 3d 9b ba 29 be a9 a7 19 3e
       0.0695145 0.111743994 -0.1657509 0.15005364
0001e0 bb 1f e1 3e b8 9f f5 3e d8 24 a7 bf 04 96 cb bd
       0.4396952 0.47973418 -1.3058119 -0.099407226
0001f0 f3 60 0f 3f 1d 18 b6 bf 52 fb 9b bf 20 19 22 3f
       0.5600731 -1.4226109 -1.2186072 0.6331959
000200 2b 46 aa bd ac c5 25 bd 91 99 02 3e 37 d0 e0 3e
       -0.08314165 -0.040471718 0.12753893 0.43908855
000210 38 a4 85 3f 1c 2f fd 3e 96 03 c9 bf 37 66 b6 bf
       1.044074 0.49450004 -1.5704219 -1.4249943
000220 c8 89 f7 3e cc 9a f5 bd 5a 6a ae bf a2 58 62 bf
       0.48347306 -0.11992416 -1.3626206 -0.8841649
000230 86 15 25 3e e2 42 d1 3d 5f 0b 7e bf c6 5b 18 3e
       0.16121492 0.10217835 -0.992361 0.14878759
000240 50 f0 2d bf 85 63 0f 3f c1 76 5a be 94 5a c2 bf
       -0.6794481 0.5601123 -0.21334364 -1.5183892
000250 f4 c0 50 3e 0e d9 80 3f 3a 6a e2 3d e1 ee dc bd
       0.20386106 1.006624 0.11055417 -0.1078775
000260 d1 23 98 bf c8 26 ce 3e bc a1 b9 bf 62 ee be bf
       -1.188593 0.40263963 -1.4502482 -1.4916499
000270 5f 23 f2 3c 34 2c 60 3d 17 51 23 be 1d 32 7b 3e
       0.029557882 0.054729655 -0.15948902 0.24530835
000280 14 b5 9e 3e 25 95 c2 3e a4 69 03 3f 50 72 01 3f
       0.30997527 0.38004413 0.5133307 0.5056505
000290 5d c3 9c bf ca d1 bb bd 7a 44 f0 3d f1 65 a5 bf
       -1.224712 -0.091708735 0.11731811 -1.2921735
0002a0 3e 43 af 3e b1 ed dd 3e 15 23 ba 3e 3f c8 87 bf
       0.3423099 0.43345407 0.3635489 -1.0607985
0002b0 ad 09 f5 3e 62 6e 16 3e 8d 5c 32 3e dd ae b8 3e
       0.47858945 0.14690545 0.17418118 0.3607091
0002c0 6e 7a b5 bf 09 ce 75 3e 37 9c 72 3f 36 24 ef 3e
       -1.4177988 0.24004377 0.94769615 0.46707314
0002d0 53 07 af bf 70 d8 31 3e de 68 e8 3e f9 ee c6 3e
       -1.367411 0.1736772 0.45392507 0.38854197
0002e0 4d 40 fa 3e f9 f3 c5 3e 60 78 41 3e d0 6f 00 3f
       0.48877183 0.386627 0.18893576 0.5017061
0002f0 50 74 30 3e a0 ab af 3e 4c a0 7f ba 4f 5c 9c bd
       0.1723187 0.34310627 -0.0009751364 -0.07634794
000300 cf f9 a8 3e a5 97 4a be 2a 2e 4d 3e b5 51 67 3e
       0.3300309 -0.1978441 0.20037141 0.22589763
000310 af 32 8f 3e d8 eb cb 3e d3 9a 1f 3e 27 8f e1 3e
       0.27968356 0.39828372 0.15586405 0.4405453
000320 65 36 2e 3f 6d 32 ff 3e 7c 05 a5 3e dc 23 a3 3e
       0.6805175 0.4984316 0.32230747 0.31863296
000330 ef bc 0c 3e ed d1 d4 3e ec 19 b7 bf 1f 8a 86 3e
       0.13743947 0.4156641 -1.4304786 0.26277253
000340 21 36 18 3f 98 e4 cf 3d 29 e1 8f 3e 2c 31 0c 3c
       0.59457594 0.10151023 0.2810147 0.008556645
000350 a5 a2 b3 3d fa 93 0f 3f 3b db 6c bf b9 f6 cb 3e
       0.08771256 0.5608517 -0.9252202 0.39836672
000360 9a 9b ce 3e 42 b4 d9 3e fe 41 e8 3e 86 ef b6 3d
       0.4035309 0.42520338 0.45362848 0.08932404
000370 74 5d 4a 3d 6b 58 d0 3d 62 fe 0f 3e 6d b8 cb 3e
       0.04940553 0.101731144 0.14061883 0.39789143
000380 c6 4b 0c 3f 20 1f 78 3e 72 98 01 3f f2 8d ac bf
       0.5480312 0.24230623 0.5062324 -1.3480818
000390 6a db b3 3d 69 26 aa bf 3e 1d ce 3e 40 05 9a bf
       0.08782084 -1.3292972 0.40256685 -1.2032852
0003a0 17 58 ee 3e 78 0e e2 3e b0 02 8c 3e 23 c2 5f 3e
       0.46551582 0.44151664 0.273458 0.21851401
0003b0 68 8f a3 bf ea 50 96 bf 8a ed 07 3f 9b f8 f6 3d
       -1.2778139 -1.1743443 0.5309683 0.120591365
0003c0 a7 c1 1d be c5 c6 c2 3e 97 3e 22 3f 33 26 4b 3e
       -0.15405904 0.38042274 0.63376755 0.1983879
0003d0 07 27 97 3d 2b 72 dc 3e f1 65 cc 3b 04 ee 10 3e
       0.07380491 0.43055853 0.0062377383 0.14153296
0003e0 43 76 9c 3e bc c2 b0 3e 5c 79 84 bf f4 0b e1 3d
       0.30558977 0.3452357 -1.0349536 0.10988608
0003f0 73 e5 1a 3f a2 4b c3 bf b3 a9 83 bf 9c bc ea 3e
       0.6050636 -1.5257456 -1.0286163 0.45847023

fc2.bias f4 [2]
000000 38 3d 9e 3e 20 83 9b 3e
       0.3090608 0.30373478
