saved_models/train_20240508_172809/best_target_net.pth (torch, 4688 bytes, 3 tensors)

fc1.weight f4 [128, 3]
000000 5e b1 6c bd 98 92 33 3e 5b eb 34 be a8 ee 58 be
       -0.057786338 0.1753639 -0.17667906 -0.2118479
000010 8f 07 33 be 41 44 50 3e 67 ed 7d bd fb e5 d9 bd
       -0.17483352 0.20338537 -0.061993983 -0.106395684
000020 a9 77 f6 bd 47 91 b2 3d 3a 51 a4 3d 1b 6a 54 be
       -0.12034542 0.08719116 0.08023305 -0.20743601
000030 89 33 38 3e e8 6a 4b bb cf bb 9b 3d e6 79 00 be
       0.17988409 -0.0031039063 0.07604181 -0.125465
000040 0d 5a 10 3e d9 59 d4 3b 7e 77 19 3e 26 79 14 3e
       0.14096852 0.0064804372 0.14986989 0.1449934
000050 53 ff c7 bc a0 e2 b8 3d 0a 14 f4 bd 33 c8 ad bd
       -0.02441374 0.090276 -0.11917885 -0.084854506
000060 a8 a5 fd 3b 7a d6 05 be 7f 8b f7 bd 62 e8 2a 3e
       0.007740695 -0.13070098 -0.12087154 0.1669021
000070 88 75 10 be 7e 25 48 be e6 07 43 bd d6 3a 34 be
       -0.14107335 -0.19545552 -0.047614954 -0.17600569
000080 1c aa 87 3d 50 3d 21 3c 90 08 d3 3b a0 e2 9b 3d
       0.06624243 0.009841278 0.0064402297 0.07611585
000090 93 d2 1c 3d d1 ce f6 bc 05 b4 41 3d fa 4a ed 3d
       0.038286757 -0.030127915 0.04729082 0.11586566
0000a0 b4 21 81 bd f3 9f f0 bd 91 ca 91 bb 87 d4 39 bd
       -0.063052565 -0.11749258 -0.0044491966 -0.045368697
0000b0 6f 05 10 be a6 a5 53 bc fc 43 c4 3d 61 44 56 3e
       -0.14064573 -0.012917912 0.095832795 0.20924522
0000c0 df ee 38 be 8a 9e c3 bc 7a b3 b9 3d a2 56 2f be
       -0.18059872 -0.023879308 0.090674356 -0.17122892
0000d0 1d 77 91 3d a4 04 98 bc 7f 4b ae 3c 10 ef 02 be
       0.07102797 -0.0185569 0.021276234 -0.12786508
0000e0 4d ed 42 be 28 68 9c 3d 55 ad 13 3e 59 d4 8b bd
       -0.19035836 0.07637054 0.1442159 -0.068276115
0000f0 9f 54 59 3e ec c5 43 3e 1e 68 38 3e 68 c8 ff bc
       0.21223687 0.1911847 0.18008468 -0.03122349
000100 96 ff b6 bc 5c 60 35 3e b9 e1 56 3e 59 f0 4c be
       -0.02233867 0.1771254 0.20984544 -0.2001356
000110 9a 9d c5 bd de 19 fd bd 38 d1 47 be d0 d0 96 bd
       -0.09649201 -0.123584494 -0.19513404 -0.073640466
000120 85 9e 50 3d d3 05 17 be 55 fc 77 3d fa 01 1d bd
       0.050932426 -0.14748316 0.060543377 -0.038331963
000130 f8 54 0b be 4e da 12 be 7c ed 3f bd 11 cd 22 be
       -0.13606632 -0.14341089 -0.046857342 -0.15898539
000140 66 dd ec bc 10 e2 3f 3c 1d d0 98 bc 46 ef 06 3e
       -0.028914165 0.011711612 -0.018653924 0.13177213
000150 ae 4f 43 3e 1c d5 64 3c 95 ed f5 bd 0e 7a f7 bd
       0.19073364 0.013966825 -0.12008206 -0.12083827
000160 7e 22 e2 3b 84 a9 ee 3d 98 73 56 be 67 e8 50 be
       0.0069010844 0.11653426 -0.20942533 -0.20401154
000170 f3 1e 04 3d ec cf a5 3d c6 89 12 be 42 93 02 be
       0.032256078 0.080962986 -0.14310369 -0.12751487
000180 3f 8a e8 3d f9 95 91 3c d2 29 e7 bd 7a 8b 1a 3e
       0.11354493 0.017771708 -0.112872735 0.15092269
000190 a6 7c 1c 3e c9 01 4c 3e 3f d2 6c 3d d3 fb f7 3c
       0.15281925 0.19922556 0.057817694 0.030271446
0001a0 a0 26 c2 3d 72 9b ed 3c 36 a9 17 3e 4c f0 d4 bd
       0.094800234 0.029004786 0.14810643 -0.103973955
0001b0 7e 29 17 bc 48 6b 85 bd a7 d8 5a be 94 d0 27 3d
       -0.009226201 -0.06514603 -0.21371709 0.0409704
0001c0 66 3b 20 3d 94 10 58 be 5a 19 ae bd ca 22 a0 3d
       0.039119147 -0.21100074 -0.08500929 0.078191355
0001d0 79 5f 42 3e de eb 4c 3e a0 d3 44 be 09 a4 07 be
       0.18981732 0.20011851 -0.19221354 -0.13246168
0001e0 55 05 52 3e ea f0 b5 3d ea c5 e4 ba 9a 57 3b 3e
       0.20509847 0.08883841 -0.0017454003 0.18295136
0001f0 13 e2 13 be 22 70 01 3e 7f 6d 4f bd 09 5d 4c be
       -0.14441709 0.12640432 -0.050641533 -0.19957365
000200 2f 27 69 bd 52 6c b4 3c 9e 0e 03 bd 3f 09 2d 3c
       -0.056922134 0.022024307 -0.031996362 0.0105612865
000210 23 47 ed 3d 9e 91 09 3e 8d c6 34 bd 0f 22 23 3e
       0.11585834 0.13434455 -0.044134665 0.15930961
000220 f4 50 11 be a4 50 9f 3d e7 ef 2b 3d 57 81 82 bb
       -0.14191037 0.07779053 0.041976836 -0.0039827037
000230 90 4c 00 bc 20 34 1e bc 0f 5b e3 bd 6e f2 e3 bd
       -0.007830754 -0.009655982 -0.111013524 -0.11130224
000240 e9 fb 23 3e c7 d4 65 bd 40 f4 39 be b0 23 15 3e
       0.16014065 -0.056111123 -0.1815958 0.14564395
000250 b7 a2 dd bd 39 bd 47 be cf 84 f3 bd 14 eb be bd
       -0.10822051 -0.19505776 -0.118905656 -0.09322181
000260 43 b1 47 be f9 2d 29 be 37 13 52 be 8b b9 49 be
       -0.19501214 -0.16521443 -0.20515142 -0.19699685
000270 15 cb 14 3e a8 9b 05 be 86 36 40 3e 45 f7 11 be
       0.14530595 -0.1304766 0.18770799 -0.14254482
000280 7b 89 68 bd cd c3 58 3e a1 5c 05 be 24 ee 11 be
       -0.056771737 0.21168442 -0.13023616 -0.14251
000290 cd 1d 55 be 20 84 4a be 30 b4 f1 3d 9a 8c e3 bc
       -0.2081215 -0.19776964 0.11801946 -0.027777005
0002a0 b1 c1 fd 3b e0 42 fb 3d c0 8e b1 3d db 8f be 3d
       0.007744037 0.12268615 0.086698055 0.09304782
0002b0 ed 49 1e be 37 65 1c bc 7a 68 bc bd 91 09 6f 3c
       -0.15457888 -0.009545616 -0.09199615 0.014589683
0002c0 42 d9 03 3e ed 44 38 be 2e 48 6c bb 4b 65 0f 3e
       0.12875846 -0.17995043 -0.0036053765 0.14003484
0002d0 aa c6 c3 3c 6d 94 58 be 04 86 d2 bb b9 48 fb 3d
       0.023898441 -0.2115037 -0.0064246673 0.1226973
0002e0 36 b8 ba 3b db aa e9 3d 42 4a 53 3e f7 a9 bd 3d
       0.005698229 0.11409541 0.20633796 0.09260934
0002f0 8a cf 55 3e af 93 d7 bd 05 7f 1f 3e f9 1a 2c bd
       0.20879951 -0.10526215 0.15575798 -0.04201791
000300 88 95 2f be e7 81 06 3d 48 02 54 3e 59 4c fc 3c
       -0.17146885 0.03283873 0.20703995 0.030798124
000310 18 5d d9 3d 0a bd f9 3c 7d 78 1a be 1e b2 4c be
       0.10613459 0.030485649 -0.15085025 -0.19989821
000320 75 b5 37 3e 88 38 4c 3e 07 55 04 3e aa 2e 85 bd
       0.17940314 0.1994344 0.1292306 -0.06503041
000330 7b 0c 17 3e ae e7 04 be b5 a7 95 bd 7c d3 16 bd
       0.14750855 -0.12979004 -0.07307378 -0.03682278
000340 f0 71 d1 3b 18 6f 24 be e2 32 32 be 4b 66 8a 3d
       0.0063917562 -0.16058004 -0.17402223 0.06757792
000350 68 ab 5e 3c 87 05 f2 bd d7 55 ab 3d de 6d 3a bd
       0.013590671 -0.118174605 0.08365982 -0.045514934
000360 f0 53 0f be ec b4 17 bc 33 b0 9e bd 69 69 44 3e
       -0.13996863 -0.009259444 -0.07748451 0.19180836
000370 08 fa da bd 55 a3 57 be 32 ab 3b bd 2c 83 e0 bd
       -0.10692221 -0.210584 -0.04581756 -0.10962519
000380 0e c7 31 be ae 40 06 3d cf a7 21 bd 57 70 0e be
       -0.1736109 0.032776527 -0.039466675 -0.13910042
000390 e7 32 e0 bd 33 ec 20 3b 36 a5 88 3d e0 39 81 3d
       -0.10947209 0.0024554848 0.066721365 0.06309867
0003a0 6f 40 33 3e 01 7d 06 bc fc f2 9a bd 89 f8 36 3e
       0.17505048 -0.008208514 -0.07565877 0.17868246
0003b0 9a 25 44 3e 3d 52 d1 bd 99 91 32 be 11 c5 71 bd
       0.19154969 -0.10220764 -0.17438354 -0.059025828
0003c0 5d 9c 09 3e ae 5f 54 be 41 9d df 3d e6 ea 1b be
       0.13438554 -0.20739624 0.10918666 -0.15226325
0003d0 08 23 34 be 0e 8d 3b 3e e3 86 c7 3d 1b b7 eb 3d
       -0.17591488 0.18315527 0.097425245 0.11509534
0003e0 84 56 74 3c 64 3e 64 3d 5c 71 9b bd c6 81 34 be
       0.014913205 0.055723563 -0.07589981 -0.1762763
0003f0 4e eb 22 3e e6 f0 52 3e 07 c8 20 be a2 3e 24 3d
       0.15910074 0.20599708 -0.15701304 0.040098794

fc1.bias f4 [128]
000000 e3 56 d1 3e 42 1a 51 bd 0e ca e2 bc fa d3 7b 3e
       0.40886602 -0.051050432 -0.027684238 0.24592581
000010 4a 23 f0 3e 70 18 3d be c9 68 a1 3e 17 fd 04 bf
       0.46901923 -0.18466353 0.31525257 -0.51948684
000020 de f8 e7 be 1f f3 8e be fb a2 02 bf 4e 5a e6 3e
       -0.45307058 -0.27919862 -0.5102994 0.44990772
000030 d6 1c d2 bc 7b 41 9d 3d 4e 10 d0 3e 1f 58 ce 3d
       -0.025648516 0.07678505 0.4063744 0.100754015
000040 05 8b 68 3e 54 8a e3 3e e7 31 09 3f 4a 70 da be
       0.22709282 0.44441473 0.5359177 -0.42663795
000050 33 23 0f 3f 96 77 04 3f e2 56 bf be 29 86 f8 bd
       0.55913085 0.51744974 -0.37370974 -0.12134964
000060 25 65 17 3e a1 5f 85 3c 13 61 e0 be fe d0 04 bf
       0.14784677 0.016280951 -0.43824062 -0.51881397
000070 13 c9 27 be d2 8f 38 bd b9 20 77 be 0f d7 83 3e
       -0.16385297 -0.045059033 -0.24133576 0.25750014
000080 5d 88 18 3d 1c af 81 be 4a 79 c1 bc 29 77 b1 3e
       0.03723942 -0.2532891 -0.023617405 0.34661224
000090 9c ca aa be 3f fb 05 3f d7 da 38 be c8 10 cc 3e
       -0.33357704 0.52336496 -0.18052231 0.39856553
0000a0 ce c6 16 3e 13 0e b5 be 6d 2d 5d be 3a 50 10 3e
       0.14724275 -0.353623 -0.2159936 0.14093104
0000b0 67 93 06 bf ca 76 a5 be b1 8c b0 3e 76 5f f0 3e
       -0.5256867 -0.3231719 0.3448234 0.4694783
0000c0 23 08 88 be 98 66 86 be 8f 30 0a bb 5b 63 af 3e
       -0.26568708 -0.26250148 -0.0021086072 0.3425549
0000d0 6d 47 c5 be 17 7e 80 3e 82 e6 b0 3e 52 9e 17 be
       -0.38531056 0.250962 0.34550864 -0.14806488
0000e0 29 ff bb bd 70 3e 06 bf 39 84 a4 bd 76 f3 98 bd
       -0.09179527 -0.5243902 -0.08033032 -0.074683115
0000f0 94 0b 5f be 47 5d 94 bd fd c1 be be 09 01 ee bd
       -0.2178176 -0.07244354 -0.37257376 -0.11621291
000100 a0 00 ce 3e 8d 94 f2 bd de 32 0c 3f 4d c0 a1 3e
       0.40234852 -0.1184474 0.5476512 0.31592026
000110 f4 26 9a be b9 4e 84 3e 51 d1 96 be b3 63 15 3e
       -0.30107844 0.2584131 -0.2945657 0.14588813
000120 74 cb 97 be fe c4 f9 be 83 a3 91 3e 71 b8 11 be
       -0.2964741 -0.48783106 0.28445062 -0.14230515
000130 97 3c 35 bd 81 e2 66 3e b4 ae bd be 43 87 ae bd
       -0.044247236 0.22547342 -0.3704735 -0.08521893
000140 79 1f 06 3e 6f dc ff be ce 63 ea 3e 88 2d 25 be
       0.13097943 -0.49972865 0.4577927 -0.1613065
000150 21 cd 88 3e ce 25 ae 3e 8c 4a ab 3e a7 0b 77 be
       0.26719 0.34013218 0.33455312 -0.24125539
000160 1d 0c d6 be 47 05 bf be a0 1b 4d be 4a 67 95 3e
       -0.41806117 -0.37308714 -0.2003007 0.29180366
000170 5b 33 52 3e 7c 4c 4f 3e b9 24 02 bf 2b 62 32 be
       0.20527403 0.2024402 -0.50837284 -0.1742026
000180 61 c8 a9 be 04 7f c6 bd 92 18 ed 3e 55 8a 66 3e
       -0.3316069 -0.09692195 0.46307808 0.22513707
000190 44 57 74 be 18 0f 01 3f bc 88 f3 3d 7e 72 ae 3e
       -0.23861414 0.50413656 0.118913144 0.34071726
0001a0 5c 3f 12 3e 4f 6d 55 be ed f9 0b bf 1b 0d 54 3e
       0.14281982 -0.20842479 -0.5467823 0.20708124
0001b0 b5 b8 57 bb 1f 3d 44 bd af 78 a3 be 93 f0 30 be
       -0.003291649 -0.047909852 -0.31928012 -0.17279272
0001c0 e9 44 06 3d 5a 54 11 3f 28 80 1c be b6 2a 0a 3f
       0.03278056 0.56769335 -0.15283263 0.5397142
0001d0 aa e1 8c be c5 40 f8 3d fa 0b 89 be f6 17 fd be
       -0.27515918 0.12121729 -0.2676695 -0.49432343
0001e0 0c 04 c8 3e 50 6d ce be 8f 08 02 3f 9f dd be 3e
       0.39065588 -0.40317774 0.5079431 0.37278458
0001f0 c6 77 81 3e c3 ea 2d be e1 cf 94 3e 9e 2e 5c 3e
       0.25286692 -0.16984086 0.2906485 0.21502158

fc2.weight f4 [1, 128]
000000 d3 27 54 be 07 d8 50 3d 38 4f 11 be 0d 97 19 be
       -0.20718317 0.05098727 -0.14190376 -0.14999028
000010 bb e3 52 3e 42 a5 3c 3e c2 77 53 be f6 db 32 be
       0.20594685 0.18422416 -0.20651153 -0.17466721
000020 02 37 29 3e 05 c8 3f bd 07 1a 0a 3e 2a e7 02 bd
       0.1652489 -0.046821613 0.13486491 -0.031958736
000030 21 ed 24 be 90 af ab bd d0 fe 6d bc 8e 3d 2b be
       -0.16106082 -0.08383095 -0.014526084 -0.167227
000040 69 8e 47 3e 01 ef 83 bd ad 87 55 3e 44 2d 1d be
       0.19487919 -0.06442071 0.20852537 -0.15349299
000050 1a 3e 4f bd f7 8c 58 3e 1b dd 51 3e 6c 27 4b 3d
       -0.050596334 0.21147524 0.20494501 0.049598143
000060 d1 81 5b 3e cd 9e 29 bd 8b e3 0c 3e 3f e4 52 be
       0.2143624 -0.04141121 0.13758676 -0.20594881
000070 a5 c0 e0 bd d1 5a 03 3d cf d5 27 be bf 1f a4 3d
       -0.10974244 0.03206903 -0.16390155 0.080138676
000080 6a cd 19 bc cc 4b 4f 3d 26 f7 2c be 2d b2 10 3c
       -0.009387353 0.050609395 -0.16891155 0.008831543
000090 ef 6e a7 bc d8 4b 47 be be b8 43 3e 26 91 ef bd
       -0.02043864 -0.19462526 0.19113442 -0.11697607
0000a0 60 6c 2b 3e 8a 6b 37 bd d8 d4 05 bd 6d 45 a8 3d
       0.1674056 -0.04478029 -0.032673687 0.08216367
0000b0 6d 40 08 bd 51 01 93 bc e4 2d 8b bb db 83 bc 3d
       -0.033264566 -0.017944964 -0.004247414 0.09204837
0000c0 97 40 02 bd 9f cd 92 bd 43 db 28 3e 3d 6f 27 be
       -0.03179988 -0.07168125 0.16489892 -0.16351028
0000d0 3a 9f a0 bb 9d 3b f1 3d ac 59 80 bc d7 b5 4c 3d
       -0.004901794 0.117789485 -0.015667759 0.049978103
0000e0 22 a6 1c be 29 3e f1 3d 69 70 00 be a1 3b 1d 3d
       -0.1529775 0.11779434 -0.12542881 0.038386945
0000f0 e1 2f 42 bd 13 d6 e8 3b 3c 8c 01 3e 73 97 8d 3c
       -0.047408942 0.0071055978 0.12651151 0.01728413
000100 8f a2 73 bd 6f 53 4f 3e f5 b8 b0 3d 51 a3 8e 3d
       -0.0594812 0.20246671 0.08629028 0.06964744
000110 54 2e 23 be 4e e9 42 be b0 0e 1c 3e 31 14 5c 3e
       -0.15935642 -0.19034311 0.15239978 0.21492077
000120 a4 64 e7 bd ef b5 5f bd bd 8b 45 3d 2d cd a0 3d
       -0.112984926 -0.054616865 0.048228968 0.07851634
000130 17 05 18 bd 64 61 28 be f7 61 8d 3c ab cc 94 3d
       -0.03711423 -0.16443402 0.017258627 0.072656
000140 49 cf 2f 3e c4 0a de 3d 7f 67 91 3c 93 d5 35 3d
       0.17168917 0.10841897 0.017749546 0.044393133
000150 77 e6 0f be d7 6c 66 3d cc 37 8e 3a bc 89 d4 3d
       -0.14052759 0.05625614 0.0010850369 0.10377833
000160 43 8b d1 bd 75 12 24 3e eb 0b 78 bc da 4d 53 3e
       -0.1023164 0.16022666 -0.01513956 0.20635167
000170 6c cc 03 3e ee 47 57 be ad 38 14 3e 66 3a fc bd
       0.1287095 -0.21023533 0.14474745 -0.12315826
000180 9c cd 02 bd 55 fd 6c 3d 0c 76 1d 3c d3 ff c7 bd
       -0.031934366 0.057858784 0.009610664 -0.097655915
000190 71 13 b4 bd 6b 8c e7 3d e3 47 38 3e 24 87 e8 ba
       -0.08792771 0.113060795 0.17996173 -0.001774047
0001a0 28 cb 12 3d 69 2c 66 3d b7 0f bb bd f8 29 f4 bd
       0.035838276 0.056194697 -0.09133857 -0.119220674
0001b0 64 38 2e bd fc 9c 8e 3d 41 6f 5a be ab 44 26 3d
       -0.042534247 0.06963536 -0.21331502 0.04059283
0001c0 19 94 2b 3e 5a 9b 0a 3e 6e b6 bf 3d 94 5d 21 3e
       0.16755714 0.13535824 0.093609676 0.15758353
0001d0 fb d8 e9 bc db f0 ee bd fb ef d8 bc 5e 77 10 3e
       -0.028545847 -0.11667033 -0.02648162 0.14108035
0001e0 82 b9 14 3e 5e ea 35 be b9 07 c5 bd a2 18 ae 3d
       0.1452389 -0.17765185 -0.096206136 0.08500792
0001f0 bb 62 3f be cf 5b 3b 3e e1 41 8b 3d 99 c8 07 3e
       -0.18690006 0.18296741 0.06799675 0.13260116
