saved_models/train_20240430_222753/best_online_net.pth (torch, 5776 bytes, 4 tensors)

fc1.weight f4 [128, 4]
0	0xbe527b53	-0.20554857
1	0xbe3f8aac	-0.18705243
2	0x3e1bf6dd	0.1523089
3	0x3e474f2d	0.19463797
4	0x3e3ffe98	0.18749464
5	0xbe181fcf	-0.14855884
6	0x3e0a1d02	0.13487628
7	0xbe1b945a	-0.1519331
8	0x3a29e189	0.0006480446
9	0xbe2080d4	-0.15674144
10	0x3c3616a2	0.0111137945
11	0xbe1af9e9	-0.15134396
12	0x3de4dd14	0.1117498
13	0x3b16d979	0.0023017807
14	0x3e48d05f	0.19610737
15	0x3e405092	0.18780735
16	0x3daed511	0.08536733
17	0x3d2dddf8	0.042448014
18	0xbe04a505	-0.12953575
19	0x3cfefc5b	0.031126192
20	0x3ddb7012	0.10714735
21	0xbba3488f	-0.004983015
22	0xbdcc1f8d	-0.09966955
23	0x3d36ec49	0.044658933
24	0xbda64253	-0.08118119
25	0x3e5867dc	0.21133369
26	0x3da27496	0.07932393
27	0x3e2dbf57	0.16967522
28	0xbd9c8199	-0.07641906
29	0x3de24c2a	0.110496834
30	0xbde28ed1	-0.11062396
31	0xbe0070e1	-0.1254306
32	0x3d855f37	0.065123014
33	0x3e573368	0.21015704
34	0x3e56e685	0.20986374
35	0xbe0732bf	-0.13202952
36	0xbe13adb3	-0.1442173
37	0xbddaafb9	-0.10678048
38	0x3bb2efe1	0.0054607247
39	0x3e0c6501	0.13710405
40	0xbda87634	-0.082256705
41	0x3c05faaa	0.008177439
42	0xbe1db439	-0.1540078
43	0x3dd55675	0.10416881
44	0x3d95f8b8	0.0732283
45	0xbe266f94	-0.16253501
46	0xbe051504	-0.12996298
47	0xbdf5f60c	-0.1200982
48	0x3e425931	0.18979336
49	0xbde773b1	-0.11301363
50	0xbe573cde	-0.21019313
51	0x3dcf1e64	0.101132184
52	0xbcf2ad40	-0.029623628
53	0x3ded9f26	0.11602621
54	0x3d6b18b2	0.0573966
55	0xbe44413e	-0.19165513
56	0xbd348644	-0.04407336
57	0xbe1538a5	-0.1457239
58	0xbe22b7ca	-0.15890422
59	0x3d9e4cb6	0.07729475
60	0x3e341566	0.17586288
61	0xbe0f0b87	-0.13969241
62	0x3da9630a	0.08270843
63	0xbe0fe8d3	-0.14053659
64	0x3e3b94d6	0.18318495
65	0xbe0f0248	-0.13965714
66	0xbdc5eb64	-0.09664038
67	0x3e203ade	0.15647456
68	0xbaf58cf4	-0.0018734024
69	0x3e062c57	0.13102852
70	0x3d037c3c	0.0321009
71	0xbddb1d8c	-0.10698995
72	0x3e144832	0.14480665
73	0x3a4ac7d1	0.00077354634
74	0x3e14ab05	0.14518364
75	0x3e15dda4	0.1463533
76	0xbdd9265b	-0.10603019
77	0xbd36a595	-0.044591505
78	0xbe0cc4b1	-0.13746907
79	0x3dd5d061	0.10440136
80	0xbe316a5b	-0.17325728
81	0xbda8af16	-0.0823652
82	0x3e338f2e	0.17535087
83	0x3e33d3a2	0.175612
84	0x3dc795c1	0.0974536
85	0x3ccb4dd0	0.024817377
86	0xbd91f330	-0.071264625
87	0xbe40bb39	-0.1882142
88	0x3dfc4238	0.12317318
89	0x3d319c17	0.04336175
90	0x3e11e5a6	0.1424776
91	0xbe587d8c	-0.21141642
92	0x3e0b2342	0.13587669
93	0x3bd030fb	0.006353495
94	0xb939e939	-0.00017729857
95	0x3d959ce5	0.07305316
96	0x3e282b1a	0.16422692
97	0xbc1bffb1	-0.009521411
98	0x3e2dafec	0.1696164
99	0x3d27f1fa	0.04100225
100	0xbde9f721	-0.11424089
101	0x3c082f54	0.008312065
102	0xbd17c07a	-0.037048794
103	0xbd847dc1	-0.06469298
104	0x3e466857	0.1937574
105	0x3d1eee4b	0.038801473
106	0x3e1f1dad	0.15538664
107	0x3d45a94c	0.048257157
108	0xbd6cf999	-0.057855222
109	0x3e0caf0a	0.13738647
110	0x3d01dd59	0.031705234
111	0x3be86c0e	0.0070929592
112	0xbd658137	-0.056031432
113	0xbd1db527	-0.03850284
114	0xbd9194ac	-0.07108435
115	0xbd847d92	-0.06469263
116	0xbdc49246	-0.09598212
117	0xbd957145	-0.07296995
118	0x3cc705f6	0.024294835
119	0xbd265251	-0.040605847
120	0xbb283426	-0.0025665849
121	0xbdd55553	-0.10416665
122	0xbbeb7a81	-0.0071862345
123	0x3aadf638	0.0013272231
124	0xbd3d974e	-0.046286874
125	0xbe01466f	-0.12624525
126	0xbde8abd1	-0.113608964
127	0x3dc39456	0.09549777
128	0x3daae9a7	0.08345347
129	0xbe145820	-0.14486742
130	0xbdbf0a49	-0.093281336
131	0x3d381bc0	0.04494834
132	0xbdae7d5d	-0.08520005
133	0xbd23781a	-0.03990946
134	0xbd1be2ce	-0.038058095
135	0xbe4e9b59	-0.20176448
136	0x3d9831fe	0.0743141
137	0x3dc70852	0.09718384
138	0xbdd58a3d	-0.104267575
139	0x3e1c7e22	0.15282491
140	0xbe0339ad	-0.1281497
141	0x3daf0f7c	0.08547875
142	0xbdaed7b1	-0.085372336
143	0x3e08fa3a	0.13376704
144	0xbd09b3ce	-0.03361874
145	0xbd99fd33	-0.07518997
146	0x3cd09b5e	0.02546471
147	0x3d8a8b97	0.06764906
148	0x3d9e75ea	0.07737334
149	0xbe363869	-0.17794956
150	0x3d831990	0.0640136
151	0x3e323212	0.17401913
152	0xbdcc28aa	-0.099686936
153	0xbcf40141	-0.029785754
154	0xbdc9848a	-0.09839733
155	0xbe3cbf8b	-0.18432443
156	0x3e0bf541	0.13667776
157	0x3df79bb1	0.12090243
158	0xbe46aa11	-0.19400813
159	0x3cd3acbf	0.025839208
160	0x3d04186f	0.032249864
161	0xbdb7486a	-0.08949359
162	0x3c1e28bc	0.0096532665
163	0x3db4ad1c	0.088220805
164	0xbc18a633	-0.009316969
165	0xbe15b273	-0.14618854
166	0x3dccf7e2	0.100082174
167	0x3cac5b02	0.02103949
168	0x3dc3414f	0.09533941
169	0x3dc13e6e	0.09435736
170	0xbe0bac7c	-0.13640016
171	0x3da95b9e	0.08269428
172	0x3e0c091a	0.13675347
173	0x3c0e5aef	0.008688672
174	0xbc4922da	-0.012276376
175	0xbe28b861	-0.16476585
176	0xbda2cdea	-0.07949431
177	0x3e2f7f82	0.17138484
178	0xbd61737d	-0.05504178
179	0xbbfd2e16	-0.007726441
180	0xbdfb317b	-0.12265297
181	0x3e405235	0.1878136
182	0xbd8c35cb	-0.06846198
183	0x3e26d389	0.16291632
184	0x3e1085ac	0.14113492
185	0xbe1430b2	-0.14471701
186	0x3e45789c	0.1928429
187	0xbd3b4ef9	-0.04572961
188	0xbdd63aea	-0.10460456
189	0x3e3a3315	0.18183549
190	0xbdedc941	-0.11610652
191	0xbde0486b	-0.10951313
192	0x3e4457f6	0.1917418
193	0xbd0e6d0e	-0.03477197
194	0xbda5b390	-0.080908895
195	0xbd0b8244	-0.034059778
196	0x3e091c8f	0.133898
197	0xbdced865	-0.10099868
198	0x3baa2e13	0.0051934808
199	0x3ce25012	0.027626071
200	0xbdf88d68	-0.12136346
201	0x3e57b902	0.21066669
202	0x3ddb2ffa	0.1070251
203	0x3e07c99c	0.13260502
204	0x3da7beaa	0.08190663
205	0xbdf348c8	-0.11879116
206	0x3e0e107e	0.13873479
207	0x3e0af6a5	0.1357065
208	0xbde31f38	-0.11089939
209	0x3e1fc770	0.15603423
210	0xbe3ea162	-0.1861625
211	0xbd37867c	-0.04480599
212	0xbcf205ba	-0.029543746
213	0xbe1689d2	-0.14701012
214	0xbe542959	-0.20718898
215	0xbda5ffe3	-0.08105447
216	0xbe36f248	-0.1786586
217	0xbe064a65	-0.13114317
218	0x3e4b3652	0.1984494
219	0x3d7ec457	0.062198963
220	0x3e0eeb4d	0.13956948
221	0xbdcd842b	-0.10034975
222	0xbe2ed0c0	-0.1707182
223	0xbcb96141	-0.022629382
224	0xbe011243	-0.12604623
225	0xbd107e3f	-0.035276648
226	0xbe50fc82	-0.20408824
227	0xbd9e6146	-0.07733397
228	0xbe42fa8a	-0.19040886
229	0x3dd7ac75	0.105309404
230	0x3b0d0c87	0.002152236
231	0xbe4de654	-0.20107394
232	0xbe06075c	-0.13088745
233	0x3db64cb1	0.089013465
234	0xbdc470d3	-0.09591832
235	0xbe3f3a7d	-0.18674655
236	0x3c6b2fab	0.014354627
237	0xbdc064ac	-0.09394202
238	0x3da8a3a7	0.08234339
239	0xbe460117	-0.19336353
240	0x3e08225e	0.1329436
241	0x3c8c1e46	0.01710428
242	0x3dbc69a0	0.09199834
243	0x3d92b636	0.0716366
244	0xbe241b91	-0.16026141
245	0x3dc94c29	0.098289795
246	0x3e3d60f7	0.1849402
247	0x3e0413ea	0.12898222
248	0xbe0a7bcc	-0.13523787
249	0xbe3087e2	-0.17239335
250	0x3e500edf	0.20318173
251	0xbe1cfffd	-0.15332027
252	0x3de72f44	0.11288312
253	0xbdc075fe	-0.09397505
254	0x3c2d1174	0.010563243
255	0xbe3a8352	-0.18214157

fc1.bias f4 [128]
0	0xbecc61a6	-0.3991825
1	0xbdc00338	-0.09375614
2	0xbe708ca4	-0.2349115
3	0x3ddf8f10	0.10915959
4	0xba500c00	-0.00079363585
5	0xbdea1310	-0.11429417
6	0xbee6b95a	-0.45063287
7	0x3e10e33c	0.14149183
8	0xbeed223c	-0.4631518
9	0xbeaa2c98	-0.33237147
10	0x3e433fcc	0.19067305
11	0x3ed90924	0.42389786
12	0xbe186efc	-0.14886087
13	0xbd8e60c0	-0.06952047
14	0xbc9c51e0	-0.01908201
15	0x3df11128	0.117708504
16	0x3db31608	0.087444365
17	0x3e61cb98	0.22050321
18	0x3ed34246	0.412615
19	0x3ec151a2	0.37757593
20	0xbe61bce0	-0.22044706
21	0xbea53a6c	-0.32271135
22	0x3e1060e0	0.14099455
23	0xbec999aa	-0.3937505
24	0x3ed15f4a	0.40893012
25	0xbd88e350	-0.066839814
26	0x3df57e88	0.119870245
27	0xbe6bc608	-0.23024762
28	0x3d5a6440	0.053318262
29	0x3cdd3940	0.027004838
30	0xbe3a9d3c	-0.18224043
31	0x3ef2de9e	0.47435468
32	0x3ecfb33c	0.40566432
33	0xbe879e88	-0.26488137
34	0xbe9bda58	-0.3044002
35	0xbed4167a	-0.41423398
36	0xbec86d7a	-0.39146024
37	0x3e6a8048	0.22900498
38	0x3c0b6700	0.008508444
39	0x3e61e84c	0.2206127
40	0xbdaa22d0	-0.08307421
41	0x3ea5be54	0.3237177
42	0xbd1b2d80	-0.03788519
43	0xbe1bf8f0	-0.15231681
44	0xbea268ba	-0.31720525
45	0xbee2c12e	-0.4428801
46	0x3d166c30	0.03672427
47	0xbe139e84	-0.14415938
48	0xbdf17080	-0.11789036
49	0x3ee81c86	0.45334262
50	0xbe7dba10	-0.24778008
51	0x3e7957b0	0.24349856
52	0xbe1ada28	-0.15122283
53	0x3e02eb54	0.12785083
54	0x3ec5e65e	0.3865232
55	0x3cdeb020	0.027183592
56	0xbeec0434	-0.46096957
57	0x3ecee966	0.40412444
58	0xbeaef51c	-0.3417138
59	0xbe80cd2c	-0.25156534
60	0xbe98eea4	-0.29869568
61	0x3e48df7c	0.19616503
62	0x3eaaeffe	0.33386225
63	0xbe5c6214	-0.21521789
64	0x3e4f800c	0.2026369
65	0xbeba413a	-0.3637789
66	0x3e84436e	0.25832695
67	0xbee884de	-0.4541387
68	0xbe298dc8	-0.16557992
69	0x3ea84e4c	0.32872236
70	0xbe740934	-0.23831636
71	0x3ecbf284	0.39833462
72	0x3edc5806	0.43035907
73	0xbdce3170	-0.10068023
74	0x3dcbe0c0	0.09954977
75	0x3e44f38c	0.19233531
76	0x3cf26220	0.029587805
77	0xbe68f708	-0.22750485
78	0x3db79c90	0.08965409
79	0xbed85588	-0.42252755
80	0x3ee5463a	0.4478014
81	0x3ee84312	0.4536367
82	0xbe96e7b6	-0.29473656
83	0xbe043518	-0.12910879
84	0x3ded3010	0.11581433
85	0x3da59028	0.08084136
86	0x3ed5f248	0.41786408
87	0xbee3e0f4	-0.44507563
88	0x3e9ab14c	0.30213392
89	0x3eb9fbf0	0.36325026
90	0xbe3cd930	-0.18442225
91	0xbd16cc10	-0.036815703
92	0xbdf71d20	-0.12066102
93	0xbe4ba3dc	-0.19886726
94	0xbe55ef70	-0.2089212
95	0xbe4affc4	-0.1982413
96	0xbd15c3b0	-0.036563575
97	0xbec45380	-0.38344955
98	0x3eb2997a	0.34882718
99	0x3eda34ea	0.42618495
100	0xbeb09cda	-0.34494668
101	0x3ef5644a	0.47928077
102	0xbe516620	-0.20449114
103	0xbe338b20	-0.1753354
104	0xbecde042	-0.40210158
105	0xbe74b808	-0.23898327
106	0xbcc254e0	-0.023722112
107	0x3e214528	0.15749037
108	0x3e7c3590	0.24629807
109	0xbe0a27a4	-0.13491684
110	0x3e691e10	0.22765374
111	0xbeaa7ea0	-0.33299732
112	0x3e977ef2	0.2958904
113	0xbedbd1de	-0.42933553
114	0xbd81e960	-0.06343341
115	0xbdda21d8	-0.106509864
116	0xbeafb5ba	-0.34318334
117	0xbec161a0	-0.37769794
118	0x3ecf4556	0.40482587
119	0x3ed0e2d4	0.40798056
120	0x3d1e5ac0	0.038660765
121	0x3dacb968	0.08433801
122	0x3e95dd88	0.29270577
123	0x3ee72dcc	0.45152128
124	0x3edceede	0.4315099
125	0xbea21aba	-0.31661016
126	0xbe48e80c	-0.19619769
127	0xbdc418e0	-0.09575057

fc2.weight f4 [2, 128]
0	0x3d7faebf	0.06242251
1	0x3dd70113	0.10498252
2	0xbc2621ec	-0.010139924
3	0x3c893047	0.016746653
4	0x3e32b3d3	0.1745141
5	0x3e4806bc	0.19533819
6	0x3da711fc	0.08157727
7	0xbce19479	-0.027536618
8	0x3d333a10	0.043756545
9	0xbd9056e2	-0.070478216
10	0xbe49d13d	-0.19708724
11	0x3dfc083a	0.123062566
12	0x3de270f5	0.11056701
13	0x3c7c546d	0.015400988
14	0xbe278b82	-0.16361812
15	0x3d752126	0.059846066
16	0x3cae363d	0.021266097
17	0xbe2a65c7	-0.16640387
18	0x3dbd716b	0.092501484
19	0xbdff7f90	-0.124755025
20	0xbcc916be	-0.024546977
21	0xbdb48b5e	-0.08815645
22	0xbdb16a13	-0.0866281
23	0x3ad2787c	0.0016057636
24	0xbd8495b6	-0.064738676
25	0x3e4dbfa1	0.20092632
26	0x3e3636bc	0.17794317
27	0xbcaa98a0	-0.02082473
28	0x3e3bbd73	0.18333988
29	0xbd44d807	-0.048057582
30	0xbd551db2	-0.052030273
31	0xbe463ef7	-0.19359957
32	0xbe23ca07	-0.15995036
33	0xbcc87325	-0.024468968
34	0xbe2def40	-0.16985798
35	0xbd8375f4	-0.06418982
36	0x3c8cd0f4	0.01718948
37	0x3d91413a	0.07092519
38	0xbe073afd	-0.13206096
39	0x3d370d39	0.044690344
40	0xbdffbb20	-0.12486863
41	0x3db9a94e	0.090654954
42	0xbd12a456	-0.035801254
43	0x3e270f95	0.16314538
44	0xbe1f735c	-0.1557135
45	0xbd8c942c	-0.06864199
46	0x3e217e02	0.15770724
47	0xbd6947bd	-0.05695318
48	0x3ddd7c4f	0.108147256
49	0xbe1a3ef3	-0.15063076
50	0x3d5f8960	0.05457437
51	0xbe5a4917	-0.21316944
52	0x3dbad583	0.091227554
53	0xbd99da19	-0.07512302
54	0x3e085d28	0.13316786
55	0x3e377520	0.17915773
56	0x3d9827c9	0.074294634
57	0xbca0c460	-0.019624889
58	0x3e3cc68f	0.18435119
59	0xbd273f6f	-0.04083198
60	0x3e1b54c2	0.15169051
61	0xbe13c19a	-0.14429322
62	0x3b31bf3b	0.002712204
63	0x3e26d890	0.1629355
64	0xbd1ad3dc	-0.0377997
65	0x3e28f023	0.16497855
66	0x3e2eaa7f	0.17057227
67	0xbe3ac720	-0.18240023
68	0xbe45e7f1	-0.1932676
69	0x3dce5462	0.100746885
70	0xbe2abf0e	-0.16674444
71	0xbc8ca581	-0.017168762
72	0x3e3b62d1	0.18299414
73	0x3d169941	0.036767248
74	0xbde2da4b	-0.11076792
75	0xbcce0380	-0.025148153
76	0x3e3fc211	0.18726374
77	0xbdad5042	-0.084625736
78	0xbdf904f9	-0.121591516
79	0x3d88b9d0	0.06676066
80	0xbe084a74	-0.13309652
81	0xbdcdbb43	-0.10045483
82	0x3aeedbe8	0.0018223496
83	0x3e482163	0.19543986
84	0x3d82cede	0.06387113
85	0x3bb2c3d3	0.005455473
86	0xbe5495d9	-0.20760287
87	0x3e58456c	0.21120232
88	0xbd6c5c88	-0.057705432
89	0x3d61c87d	0.05512284
90	0xbdc29cfc	-0.09502599
91	0xbd9b1f8c	-0.075743765
92	0x3d61a8cd	0.05509262
93	0xbcbdfcf7	-0.023191912
94	0x3e4958b2	0.19662741
95	0x3e024a85	0.1272374
96	0xbe0e4ce2	-0.13896516
97	0x3e129e50	0.14318204
98	0xbe1ce1ac	-0.15320462
99	0xbda8caef	-0.082418315
100	0xbcb28ad7	-0.02179472
101	0xbe0bcd05	-0.13652427
102	0x3e12042a	0.14259401
103	0xbc442fc9	-0.0119742835
104	0x3dd9a083	0.10626318
105	0xbcd77ece	-0.026305582
106	0x3e4a0cc6	0.19731435
107	0x3dfb7eb5	0.12280027
108	0x3e1e945f	0.15486287
109	0x3c7239ee	0.014784319
110	0xbddf1512	-0.10892691
111	0x3ca94e0c	0.020667098
112	0xbe2089cd	-0.15677567
113	0x3dceed8f	0.101039045
114	0x3d6c0af2	0.057627626
115	0xbd8319b9	-0.064013906
116	0xbdacae84	-0.08431724
117	0x3e2199b8	0.15781295
118	0xbe276516	-0.16347155
119	0xbe30147b	-0.17195313
120	0x3e41562d	0.1888053
121	0x3e3a585b	0.18197767
122	0xbdc5eb31	-0.09664
123	0x3e4921fb	0.19641869
124	0x3e3d653d	0.1849565
125	0xbb94ccf2	-0.004541033
126	0xbe1c724a	-0.15277973
127	0x3e16c652	0.1472409
128	0xbd7dd8b0	-0.061974227
129	0x3e0d765d	0.13814683
130	0x3e2001eb	0.15625732
131	0x3e081376	0.13288674
132	0xbe15b2fc	-0.14619058
133	0x3e360141	0.17773916
134	0x3dbb0474	0.09131709
135	0x3d84d966	0.06486778
136	0x3e13d630	0.14437175
137	0xbe33c101	-0.17554094
138	0x3d1445b5	0.03619929
139	0xbe54ef55	-0.20794423
140	0x3e588de3	0.21147875
141	0x3d6eb6b6	0.058279715
142	0x3deeed1b	0.11666318
143	0x3e1d6b2c	0.15372914
144	0x3ddbe9b5	0.107379355
145	0x3e09feb0	0.13476062
146	0x3dd639ae	0.1046022
147	0xba0222cf	-0.00049642933
148	0xbe3f9ca8	-0.18712103
149	0xbde4382e	-0.11143528
150	0xbe4bb58d	-0.19893475
151	0x3e31cb1b	0.17362635
152	0x3e3e2959	0.1857046
153	0x3d97488f	0.07386886
154	0xbe4a1a0a	-0.19736496
155	0xbdd70a3f	-0.10500001
156	0xbe2bfdc4	-0.16796023
157	0xbbfe3a2b	-0.007758399
158	0x3d8d3359	0.068945594
159	0x3de7f2f9	0.1132564
160	0x3e102b7b	0.14079086
161	0x3e33463c	0.17507261
162	0xbbd7aabd	-0.006581633
163	0xbc201d58	-0.009772621
164	0x3dbf61dc	0.09344837
165	0xbd8dcd44	-0.06923917
166	0xbe0b6379	-0.13612165
167	0x3d8dc0af	0.06921517
168	0xbdd85e5e	-0.10564874
169	0xbd66892d	-0.056283165
170	0xbdfdb015	-0.123871006
171	0xbcbb1097	-0.02283506
172	0xbe53f174	-0.20697576
173	0xbd5630ed	-0.052292753
174	0xbd1f5f82	-0.038909443
175	0x3d922f2c	0.071379036
176	0x3dee1914	0.11625877
177	0x3e3de7b9	0.18545426
178	0xbe25b748	-0.16183197
179	0xbda2dedc	-0.07952663
180	0xbd961974	-0.073290735
181	0xbe156e47	-0.14592849
182	0x3e4d6831	0.20059277
183	0x3e0f8660	0.14016104
184	0xbe4297a4	-0.19003159
185	0xbe0de279	-0.13855924
186	0xbc6b3c24	-0.0143576
187	0x3d0024c4	0.031285062
188	0x3df75f0d	0.120786764
189	0xbdf72614	-0.1206781
190	0xbe089190	-0.13336778
191	0x3cdf0820	0.027225554
192	0x3da94d9b	0.08266755
193	0x3e4018ed	0.18759508
194	0xbe0a6f7d	-0.13519092
195	0xbd6c3b27	-0.0576736
196	0xbdad7ab0	-0.084706664
197	0xbd0fe861	-0.035133723
198	0xbe45a891	-0.19302584
199	0xbe518de1	-0.20464279
200	0xbde62d07	-0.11239057
201	0xbe269590	-0.16267991
202	0xbe20e42e	-0.15712044
203	0xbe0edadb	-0.13950674
204	0x3cb2ed20	0.021841586
205	0x3d9131c6	0.07089572
206	0x3e1cd47e	0.15315434
207	0xbd5088f8	-0.050911874
208	0xbdfde892	-0.12397875
209	0xbe128b78	-0.14311016
210	0x3dfec2b2	0.12439479
211	0x3c97c71f	0.018527566
212	0x3cee91ae	0.0291222
213	0xbdfeb6f6	-0.12437241
214	0xbdd1cdf2	-0.10244359
215	0x3e28223f	0.16419314
216	0xbd33e044	-0.04391505
217	0xbe55e417	-0.2088779
218	0x3ddc0b10	0.107442975
219	0x3c0b0769	0.008485653
220	0x3d585b3a	0.052821375
221	0x3dd33572	0.10312928
222	0x3c44959e	0.011998562
223	0x3d9142e8	0.070928395
224	0x3e2b1b75	0.16709693
225	0xbe064814	-0.13113433
226	0xbbc09702	-0.0058773765
227	0xbd78ddc7	-0.06075838
228	0x3dc03bb4	0.093863875
229	0x3bffc509	0.007805471
230	0x3dc13c89	0.09435374
231	0x3e26e521	0.16298343
232	0xbc86da73	-0.016461587
233	0xbe20d241	-0.15705206
234	0xbe3755a8	-0.17903769
235	0x3e1de074	0.15417653
236	0x3d935733	0.07194366
237	0xbe23c1d8	-0.15991914
238	0x3e0faf9f	0.14031838
239	0x3d218cf3	0.03944106
240	0xbe4bb9a7	-0.1989504
241	0x3df458a0	0.119309664
242	0xbe2db51a	-0.16963616
243	0xbe50b17e	-0.20380208
244	0x3e378a4c	0.1792385
245	0x3e19cfec	0.15020722
246	0x3e16400f	0.14672874
247	0xbe0d314b	-0.13788335
248	0xbd0f3082	-0.03495837
249	0xbe4d1a71	-0.20029618
250	0x3e25c5a3	0.16188674
251	0xbe45b7b5	-0.1930836
252	0xbe291d78	-0.16515148
253	0x3e38a98d	0.18033428
254	0xbdad142f	-0.08451115
255	0xbc484993	-0.012224573

fc2.bias f4 [2]
0	0xbd194b55	-0.037425358
1	0x3da24ab9	0.079244085
