saved_models/train_20240430_222753/best_target_net.pth (torch, 5776 bytes, 4 tensors)

fc1.weight f4 [128, 4]
0	0xbe01fd43	-0.12694268
1	0xbe1764ba	-0.14784518
2	0xbdef84dc	-0.11695263
3	0xbd849b3b	-0.0647492
4	0xbcd62128	-0.026138857
5	0x3c268d29	0.010165491
6	0x3d681a74	0.056665853
7	0xbc98c8bd	-0.018650407
8	0x3d570d7d	0.052503098
9	0x3e002172	0.12512758
10	0x3e356a52	0.17716339
11	0xbd520d53	-0.05128224
12	0xbe0d905d	-0.13824601
13	0x3c11be57	0.008895478
14	0x3e0e9cce	0.13927004
15	0xbe09d171	-0.13458802
16	0xbd04c8a4	-0.03241791
17	0xbe450979	-0.19241895
18	0xbd2cbf3d	-0.042174567
19	0x39c6cf47	0.00037919937
20	0x3d8a6a41	0.067585476
21	0xbe099d16	-0.1343883
22	0x3e51be71	0.20482804
23	0x3e4b5fd8	0.1986078
24	0xbdff7ae4	-0.124746114
25	0x3d9da0fb	0.0769672
26	0xbc107469	-0.008816817
27	0x3ba84831	0.005135559
28	0x3e2c30b9	0.16815461
29	0xbe37871a	-0.17922631
30	0x3ce4e39b	0.027940562
31	0x3e3f88a6	0.18704471
32	0xbe45d623	-0.19319968
33	0xbca89af7	-0.020581705
34	0x3e590bd3	0.21195917
35	0x3d9e928d	0.07742796
36	0x3db0b4d2	0.08628239
37	0x3e2d9a76	0.16953453
38	0xbe490de9	-0.19634213
39	0xbda33976	-0.07969944
40	0xbdf66b11	-0.1203214
41	0xbdaf6da0	-0.08565831
42	0x3e2082b9	0.15674867
43	0x3c8270b9	0.015922891
44	0xbd6e6ff4	-0.058212236
45	0xbc93b555	-0.018030802
46	0x3e069950	0.13144422
47	0xbe2da73a	-0.16958323
48	0xbe318686	-0.17336473
49	0x3d2de2a2	0.042452462
50	0x3cb89cd8	0.022535726
51	0xbde3a33f	-0.11115121
52	0xbe22d95d	-0.1590323
53	0xbcb7b925	-0.022427151
54	0x3de84ef8	0.11343187
55	0x3da95920	0.08268952
56	0xbd2ab69a	-0.04167805
57	0xbbf5eaf9	-0.0075048176
58	0xbd70ea77	-0.058817353
59	0xbe33bd25	-0.17552622
60	0x3d2d430d	0.042300273
61	0xbd171c64	-0.03689231
62	0xbd17ff28	-0.03710857
63	0xbe477b4c	-0.19480628
64	0xbcf7bfcd	-0.030242825
65	0x3e355029	0.1770636
66	0xbd2e9db7	-0.042630877
67	0x3e3b3706	0.18282709
68	0x3e04bb2d	0.12962027
69	0xbe46cfb2	-0.19415167
70	0x3df5eceb	0.12008079
71	0x3dc91391	0.09818185
72	0xbdae2545	-0.08503202
73	0xbe3ef86b	-0.18649451
74	0xbe15d402	-0.14631656
75	0xbe1fc4cd	-0.15602417
76	0xbdf9ce13	-0.12197509
77	0x3d600fa8	0.05470243
78	0xbd54c174	-0.051942304
79	0xbd641d70	-0.055692136
80	0x3e571ef4	0.21007901
81	0xbc496c68	-0.0122939125
82	0x3e094a20	0.13407183
83	0x3e393cac	0.1808955
84	0x3ddf8a08	0.10914999
85	0x3dfd56e3	0.12370088
86	0x3dd1bcc3	0.102410816
87	0x3d1ebfae	0.03875702
88	0xbe3f8db3	-0.18706398
89	0x3d1e5529	0.038655434
90	0x3e55f7b2	0.2089527
91	0xbe4b17a7	-0.19833241
92	0xbe368c36	-0.17826924
93	0x3da0e4ac	0.07856116
94	0x3e1f2a18	0.15543401
95	0xba5ea0d1	-0.00084925914
96	0x3e16089f	0.14651726
97	0x3e41a8c1	0.18912031
98	0x3e184bc7	0.14872657
99	0x3d540d76	0.05177065
100	0x3ddb03ed	0.10694108
101	0x3df2bac0	0.11852026
102	0xbdc1ed8c	-0.094691366
103	0x3e3ec800	0.18630981
104	0xbce21215	-0.027596513
105	0xbdc70ef8	-0.09719652
106	0xbe29b508	-0.16572964
107	0xbe573745	-0.21017177
108	0xbddc11b8	-0.10745567
109	0x3e09f8cf	0.13473819
110	0xbc91ee0b	-0.017813703
111	0xbe2533f8	-0.16133106
112	0x3e194c53	0.14970522
113	0x3db77dad	0.08959518
114	0xbe2ecd8a	-0.17070594
115	0xbbd62cd4	-0.0065361056
116	0xbe118c5b	-0.14213698
117	0xbe2b8012	-0.16748074
118	0x3cec405a	0.028839279
119	0x3db96207	0.090519
120	0xbd7c0f02	-0.06153775
121	0x3d25844f	0.040409382
122	0xbe338fec	-0.1753537
123	0xbe04c243	-0.1296473
124	0xbe14d738	-0.14535224
125	0x3dccbdf5	0.09997169
126	0xbe39d874	-0.18148977
127	0xbe065586	-0.13118562
128	0xbd5caaba	-0.053873755
129	0x3d4c07ce	0.04981213
130	0xbdd6ada4	-0.10482338
131	0xbc54a8b2	-0.012979673
132	0x3e14a1c9	0.14514841
133	0xbd6ce9e7	-0.057840254
134	0xbe0f7f7a	-0.14013472
135	0xbdfd6a4d	-0.12373791
136	0x3e3ee0bd	0.18640418
137	0xbdedd60c	-0.11613092
138	0x3d005449	0.03133038
139	0xbd0bb1d6	-0.034105144
140	0x3e00189f	0.12509392
141	0xbe103a3a	-0.14084712
142	0x3e58e7c3	0.2118216
143	0x3dd10be6	0.102073476
144	0x3ce80803	0.028324133
145	0xbdbabf1e	-0.09118484
146	0xbe413f41	-0.18871786
147	0xbdab7531	-0.08371962
148	0x3de24ddb	0.11050006
149	0xbde49364	-0.11160925
150	0xbd2b3c25	-0.041805405
151	0xbe1ac2c7	-0.15113364
152	0x3d8e6d18	0.06954402
153	0x3e4590cd	0.19293518
154	0xbe29fd83	-0.16600613
155	0x3e4404bf	0.19142435
156	0xbe20260c	-0.15639514
157	0x3e3bd4bb	0.18342869
158	0xbdb77da9	-0.08959515
159	0xbd9a32b6	-0.075292036
160	0xbe3e72fb	-0.18598549
161	0x3d939032	0.072052374
162	0xbe3c20b2	-0.18371847
163	0x3d911660	0.07084346
164	0x3d90f832	0.070785895
165	0x3df35cc5	0.11882929
166	0x3e136aa7	0.14396153
167	0xbb95c597	-0.0045706737
168	0x3e2aa040	0.16662693
169	0x3deb2fbc	0.11483714
170	0x3e291a6d	0.16513987
171	0x3c5c4982	0.01344526
172	0xbe12848b	-0.14308374
173	0x3dfa8d62	0.12233998
174	0xbe50fcb0	-0.20408893
175	0x3cced43d	0.025247687
176	0xbcbc974d	-0.023021365
177	0xbbcf3af3	-0.006324166
178	0x3e2a4707	0.16628657
179	0x3e0f3628	0.13985503
180	0xbe412ca2	-0.18864682
181	0xbcd4498e	-0.02591398
182	0x3e2755ec	0.1634137
183	0xbe47c022	-0.19506887
184	0xbe48598f	-0.19565414
185	0xbe3fd167	-0.18732224
186	0x3cb9858d	0.02264669
187	0x3d4dd2b8	0.050249785
188	0xbde1c784	-0.11024383
189	0xbd13c789	-0.036078963
190	0x3e1aa49d	0.15101857
191	0xbe0a3213	-0.13495664
192	0xbe4cf94f	-0.20016979
193	0x3e267eb9	0.16259278
194	0xbc84010f	-0.016113786
195	0xbe5792da	-0.21052113
196	0xbdb276b7	-0.08714049
197	0x3da104c3	0.07862236
198	0x3e0b99af	0.13632844
199	0x3b84fad3	0.004058221
200	0xbe0ac4a1	-0.1355157
201	0xbe2c5216	-0.16828188
202	0xbd5cc908	-0.053902656
203	0xbddc30fe	-0.10751532
204	0xbe1bac01	-0.15202333
205	0xbdb16da7	-0.08663493
206	0x3dc47880	0.09593296
207	0x3e3d2fa1	0.184752
208	0x3d7b4523	0.06134523
209	0xbdfb6e26	-0.122768685
210	0xbdf6eb7b	-0.12056633
211	0x3e06fa29	0.13181366
212	0x3d49fbeb	0.049312513
213	0xbd7bf5aa	-0.06151358
214	0x3e53eb65	0.20695265
215	0xbc787b6b	-0.015166144
216	0x3e0e1cad	0.13878126
217	0x3d3de3bc	0.046359763
218	0xbe4a7017	-0.19769321
219	0xbe45375d	-0.192594
220	0x3e1ea65b	0.15493147
221	0xbd9ee986	-0.07759385
222	0xbe02945b	-0.12751906
223	0xbc893fda	-0.01675408
224	0x3dba325a	0.09091635
225	0x3e2803a7	0.16407643
226	0x3e33aeb4	0.17547113
227	0x3d2b595b	0.041833263
228	0x3cd16560	0.025561035
229	0xbd985317	-0.07437723
230	0xbd708d97	-0.05872878
231	0xbcc17908	-0.023617283
232	0x3d6914d5	0.056904633
233	0x3e4f36af	0.20235704
234	0xbe245f8d	-0.16052075
235	0xbdf9e021	-0.12200952
236	0xbe0e7ba5	-0.13914354
237	0x3d7fb955	0.062432606
238	0x3ca42f67	0.020042134
239	0xbe16b8fc	-0.14719003
240	0x3e522458	0.20521677
241	0xbe4b273d	-0.19839187
242	0xbe2a6f37	-0.16643988
243	0x3e4195ef	0.18904851
244	0x3d68c999	0.056832884
245	0xbd0d1582	-0.03444434
246	0x3d68fd02	0.056881912
247	0xbda40f39	-0.08010716
248	0xbe2b9694	-0.1675666
249	0xbdb2bc05	-0.08727268
250	0xbd3b2641	-0.04569078
251	0xbde88e5e	-0.113552794
252	0x3ca12bef	0.01967427
253	0xbe55edfb	-0.20891564
254	0xbe36447a	-0.17799559
255	0xbe12cba3	-0.14335494

fc1.bias f4 [128]
0	0x3ef75684	0.48308194
1	0x3ea0c312	0.31398827
2	0x3ed06c3a	0.4070757
3	0xbef4f772	-0.47845036
4	0xbd3a28d0	-0.045449078
5	0xbe408384	-0.18800169
6	0xbe9d9d60	-0.3078413
7	0xbedf5e48	-0.43626618
8	0xbedf54b8	-0.43619323
9	0x3e9dfa1a	0.30854875
10	0xbef547ec	-0.47906435
11	0xbc7a5040	-0.015277922
12	0xbefb36be	-0.49065202
13	0xbe84e05c	-0.25952423
14	0xbee965e2	-0.45585543
15	0xbec11922	-0.37714487
16	0xbd6d6f50	-0.057967484
17	0x3ba1b380	0.004934728
18	0xbda4d8a0	-0.080491304
19	0xbeea2e92	-0.45738655
20	0x3efd6b34	0.49495852
21	0x3e5031f8	0.20331562
22	0x3c9620c0	0.018326163
23	0x3ed8485a	0.422427
24	0x3eb8e8d4	0.36115134
25	0x3e29b768	0.1657387
26	0xbde0b920	-0.1097281
27	0xbb565b00	-0.0032708049
28	0xbdae4240	-0.0850873
29	0xbeafc7c6	-0.34332103
30	0xbc2b9c80	-0.010474324
31	0xbe11ec74	-0.14250356
32	0x3e763acc	0.24045867
33	0x3cb0f680	0.021601915
34	0xbd926fe0	-0.07150245
35	0xbec40868	-0.38287663
36	0x3ee42c46	0.44565028
37	0xbe2648e0	-0.16238737
38	0x3c410640	0.011781275
39	0xbee6b7a8	-0.45061994
40	0xbefa5556	-0.4889323
41	0x3e8a2e32	0.2698837
42	0x3ef20168	0.47266698
43	0xbe17a700	-0.14809799
44	0xbd0855b0	-0.033284843
45	0x3d6d4a00	0.0579319
46	0xbdb9f748	-0.09080368
47	0x3e8dc8c6	0.2769224
48	0xbeaed89e	-0.3414964
49	0x3eb28b64	0.34871972
50	0x3ddccec0	0.10781622
51	0x3ef48d10	0.47763872
52	0x3e8ca49c	0.27469337
53	0x3ef20f56	0.47277325
54	0xbe1cb060	-0.15301657
55	0xbe7832c4	-0.24238116
56	0x3e863cd8	0.26218295
57	0x3dfc47d0	0.12318385
58	0xbead9a78	-0.33906913
59	0x3e1a0068	0.15039217
60	0x3e5e85a0	0.21730661
61	0xbecb25cc	-0.39677274
62	0x3ef0ddb6	0.47044152
63	0xbcfc6820	-0.03081137
64	0x3e1c9840	0.15292454
65	0x3eeea980	0.46613693
66	0xbe8f1fa2	-0.2795382
67	0xbea742ac	-0.32668054
68	0x3e0f2878	0.13980281
69	0xbeaef4ec	-0.34171236
70	0xbef07ebc	-0.4697169
71	0x3dfca038	0.12335247
72	0xbe484348	-0.19556916
73	0x3eb493ea	0.352691
74	0xbe8f30b6	-0.2796685
75	0xbeba072c	-0.36333597
76	0x3ea17cf2	0.31540638
77	0x3e2ebd18	0.17064321
78	0x3e9c62fc	0.3054427
79	0xbef0bc96	-0.4701888
80	0x3e5a6528	0.2132765
81	0xbedab922	-0.4271937
82	0xbeaae4f8	-0.33377814
83	0xbed2f7d2	-0.41204697
84	0xbe81672e	-0.25274032
85	0x3ea1d16c	0.3160509
86	0x3e62a278	0.2213229
87	0xbe9fbfa0	-0.31200886
88	0xbe24959c	-0.16072696
89	0xbd93f5f0	-0.07224643
90	0xbddece60	-0.10879207
91	0x3e90b782	0.28265005
92	0xbe2f97a0	-0.17147684
93	0x3d1c3090	0.03813225
94	0x3e2a0490	0.16603303
95	0xbe9850c8	-0.2974913
96	0x3eb15c62	0.34640795
97	0xbeb9222c	-0.36158884
98	0xbedfa142	-0.43677717
99	0xbe22c20c	-0.15894336
100	0xbefff048	-0.49988008
101	0xbecd2f54	-0.4007517
102	0x3ec4ae84	0.38414395
103	0xbe9a88be	-0.3018245
104	0xbe8b53f4	-0.2721249
105	0xbd14aa60	-0.036295295
106	0xbe297e40	-0.16552067
107	0x3c6f80c0	0.014618099
108	0x3d3401f0	0.04394716
109	0xbea8cd4c	-0.3296913
110	0xbeb32c58	-0.3499477
111	0xbe615154	-0.2200368
112	0xbecbb8ca	-0.3978942
113	0xbece02c4	-0.40236485
114	0x3cc89b40	0.024488091
115	0xbeb35058	-0.35022235
116	0x3ea170fe	0.3153152
117	0xbebed2cc	-0.372702
118	0x3ecddc1e	0.40207
119	0x3e0c61a8	0.13709128
120	0x3eb8c1b8	0.36085296
121	0xbef9d828	-0.48797727
122	0x3e26d200	0.16291046
123	0x3e9fb462	0.3119231
124	0xbe001008	-0.12506115
125	0x3ee6027e	0.44923776
126	0x3da761b8	0.08172935
127	0xbe821e86	-0.25413913

fc2.weight f4 [2, 128]
0	0x3e323b2b	0.17405383
1	0xbe015125	-0.1262861
2	0xbe571ba0	-0.21006632
3	0x3cb6ec38	0.022329435
4	0x3d8996e0	0.0671823
5	0x3e251961	0.16122963
6	0xbdccf8f5	-0.10008422
7	0xbcd5aaa1	-0.026082339
8	0x3e4bf7e1	0.19918777
9	0xbe22f001	-0.15911867
10	0x3e0a9aa8	0.13535559
11	0x3b07a2d6	0.0020696423
12	0xbcd813e7	-0.026376678
13	0x3c39cce3	0.011340353
14	0x3d17a5d3	0.037023377
15	0x3dd05576	0.101725504
16	0xbce09a83	-0.027417427
17	0xbe593acd	-0.21213837
18	0xbdcda9d8	-0.10042161
19	0x3e38c984	0.18045622
20	0xbcba2220	-0.02272135
21	0x3c21b044	0.009868685
22	0xbd574315	-0.05255421
23	0xbcfa09a9	-0.030522184
24	0x3de4f4c4	0.11179498
25	0xbd5dd3a7	-0.054156926
26	0x3cff09f7	0.031132681
27	0x3ca14a0e	0.019688632
28	0x3e3de9ef	0.1854627
29	0xbe21d6c4	-0.15804583
30	0xbe40402c	-0.1877448
31	0xbddb9a0f	-0.10722744
32	0xbe3fa8ab	-0.18716685
33	0x3e1d6517	0.15370594
34	0x3de1e472	0.110299006
35	0xbcd5219e	-0.026017006
36	0x3bd63c72	0.0065379674
37	0x3e1fee6c	0.15618294
38	0xbe53e79e	-0.20693824
39	0x3cf2670b	0.02959015
40	0x3e293671	0.16524674
41	0x3c81e474	0.015856005
42	0x3d7441b8	0.059632987
43	0xbd4e6f36	-0.050399028
44	0x3e0e52f0	0.13898826
45	0xbd3c3516	-0.045949064
46	0x3d203bee	0.039119653
47	0xbe276889	-0.16348471
48	0x3d6b90d7	0.057511177
49	0xbc75c737	-0.01500111
50	0x3da75c10	0.081718564
51	0xbdba86fa	-0.09107776
52	0x3e51379f	0.20431374
53	0xbdf733d1	-0.1207043
54	0x3dfaec5a	0.12252112
55	0xbbf3133c	-0.0074180644
56	0xbc11fa22	-0.008909734
57	0x3d291a84	0.041285053
58	0xbe1a45c9	-0.15065683
59	0x3dad6b2e	0.084677085
60	0xbe4691be	-0.19391534
61	0x3d7c3ebb	0.061583262
62	0xbcfcfb76	-0.030881625
63	0x3dc82fdd	0.09774754
64	0xbe478bda	-0.19486943
65	0x3c275900	0.01021409
66	0xbbbad688	-0.0057018436
67	0x3d971f98	0.07379073
68	0xbd8edd46	-0.06975798
69	0x3e32689b	0.17422716
70	0x3da224aa	0.07917149
71	0xbe51ebac	-0.20500058
72	0xbcf3258c	-0.02968099
73	0x3d35e72b	0.044409912
74	0xbe43e793	-0.19131307
75	0x3dca1f2a	0.09869225
76	0x3d7fe587	0.062474754
77	0x3e0f1340	0.13972187
78	0x3e4b45b0	0.19850802
79	0xbdd4278d	-0.10359106
80	0xbda4f587	-0.08054643
81	0x3e371c42	0.17881873
82	0xbde44fe8	-0.111480534
83	0xbe091798	-0.13387907
84	0xbde832d5	-0.113378204
85	0xbd8e3beb	-0.06945022
86	0x3d92445c	0.07141945
87	0x3e0fe9f3	0.14054088
88	0x3df6ad09	0.120447226
89	0xbdd423ce	-0.10358392
90	0x3db0e7ab	0.08637937
91	0xbde9368d	-0.11387358
92	0xbca86e3f	-0.020560382
93	0x3cb0a776	0.021564227
94	0x3e1fbcbc	0.1559934
95	0x3da0940a	0.07840736
96	0xbe46100e	-0.19342062
97	0x3d7f5a51	0.06234199
98	0xbd6bc77d	-0.057563294
99	0x3d95ac21	0.073082216
100	0xbaeae273	-0.001792027
101	0x3bc15aef	0.0059007327
102	0x3db9ca5a	0.090717986
103	0x3cc5a76d	0.024127686
104	0xbd62f5a2	-0.055410035
105	0xbe2dc74f	-0.16970561
106	0xbe141b1c	-0.14463466
107	0xbe5666ad	-0.20937605
108	0x3d88a824	0.06672695
109	0x3c845387	0.01615311
110	0x3db3f789	0.08787448
111	0x3dfdbd07	0.1238957
112	0xbd374b04	-0.044749275
113	0xbd8cd442	-0.068764225
114	0xbdf44e7a	-0.11929031
115	0xbd152401	-0.03641129
116	0x3db2253c	0.08698508
117	0x3e061164	0.13092571
118	0xbc18ce3e	-0.009326516
119	0xbe076dd8	-0.13225496
120	0x3d89192c	0.06694254
121	0x3e0a0ad7	0.13480698
122	0xbd0caa72	-0.034342237
123	0xbe294841	-0.16531469
124	0xbdca0788	-0.09864718
125	0x3d95ba48	0.07310921
126	0x3e5758a5	0.21029909
127	0x3ccf96b0	0.025340408
128	0xbe0b4812	-0.13601711
129	0xbe4cb543	-0.19991021
130	0x3daf4344	0.08557752
131	0xbd60c1fd	-0.0548725
132	0xbe0e302d	-0.13885565
133	0x3d8bb54b	0.06821688
134	0xbdb6993e	-0.089159474
135	0xbe0c0210	-0.13672662
136	0x3c462de9	0.012095907
137	0x3e0b8451	0.13624693
138	0xbde37979	-0.111071534
139	0xbdb05ced	-0.08611474
140	0xbd32f678	-0.043692082
141	0x3d4145b2	0.047185607
142	0x3d78eef7	0.06077477
143	0x3ddec92e	0.10878216
144	0xbe46bdce	-0.19408342
145	0xbe22b51a	-0.15889397
146	0xbe40b3e3	-0.18818621
147	0x3de3695c	0.1110408
148	0xbc947340	-0.018121362
149	0xba1bf4d6	-0.0005949264
150	0xbdcfbfca	-0.10144003
151	0x3ce2615f	0.02763432
152	0x3dc83de5	0.097774304
153	0x3d0f4ba8	0.03498426
154	0x3d7a20f8	0.061066598
155	0xbdd7dc12	-0.10540022
156	0x3cafa95e	0.021443065
157	0xbe150e24	-0.14556175
158	0x3e1ade80	0.1512394
159	0xbc2148b7	-0.009843997
160	0x3e495fc1	0.19665433
161	0xbe20873c	-0.15676588
162	0x3da5c76f	0.080946796
163	0xbe51bb65	-0.20481642
164	0x3e30fb0d	0.17283268
165	0xbe3dfd65	-0.18553694
166	0xbd0384ab	-0.032108944
167	0x3d902fc2	0.07040359
168	0x3e52bf98	0.205809
169	0xbd813a78	-0.0630998
170	0xbe394620	-0.18093157
171	0xbc7bee46	-0.015376633
172	0x3de24e40	0.11050081
173	0xbe4e6b4e	-0.20158121
174	0x3e3f7063	0.18695216
175	0xbdb269ea	-0.08711608
176	0xbe4b6ecf	-0.19866489
177	0xbdf6e9b6	-0.120562956
178	0xbba3919a	-0.0049917223
179	0x3d94dd9f	0.07268833
180	0x3d06a615	0.032873232
181	0x3e366dda	0.17815343
182	0x3dad1ba7	0.0845254
183	0x3d78944e	0.06068831
184	0xbde8e4b3	-0.11371746
185	0xbe12d8f2	-0.1434057
186	0x3d292feb	0.041305464
187	0xbd80cb8c	-0.062888235
188	0xbd19501c	-0.037429914
189	0xbdc1c8bb	-0.094621144
190	0xbd909249	-0.07059152
191	0x3d7f652a	0.062352337
192	0xbe55a8e5	-0.2086521
193	0xbc99c74a	-0.018771786
194	0xbe5b8d8f	-0.21440719
195	0xbe446f00	-0.19182968
196	0x3d2e35cf	0.042531785
197	0xbcf33ad1	-0.029691132
198	0x3d75da0a	0.06002239
199	0x3ddede4d	0.10882244
200	0xbb862c2a	-0.0040946202
201	0xbdf95220	-0.12173867
202	0x3e0895fd	0.13338466
203	0xbe309276	-0.1724337
204	0x3caca78f	0.021075992
205	0xbe061240	-0.130929
206	0x3ddde050	0.108338
207	0xbdd53dc6	-0.10412173
208	0xbe122722	-0.1427274
209	0xbdb018fc	-0.085985154
210	0xbc4a3be2	-0.012343379
211	0xbe31fdbd	-0.1738195
212	0x3e18dcb2	0.14927939
213	0x3e5007d7	0.2031549
214	0xbdb458d4	-0.08806005
215	0xbcb01990	-0.021496564
216	0x3e01b119	0.12665214
217	0x3d786ad8	0.06064877
218	0xbd485eed	-0.048918653
219	0xbca801a5	-0.020508597
220	0x3e37534b	0.17902867
221	0xbe099893	-0.13437109
222	0x3cbbfeae	0.02294859
223	0x3e42e3a2	0.19032148
224	0x3d825cbc	0.06365344
225	0xbc76f924	-0.015074048
226	0xbd8e004d	-0.06933651
227	0xbbc8fa47	-0.006133351
228	0xbc6edf73	-0.014579642
229	0xbd36542c	-0.044513866
230	0x3d9075b0	0.07053697
231	0x3e517f62	0.20458749
232	0xbe4ab9fa	-0.19797507
233	0x3d0b287f	0.033974167
234	0xbe4eae3d	-0.20183654
235	0xbd8c6141	-0.06854487
236	0xbe2cc729	-0.16872849
237	0x3e08848f	0.13331817
238	0x3e565552	0.20930985
239	0x3af209b3	0.0018466025
240	0xbcfa3191	-0.030541213
241	0xbe4de1f2	-0.20105723
242	0xbdc9bcbb	-0.098504506
243	0x3e5a1c1c	0.21299785
244	0xbdeee1bf	-0.116641514
245	0xbcf68d2f	-0.030096618
246	0xbd4cd8ef	-0.05001157
247	0x3dc55ed6	0.09637229
248	0x3cc03c9d	0.023466403
249	0xbb5e71be	-0.0033942307
250	0xbde3bcda	-0.11120005
251	0xbd713057	-0.05888399
252	0x3b1938e8	0.0023379866
253	0x3cddfffd	0.027099604
254	0x3d9ff910	0.07811177
255	0x3e263f4c	0.16235083

fc2.bias f4 [2]
0	0xbd2c3fa7	-0.04205289
1	0xbce62384	-0.028093107
