saved_models/train_continued20000/online_net.pth (torch, 5672 bytes, 4 tensors)

fc1.weight f4 [128, 4]
0	0xbe143599	-0.14473571
1	0x3e5577d2	0.20846489
2	0xbf1a5994	-0.60292935
3	0xbf70defe	-0.9409026
4	0x3e8baf1c	0.27282035
5	0xbe820b1b	-0.25399098
6	0xbfdd6859	-1.7297469
7	0xbf51d51b	-0.819658
8	0x3f1b1a77	0.6058726
9	0x3e4f548e	0.20247099
10	0xbff01492	-1.8756278
11	0xbfa15f6d	-1.2607247
12	0x3dd32357	0.10309475
13	0xbe1d15d7	-0.15340362
14	0xbcb241cd	-0.021759892
15	0xbdd5f9cf	-0.10448038
16	0xbf59012a	-0.847674
17	0xbee184e8	-0.44046712
18	0x3ea7bc0f	0.32760665
19	0xbe0a85a8	-0.13527548
20	0xbf98cd5d	-1.1937672
21	0xbaed2f28	-0.0018095719
22	0x4013b211	2.3077433
23	0x3f04e540	0.5191231
24	0xbfebe96d	-1.8430611
25	0x3d4f4859	0.050606105
26	0x404749a6	3.1138701
27	0x3fa32a09	1.2747203
28	0xbfcc36ff	-1.5954283
29	0xbd6b208e	-0.057404093
30	0x401c4ff5	2.4423802
31	0x3edf0782	0.43560416
32	0xbf1cfab4	-0.6132004
33	0x3eb8eac9	0.36116627
34	0xbe37816f	-0.17920469
35	0xbf4c1cb6	-0.7973131
36	0xbfaea2f7	-1.3643483
37	0xbeb6753f	-0.35636327
38	0x3f09928f	0.53739256
39	0x3e6146c8	0.21999657
40	0x4016e8e5	2.3579648
41	0x3ea42575	0.32059827
42	0xbf9fe721	-1.249241
43	0xbf880409	-1.0626231
44	0xbfdad07f	-1.7094878
45	0xbe0f23d3	-0.1397851
46	0x3fcd16b5	1.6022555
47	0x3eb8427c	0.35988224
48	0xbfcaef37	-1.5854253
49	0xbe5a3835	-0.21310504
50	0x3f39e87e	0.7262038
51	0x3ee246dd	0.4419469
52	0x3e6be270	0.23035598
53	0xbd81aebe	-0.063321576
54	0xc0035dad	-2.0525925
55	0xbf56277b	-0.8365399
56	0x3fee4182	1.8613741
57	0x3ed13be6	0.4086601
58	0xbfd46ed4	-1.6596322
59	0xbf88de21	-1.0692788
60	0x3e14bce0	0.14525175
61	0x3f39d6d5	0.7259343
62	0xbefdcf2b	-0.4957212
63	0xbf82e103	-1.0224918
64	0xbf4ccb5b	-0.79997796
65	0x3dd30137	0.10302966
66	0x401a0664	2.40664
67	0x3f23f43f	0.64044565
68	0xbda3e4f1	-0.080026515
69	0xbdaaa326	-0.08331899
70	0x3e42bb70	0.19016814
71	0xbbe9efa8	-0.007139165
72	0xbf37b665	-0.71762687
73	0xbeb57c09	-0.35446194
74	0x3e2c9e38	0.1685723
75	0x3c1d7b4f	0.009611919
76	0xbe292503	-0.16518025
77	0x3e042666	0.12905273
78	0xbd4461d2	-0.04794485
79	0x3e103b0a	0.14085022
80	0xbe73509f	-0.23761223
81	0xbe2692a9	-0.16266884
82	0xbecb0f95	-0.39660326
83	0xbe5253df	-0.20539807
84	0xbf6697d4	-0.9007542
85	0xbec95b0d	-0.3932728
86	0xbbdcadf0	-0.006734602
87	0xbd3ec032	-0.04657001
88	0x3f79f036	0.9763216
89	0x3fce2303	1.6104435
90	0x40b9b592	5.8034143
91	0x3f8923c5	1.0714041
92	0x3e590a07	0.21195231
93	0xbe490cf7	-0.19633852
94	0xbe4bb914	-0.1989482
95	0xbe272acd	-0.16324921
96	0xbf88d50a	-1.0690014
97	0xbea3ab20	-0.31966496
98	0x3fa8989a	1.317157
99	0x3eaa8eb5	0.33312002
100	0xbfbb8606	-1.4650276
101	0xbd37586b	-0.044762056
102	0x400697d7	2.1030176
103	0x3f082938	0.53187895
104	0x3f3fb48c	0.7488487
105	0x3f83fcb9	1.03115
106	0x405fe78d	3.4985077
107	0x3fb5ab58	1.4192915
108	0xbf9d029f	-1.2266425
109	0xbe61f50f	-0.22066139
110	0x3f9cdf37	1.225562
111	0x3ece094c	0.40241468
112	0xbf4f0eb9	-0.8088184
113	0xbe8a0b52	-0.26961762
114	0x3e5af0a9	0.21380867
115	0x3e4140af	0.18872331
116	0x3f9c94a6	1.2232864
117	0x3ec292b4	0.3800255
118	0xbfb95e2e	-1.4481866
119	0xbfa5c96d	-1.2952095
120	0xbe6b8cab	-0.2300288
121	0xbe0575ca	-0.13033214
122	0xbe929c4a	-0.28634864
123	0xbdb0c67a	-0.086316064
124	0xbf8e8573	-1.1134475
125	0xbd3f13ac	-0.04664962
126	0x3fee1b56	1.8602092
127	0x3f076ce8	0.5290055
128	0x3dcc6947	0.099810176
129	0x3eb0f4ec	0.3456186
130	0xbf7e1add	-0.9925974
131	0xbf947230	-1.1597347
132	0xbf3775fe	-0.71664417
133	0xbe252bc3	-0.16129975
134	0x3d3de759	0.04636321
135	0x3d88aba2	0.06673361
136	0x3d49c601	0.049261097
137	0xbfb0368e	-1.3766649
138	0xbfcb5df5	-1.5888048
139	0x3ec80ac0	0.39070702
140	0xbfbf8971	-1.4963819
141	0xbe9348c2	-0.28766447
142	0x3f7c7ead	0.9863079
143	0x3eb7c459	0.3589199
144	0x3df64633	0.12025108
145	0xbdc74d8b	-0.09731587
146	0xbdbe1c8a	-0.09282787
147	0xbe1a9d77	-0.1509913
148	0x3e6fd690	0.23421693
149	0x3e538563	0.20656352
150	0x3e37bef2	0.17943934
151	0x3cfacfbb	0.030616632
152	0xbf2f2ab6	-0.68424547
153	0xbe8cef3e	-0.27526277
154	0x3e5aa1f9	0.2135085
155	0xbe00c7fa	-0.12576285
156	0x3edfbe2a	0.4369977
157	0x3e46d0e2	0.1941562
158	0xbe8020b9	-0.25024965
159	0xbf1a950b	-0.6038367
160	0xbf11f5f0	-0.57015896
161	0xbec2f50d	-0.38077584
162	0x3ea170e3	0.31531438
163	0xbe4a4bae	-0.19755432
164	0x3f8bf0f2	1.0932906
165	0xbf659608	-0.89682055
166	0xbfc78fa1	-1.5590707
167	0x3f055981	0.520897
168	0xbf50ed59	-0.81612164
169	0xbddf453e	-0.10901879
170	0x3d937100	0.071992874
171	0x3e1f8b10	0.15580392
172	0xbeaa79ec	-0.33296144
173	0xbf96a261	-1.1768304
174	0xc09a7c48	-4.827671
175	0xbf73fd6c	-0.95308566
176	0x3e3bc501	0.1833687
177	0x3e610472	0.21974352
178	0x3f0555b8	0.5208392
179	0xbc73a7fe	-0.014871595
180	0xbf797cfb	-0.9745633
181	0xbed57384	-0.41689694
182	0x3f90e542	1.1319964
183	0x3e791d1e	0.24327514
184	0xbdd8c8d0	-0.10585177
185	0xbd3f35e6	-0.04668226
186	0x3e03b46c	0.12861794
187	0xbe2af632	-0.16695479
188	0x3e1983f2	0.1499174
189	0xbe08f045	-0.13372906
190	0x3e2abceb	0.16673629
191	0xbd81620d	-0.0631753
192	0x3dcd4fd0	0.10024989
193	0xbe1a938c	-0.15095347
194	0xbfc58c95	-1.5433527
195	0xbf402a5b	-0.7506463
196	0x3d724afb	0.05915354
197	0x3d8115a0	0.06302953
198	0x3deabb1e	0.11461471
199	0xbc9d114d	-0.019173289
200	0xbf90f30d	-1.1324173
201	0xbc88a36b	-0.016679486
202	0x400d8a86	2.2115798
203	0x3efe8d25	0.4971706
204	0xbf4bf571	-0.7967139
205	0xbe76b2f7	-0.24091707
206	0x3ea60369	0.32424477
207	0x3e4ae229	0.19812836
208	0x3e729f35	0.23693545
209	0xbd561636	-0.052267276
210	0xbfee1e85	-1.8603064
211	0xbf2b3508	-0.66877794
212	0xbfc437d2	-1.5329535
213	0xbe850cce	-0.25986332
214	0x3f397d08	0.7245641
215	0x3ed6690b	0.41877016
216	0xbf0b7c3c	-0.5448644
217	0xbead0914	-0.3379599
218	0x3ee56da8	0.44810224
219	0xba95403d	-0.0011386942
220	0x3f336d8c	0.7008903
221	0x3f80eda4	1.0072522
222	0x40565db7	3.34947
223	0x3fbbecb7	1.4681615
224	0xbff0cb58	-1.8812056
225	0x3f2d0b22	0.6759511
226	0x404df78d	3.2182343
227	0x3fb28bef	1.3948954
228	0xc036de5a	-2.8573213
229	0xbedda32b	-0.4328855
230	0x3fe9ce58	1.8266096
231	0x3f2722a8	0.65287256
232	0xbd83cdcc	-0.06435737
233	0xbdd34f72	-0.10317887
234	0xbe01d6f4	-0.12679654
235	0xbc627664	-0.013822172
236	0xbfdc8512	-1.722811
237	0xbe406af0	-0.18790793
238	0x3f8de343	1.108498
239	0x3ee689a6	0.45026892
240	0xbf9527c4	-1.165276
241	0x3d627bd7	0.055293884
242	0x400d7f2e	2.2108874
243	0x3f0688e7	0.52552646
244	0xbf654107	-0.8955235
245	0xbe4df1ee	-0.2011182
246	0x3eac65a4	0.33671296
247	0xbd344d24	-0.04401888
248	0xbf058bdd	-0.5216654
249	0xbf2627a9	-0.64904267
250	0xbf3a7c43	-0.7284586
251	0xbdb4158d	-0.08793173
252	0xbf596102	-0.8491365
253	0xbe9ec85a	-0.3101223
254	0x3ed8d1dd	0.42347613
255	0xbdd449d0	-0.10365641

fc1.bias f4 [128]
0	0x3f25c06a	0.64746726
1	0x3f27187d	0.6527174
2	0x3f82ace3	1.0209011
3	0xbecc2c5e	-0.398776
4	0x3f5c9670	0.8616705
5	0x3f17bbc4	0.5927088
6	0xbecea13e	-0.40357393
7	0x3f164f93	0.5871517
8	0x3e9c1214	0.30482543
9	0x3f7d5fc9	0.9897428
10	0xbe176dd5	-0.14787991
11	0x3f844f50	1.0336704
12	0x3ec5eb14	0.38655913
13	0x3f56e023	0.83935755
14	0xbd85e512	-0.06537832
15	0x3d98498b	0.07435902
16	0x3f204711	0.6260844
17	0xbeef6fa0	-0.4676485
18	0x3f063f55	0.52440387
19	0xbed11994	-0.40839827
20	0x3f3648ea	0.7120501
21	0x3f81f978	1.0154257
22	0x3ebedb67	0.37276766
23	0xbeec0ba0	-0.4610262
24	0x3f961c32	1.1727355
25	0x3f562e53	0.83664435
26	0x3e2dc82b	0.1697089
27	0x3f95d37e	1.1705167
28	0x3f485d5b	0.7826745
29	0x3d914a09	0.07094199
30	0x3f2726af	0.652934
31	0x3f2e60e4	0.68116593
32	0x3f62e89d	0.8863619
33	0x3f294a41	0.6612893
34	0xbd7f2b2e	-0.06229704
35	0x3ebf7f10	0.37401628
36	0xbee84f96	-0.4537322
37	0xbf86bcc6	-1.0526359
38	0x3f5ea46e	0.8696965
39	0xbeff06e2	-0.4980994
40	0x3f4f2e7e	0.80930316
41	0x3f0c19ef	0.5472707
42	0x3f4e1fc8	0.80517244
43	0xbe88ab3f	-0.2669315
44	0xbf87b7a1	-1.0602914
45	0x3f91660f	1.1359271
46	0xbefd6dbe	-0.4949779
47	0xbe6cb544	-0.23116022
48	0x3f19935d	0.59990484
49	0xbedd56a6	-0.4323017
50	0x3f0c7b9c	0.5487611
51	0x3f43a3d9	0.76421887
52	0x3f20277b	0.6256024
53	0x3ec34719	0.3814018
54	0x3f0000bc	0.5000112
55	0x3e19f92f	0.15036462
56	0xbed59e59	-0.41722372
57	0xbebeaace	-0.3723969
58	0xbed2ec5a	-0.41195947
59	0x3f01d30d	0.5071266
60	0x3f02f8b6	0.5116075
61	0x3f13cb97	0.5773253
62	0xbe54768a	-0.20748344
63	0x3f331ab8	0.69962645
64	0x3f025e1a	0.5092484
65	0xbdf34962	-0.11879231
66	0x3f80e585	1.0070044
67	0x3f646df5	0.8923028
68	0x3f1cc08a	0.6123129
69	0x3f638075	0.88867885
70	0x3fd2e802	1.6477053
71	0x3e01aaa5	0.12662752
72	0x3f1c91d7	0.61160034
73	0xbee77f56	-0.45214337
74	0x3dcbfd60	0.09960437
75	0xbe0c689f	-0.13711785
76	0x3f1cac25	0.6120017
77	0x3d1c4760	0.038154006
78	0x3f4c5571	0.79817873
79	0x3f6ce4f9	0.92536885
80	0xbed500d8	-0.41602206
81	0xbdf76689	-0.12080104
82	0xbbfa367d	-0.00763589
83	0x3f0e3fdf	0.5556621
84	0xbe856554	-0.2605387
85	0xbfadee62	-1.3588374
86	0x3f2255a3	0.6341192
87	0x3fd9f9d1	1.7029363
88	0x3ed094a4	0.40738404
89	0x3f4b0147	0.79298824
90	0x3ea85a6e	0.32881492
91	0xbf771d07	-0.9652867
92	0x3d964152	0.073366776
93	0xbe9e1887	-0.30878088
94	0x3d514c8b	0.051098388
95	0x3f448cb8	0.7677722
96	0x3f311765	0.6917632
97	0x3ee5d5e7	0.44889757
98	0x3f2d08b9	0.67591435
99	0x3f366939	0.7125431
100	0x3f703d46	0.93843496
101	0x3f12ebb0	0.5739088
102	0x3f93ab1e	1.1536596
103	0x3f3d09a2	0.73842824
104	0x3f5dc5a6	0.8662971
105	0x3f5e59e7	0.8685593
106	0x3f4ac267	0.79202884
107	0xbe22f100	-0.15912247
108	0xbeb95355	-0.3619639
109	0x3eae1acb	0.34004816
110	0xbd372753	-0.044715237
111	0xbd3bcbd9	-0.0458487
112	0x3f6b0cd8	0.91816473
113	0xbe86b4f6	-0.26309937
114	0xbf079871	-0.5296698
115	0xbeddb266	-0.4330017
116	0x3f1dd9d0	0.6166048
117	0xbe7c11c8	-0.24616158
118	0x3f596376	0.8491739
119	0x3d832d4c	0.06405124
120	0xbea5f1fa	-0.32411176
121	0xbed1f98c	-0.41010702
122	0x3ec1cd65	0.37852016
123	0x3f3b45b3	0.7315323
124	0xbe35e89e	-0.17764518
125	0xbef3150a	-0.4747699
126	0x3f5b471a	0.8565537
127	0x3dfca0af	0.123353355

fc2.weight f4 [2, 128]
0	0x3f6fa0e9	0.93604904
1	0x3f543575	0.8289407
2	0x3f9d3b25	1.2283674
3	0xbdd5889e	-0.10426448
4	0x3eb545f6	0.35404938
5	0x3fa00f06	1.2504585
6	0xc018138c	-2.376193
7	0x3f9ed142	1.240761
8	0x3f15096a	0.5821749
9	0x3f4a2f5a	0.789785
10	0x3f2592ec	0.6467731
11	0x3f8c2c54	1.0951028
12	0x3f60aa30	0.87759686
13	0x3f5ea3b5	0.8696855
14	0x3f2d9e67	0.6781983
15	0x401c3e51	2.4413035
16	0x3fad9e2f	1.3563899
17	0xba87d88b	-0.0010364217
18	0x3ec324db	0.38114056
19	0x3dc90c64	0.098168164
20	0x3f0070f7	0.5017237
21	0x3e510e60	0.2041564
22	0xc04a0790	-3.1567116
23	0x3c8b3ec9	0.016997712
24	0x3f9c3ac7	1.2205437
25	0x3f8377f4	1.0270982
26	0xc033e951	-2.8111155
27	0x3f8f5c1f	1.1199988
28	0x3e5cafa1	0.21551372
29	0x3f64eaf8	0.89421034
30	0x3e68a098	0.22717512
31	0x3f7881ff	0.9707336
32	0x3f591603	0.8479921
33	0x3e303d38	0.17210853
34	0xbfa261b0	-1.2686062
35	0x3f80daf3	1.0066818
36	0x3e555b06	0.20835504
37	0x3f71943c	0.9436681
38	0x3e9dc714	0.30815947
39	0x4010c519	2.26203
40	0x3e88d062	0.26721483
41	0xbfb1120b	-1.3833631
42	0x3f0e2c5d	0.55536443
43	0xc054f894	-3.327672
44	0x3f633352	0.88750184
45	0x3f944081	1.1582185
46	0x3b27453c	0.0025523445
47	0x3dfc1f60	0.12310672
48	0x3f4666f1	0.77500826
49	0xbe02f94d	-0.12790413
50	0x3f9654d5	1.1744639
51	0x3eae9c67	0.341037
52	0x3f5e7625	0.86899024
53	0x3f872c8e	1.0560472
54	0x3e1e1248	0.15436661
55	0xc0290747	-2.6410692
56	0xc0311ec3	-2.7675025
57	0x4032b6aa	2.792399
58	0x3d3252d9	0.04353604
59	0x3f5f9484	0.8733599
60	0x3f9848f7	1.1897267
61	0x3f1cb77b	0.6121747
62	0xbfa288c8	-1.2697992
63	0x3f0ce234	0.5503266
64	0xc02d3347	-2.7062547
65	0xc024d7bc	-2.5756674
66	0x3dd88cfe	0.10573767
67	0x3eb74042	0.35791212
68	0x3fa55c62	1.2918818
69	0x3e12ec57	0.14347969
70	0xc02f0b84	-2.7350779
71	0x3f664061	0.89941984
72	0x3f93a801	1.1535646
73	0x3c690510	0.014222398
74	0xc040da4e	-3.0133243
75	0x3f76fdc5	0.9648097
76	0x3e93b5df	0.28849694
77	0x3f473481	0.7781449
78	0x3d783668	0.06059876
79	0x3e993a3a	0.29927236
80	0x3b9d3483	0.0047975197
81	0xc00d9391	-2.2121317
82	0x3f826e24	1.0189862
83	0x3fa91317	1.3208951
84	0xc067f9c3	-3.6246192
85	0x407fe4db	3.9983432
86	0x3efbe109	0.49195126
87	0xc0358a17	-2.8365533
88	0x3f8a184d	1.0788666
89	0x3eb16b5a	0.34652215
90	0xc0469007	-3.1025407
91	0xc01c15e6	-2.4388366
92	0xc016c335	-2.3556645
93	0xc04442a5	-3.0665677
94	0x3f0faaf8	0.5612025
95	0x3e6e1a67	0.23252259
96	0x3ec61018	0.38684154
97	0xc0660f8e	-3.5946994
98	0x3f6196be	0.8812064
99	0x3ea27fcd	0.3173813
100	0x3f1356eb	0.575545
101	0x3f5d3b11	0.86418253
102	0xc02bd716	-2.6850028
103	0x3e28645f	0.16444539
104	0x3e82e605	0.25566116
105	0x3eb703d6	0.35745114
106	0x3f6f5614	0.9349072
107	0xc0398e27	-2.8993013
108	0xc05cef85	-3.452119
109	0xc03d3637	-2.956434
110	0xbeb879ab	-0.36030325
111	0x3f3ed63b	0.7454564
112	0x3ea435e3	0.32072362
113	0xc00dd235	-2.215955
114	0x3fdd66e0	1.729702
115	0xbcc23ec4	-0.02371157
116	0x3fa27428	1.2691698
117	0xbe43c856	-0.19119391
118	0x3f41c4ee	0.75691116
119	0x402f8a6f	2.7428243
120	0x3e244472	0.16041735
121	0x3d9e4adb	0.07729121
122	0x3f826bad	1.018911
123	0x3eceee79	0.40416315
124	0x401eb105	2.4795544
125	0xc0477730	-3.1166496
126	0x3e30acba	0.1725339
127	0xc01e75b9	-2.4759352
128	0x3f73aa23	0.95181483
129	0x3f7bd970	0.9837866
130	0x3f9d4245	1.2285849
131	0xbcc42d43	-0.023947364
132	0x3eb6720f	0.35633895
133	0x3fa34ce4	1.275784
134	0xc010a30d	-2.2599518
135	0x3f880e90	1.0629444
136	0x3f16ad07	0.5885777
137	0x3f30f2d7	0.69120544
138	0x3f3ddfc5	0.7416957
139	0x3f9643dc	1.1739459
140	0x3f531a53	0.8246204
141	0x3f37ba44	0.71768594
142	0x3f731c47	0.9496502
143	0x401211ce	2.2823367
144	0x3f81fc45	1.0155112
145	0xbde44130	-0.11145246
146	0x3f05a9f4	0.5221245
147	0xbd9ed966	-0.07756309
148	0x3e583d31	0.21117093
149	0x3ef7ca03	0.4839631
150	0xc049eb0b	-3.154971
151	0xbe16c6c7	-0.14724265
152	0x3f8cc364	1.0997128
153	0x3f99c59d	1.2013432
154	0xc02ebf71	-2.7304347
155	0x3f9b10a1	1.211445
156	0x3e88e44f	0.26736686
157	0x3f7c3475	0.98517543
158	0x3e96a851	0.2942529
159	0x3f964046	1.1738365
160	0x3f609e8b	0.8774192
161	0x3ef88b0b	0.4854358
162	0xbfa57910	-1.292757
163	0x3f768669	0.96298844
164	0xbe52ec46	-0.20597944
165	0x3f811b93	1.008654
166	0x3d2a8e2e	0.0416395
167	0x4005af1c	2.0888128
168	0x3d09294a	0.033486642
169	0xbfa61bbd	-1.2977215
170	0x3e22b07d	0.15887637
171	0xc05fe008	-3.4980488
172	0x3f6d55f1	0.9270926
173	0x3f569781	0.83824927
174	0x3e08319d	0.13300176
175	0xbdf28aae	-0.11842857
176	0x3f289dac	0.6586559
177	0xbbf1d8dd	-0.0073805884
178	0x3f9ddb5c	1.2332568
179	0x3e8c54ec	0.2740854
180	0x3f44a8aa	0.7681986
181	0x3f63b2e5	0.88944846
182	0x3e3bbf41	0.18334676
183	0xc03289c1	-2.7896578
184	0xc039cb08	-2.903017
185	0x40323fd3	2.7851455
186	0xbd364e7a	-0.044508435
187	0x3fa3824a	1.2774136
188	0x3f92dad3	1.147303
189	0x3ebce1ae	0.3689093
190	0xbf9beb12	-1.2181113
191	0x3e3847f0	0.17996192
192	0xc02b667c	-2.6781301
193	0xc02a7c62	-2.6638417
194	0x3f07e57c	0.5308454
195	0x3eb636ed	0.3558878
196	0x3f95253c	1.1651988
197	0x3eb7aee9	0.35875633
198	0xc038a46e	-2.885036
199	0x3f93a1a7	1.1533707
200	0x3f77d764	0.96813035
201	0x3e4ce670	0.2000978
202	0xc0403010	-3.0029335
203	0x3f5e8bd2	0.869321
204	0x3e5cf82e	0.21579048
205	0x3ed1bc43	0.40963945
206	0x3e8dc159	0.27686575
207	0x3e8aa556	0.27079266
208	0x3c9619e2	0.018322889
209	0xc0162d52	-2.3465161
210	0x3f917643	1.1364216
211	0x3fa422a1	1.2823068
212	0xc0588a0f	-3.3834264
213	0x407c2483	3.9397285
214	0x3f3381ff	0.70120233
215	0xc03d8ad0	-2.9615974
216	0x3f732b5c	0.94988036
217	0x3e0f59c9	0.13999094
218	0xc03bbff7	-2.9335916
219	0xc0153386	-2.3312697
220	0xc00ff006	-2.2490249
221	0xc03d34bf	-2.9563444
222	0x3f43a634	0.7642548
223	0x3f157c31	0.58392626
224	0x3eb74f7c	0.3580283
225	0xc060b46f	-3.5110128
226	0x3f48b0e7	0.7839493
227	0x3f02b0cf	0.5105104
228	0x3f5de319	0.8667465
229	0x3f609624	0.87729096
230	0xc01dd718	-2.4662533
231	0x3eb88879	0.3604162
232	0x3ed13af9	0.40865305
233	0x3e724f3e	0.23663041
234	0x3f672838	0.90295744
235	0xc035d319	-2.8410094
236	0xc056e442	-3.3576818
237	0xc04f023d	-3.2345116
238	0xbe2f199c	-0.17099613
239	0x3f4858b7	0.7826037
240	0x3d491db0	0.049100578
241	0xc021a22a	-2.5255227
242	0x4000bb3f	2.0114286
243	0xbddebcaa	-0.108758286
244	0x3f9e37a8	1.2360735
245	0xbdd84603	-0.10560229
246	0x3f8b6c37	1.08924
247	0x402be2ab	2.6857097
248	0xbe3d76b7	-0.18502317
249	0x3d171190	0.036881983
250	0x3fab0864	1.3361936
251	0x3e41167a	0.1885623
252	0x4008341d	2.1281807
253	0xc048f0cc	-3.139697
254	0x3eb0c40b	0.3452457
255	0xc0152d5e	-2.330894

fc2.bias f4 [2]
0	0x3e9bd359	0.30434683
1	0x3e84cd7e	0.25938028
