saved_models/pole_DQN/train_DQN_pp_5/target_net.pth (torch, 5672 bytes, 4 tensors)

fc1.weight f4 [128, 4]
0.19856653 0.12574166 0.22247992 0.0435163 0.0615529 0.09386251 0.076420486 0.06471268
-0.017881867 0.030073456 0.12856622 0.015689526 0.08717392 0.20438032 0.028393198 0.23740157
0.26194856 -0.119359404 0.19543998 0.45472983 0.3637561 0.3808404 0.12594047 -0.21951348
0.34925961 0.47331548 -0.17076568 -0.15322359 0.2824898 0.110831074 -0.07644225 0.19975924
0.06329335 0.3001565 0.0693558 0.3273208 -0.46379173 -0.4204976 -0.09947524 0.45355645
0.22626892 0.11014642 0.43741384 0.34212762 0.29596168 0.21383028 0.25419575 0.027869148
-0.15275045 -0.116137855 0.19812919 -0.08764469 0.29194415 -0.06890866 0.47805905 0.28470328
1.1634885 -0.1223125 -2.0514975 -0.7602295 0.01682558 0.2925204 0.25213313 0.09991465
0.0766987 0.2625369 -0.13433447 0.1768259 0.12439588 -0.03430397 0.31577927 0.200989
0.3470873 0.08214672 0.13366093 0.04822264 -0.78930974 0.22709328 1.3352075 0.63854766
-0.089120135 0.017137192 0.15579952 0.0112786135 0.51722616 0.32008263 -0.11226477 -0.120153494
0.4356422 0.24654356 -0.16291097 -0.040969666 0.39621302 0.2787004 0.14518209 0.2843772
0.3348648 0.08009966 0.402452 0.36336914 0.48989183 0.50678116 0.053120494 -0.2448783
-1.4869545 0.2715353 1.4801369 0.82857424 -0.18745068 0.525038 0.010065237 -0.12439138
0.08173425 0.24965954 -0.0219366 0.19561417 0.25740814 0.14356802 0.0981396 -0.14142151
0.017742723 0.15018634 0.13325784 0.19234791 -1.387291 0.27661195 1.6197668 0.7599964
0.30301848 0.008275066 0.38444042 0.35419968 -1.0451772 0.07186603 1.885524 0.74800754
0.8259121 -0.28924432 -1.8483641 -0.92069346 0.45078894 -0.048180748 0.0318843 0.033382274
1.088307 -0.33217293 -2.022806 -0.7302027 -0.076437704 -0.33165306 -0.42671263 -0.3775762
0.09584495 0.24182089 0.23476629 0.056828495 1.4798046 -0.27588803 -1.888481 -0.5827699
0.14156127 0.24745768 0.13596085 0.20451796 0.10373324 0.06982624 0.28202128 0.3537242
0.2643902 0.46808589 -0.13866353 -0.18596965 0.093591884 -0.113738336 0.27723363 0.31383726
-1.2218285 0.3502136 1.3669617 0.8523163 0.5060166 -0.5723321 -0.9064972 -0.45933425
0.20124939 0.063173756 0.11249082 0.26181215 0.39799315 -0.007485636 -0.013173332 0.08061662
0.22995995 0.20538254 0.20601489 0.08259684 0.37388834 0.027336668 0.30798596 0.021436045
0.15187715 0.12920903 -0.04668782 -0.051128093 -1.4706105 0.08804126 1.7474144 0.72573173
-0.097191714 -0.09603259 0.07390125 -0.1729254 0.22135374 0.25988027 0.105301745 0.27396426
-1.2303354 0.13169762 1.9875013 0.9351324 -0.039509725 -0.12709069 0.1207036 -0.039283987
-1.7417094 -0.28082684 1.5211086 0.78606886 0.18530452 0.10692805 -0.018009214 0.12799372
0.037353843 0.5163699 0.29157522 -0.23155576 0.042113233 -0.13203762 0.34365818 0.31398955
0.009221892 -0.07647479 0.18804494 -0.050096605 -1.3534223 -0.09556454 1.8302436 0.93390894
1.1707696 -0.11378072 -2.0700266 -0.77159524 0.051570356 0.0475557 0.3057299 0.4032112
00000000: 0655 4b3e 6cc2 003e c7d1 633e 263e 323d
00000010: e51e 7c3d fd3a c03d 5882 9c3d 1588 843d
00000020: fe7c 92bc 9c5c f63c dda6 033e 5287 803c
00000030: 3d88 b23d 1349 513e da98 e83c 6619 733e
00000040: 1f1e 863e b472 f4bd 6b21 483e 59d2 e83e
00000050: 3d3e ba3e 83fd c23e 8af6 003e 24c8 60be
00000060: 28d2 b23e 6856 f23e 33dd 2ebe a5e6 1cbe
00000070: 81a2 903e 67fb e23d c18d 9cbd b08d 4c3e
00000080: f29f 813d 1dae 993e 6a0a 8e3d 9896 a73e
00000090: 1c76 edbe 764b d7be adb9 cbbd 8d38 e83e
000000a0: 0ab3 673e 7294 e13d b5f4 df3e 5a2b af3e
000000b0: 4a88 973e 53f6 5a3e f225 823e d74d e43c
000000c0: 9d6a 1cbe afd9 edbd 61e2 4a3e 0f7f b3bd
000000d0: b479 953e fc1f 8dbd 28c4 f43e a1c4 913e
000000e0: 31ed 943f fa7e fabd bc4b 03c0 679e 42bf
000000f0: ccd5 893c 3cc5 953e 9817 813e 0da0 cc3d
00000100: 3514 9d3d 3d6b 863e fa8e 09be d911 353e
00000110: 44c3 fe3d 5282 0cbd d2ad a13e 0fd0 4d3e
00000120: 6db5 b13e 8a3c a83d 69de 083e 1a85 453d
00000130: 3410 4abf 248b 683e 14e8 aa3f dc77 233f
00000140: 9e84 b6bd 4c63 8c3c e989 1f3e efc9 383c
00000150: ef68 043f dfe1 a33e 12eb e5bd 0913 f6bd
00000160: 7f0c df3e ea75 7c3e 22d2 26be cfcf 27bd
00000170: 6fdc ca3e d2b1 8e3e 9daa 143e e399 913e
00000180: 6673 ab3e 4a0b a43d 300e ce3e 850b ba3e
00000190: 1ad3 fa3e 69bc 013f e094 593d 61c1 7abe
000001a0: 8654 bebf ad06 8b3e 2075 bd3f 711d 543f
000001b0: 12f3 3fbe e468 063f aae8 243c e8c0 febd
000001c0: 4964 a73d c0a6 7f3e 62b4 b3bc 154f 483e
000001d0: 00cb 833e 7f03 133e 6afd c83d cdd0 10be
000001e0: 3059 913c 73ca 193e be74 083e daf6 443e
000001f0: c092 b1bf 15a0 8d3e 8554 cf3f 208f 423f
00000200: 3d25 9b3e 2494 073c 60d5 c43e a959 b53e
00000210: 5ec8 85bf 7f2e 933d da58 f13f 6c7d 3f3f
00000220: fa6e 533f d517 94be 3297 ecbf 91b2 6bbf
00000230: cfcd e63e 2d59 45bd 1d99 023d dabb 083d
00000240: a54d 8b3f 9212 aabe a775 01c0 90ee 3abf
00000250: 5f8b 9cbd 6ece a9be 147a dabe ab51 c1be
00000260: 5b4a c43d e59f 773e 9366 703e ffc4 683d
00000270: 3d6a bd3f 3241 8dbe bfb9 f1bf 6830 15bf
00000280: 70f5 103e 8c65 7d3e 5239 0b3e 286d 513e
00000290: 1872 d43d 0f01 8f3d 1865 903e 571b b53e
000002a0: 275e 873e f4a8 ef3e d0fd 0dbe d46e 3ebe
000002b0: 1aad bf3d a5ef e8bd 91f1 8d3e 47af a03e
000002c0: e064 9cbf 324f b33e 9af8 ae3f 6731 5a3f
000002d0: 4e8a 013f 5b84 12bf 3310 68bf dc2d ebbe
000002e0: 5214 4e3e 3e61 813d 9661 e63d 3e0c 863e
000002f0: c2c5 cb3e 114a f5bb f6d4 57bc 541a a53d
00000300: 9f7a 6b3e cd4f 523e 91f5 523e 8828 a93d
00000310: 4b6e bf3e 26f1 df3c 56b0 9d3e a59a af3c
00000320: af85 1b3e 5f4f 043e ba3b 3fbd b16b 51bd
00000330: f73c bcbf fa4e b43d 46ab df3f 8ec9 393f
00000340: 730c c7bd bcac c4bd 8a59 973d 5b13 31be
00000350: 8eaa 623e 070f 853e 71a8 d73d 0b45 8c3e
00000360: a17b 9dbf bedb 063e 7166 fe3f d664 6f3f
00000370: f3d4 21bd 1024 02be 7333 f73d 3fe8 20bd
00000380: 55f0 debf 89c8 8fbe b0b3 c23f cf3b 493f
00000390: 78c0 3d3e 18fd da3d 0f88 93bc c910 033e
000003a0: 5800 193d d130 043f 5949 953e f41c 6dbe
000003b0: ed7e 2c3d df34 07be f7f3 af3e 3dc3 a03e
000003c0: 6b17 173c d19e 9cbd da8e 403e 1932 4dbd
000003d0: f13c adbf 57b7 c3bd 6c45 ea3f a814 6f3f
000003e0: c7db 953f de05 e9bd 517b 04c0 4487 45bf
000003f0: 703b 533d c4c9 423d a188 9c3e b371 ce3e

fc1.bias f4 [128]
0.6524988 -0.465546 -0.4055444 0.4604365 0.8444412 0.45427397 0.48646313 0.6356451
0.6787036 -0.76416403 0.45301935 0.5410245 -0.39986444 0.54998773 -0.10190026 0.8616295
0.59294116 0.7653422 0.60023755 -0.10098749 -0.10718113 0.40523058 0.27358192 0.5912548
0.3625968 0.5795993 -0.10395767 -0.08771117 0.4988577 0.3200774 0.6795735 -0.08160747
0.558046 -0.10375707 0.047745414 0.3709133 -0.6666392 -0.12330267 0.58074075 -0.63433856
0.670133 0.5029834 0.4954972 0.65743524 -0.1213341 -0.25513396 0.7354008 0.5988507
0.72350466 0.8025439 -0.41117573 -0.11501837 -0.46177465 0.3698603 -0.14098558 -0.49624503
-0.05590661 0.5035543 0.47084254 0.69080734 0.4769969 -0.16490202 -0.5986336 0.62316597
0.66438895 0.42947572 0.23988597 -0.07699349 -0.11558348 -0.28605276 -0.26505923 0.7304131
0.81728697 -0.123309605 0.056101065 0.47351888 -0.31066263 0.50435054 -0.11281717 0.8125827
0.77836066 -0.83218026 0.2706718 0.7725985 0.026257025 0.7413557 -0.45538127 -0.33647186
0.6405019 0.46843725 0.36357367 -0.16719402 -0.027279884 0.46152857 0.41518503 0.6844061
0.21840313 0.22429626 0.5020632 0.53052825 0.51804394 0.5192885 0.008369235 -0.4029661
0.4485142 0.2439226 0.07546969 0.37834015 -0.4340319 -0.048858523 -0.30986947 0.7780956
-0.3386402 0.39764038 -0.44654125 0.70995146 0.3704941 0.68374264 0.8003715 0.4610987
0.8071884 0.30640066 0.53510624 0.4895034 0.4867115 0.79329437 -0.3479584 -0.47095472
00000000: 290a 273f 0c5c eebe 84a3 cfbe 55be eb3e
00000010: 4c2d 583f 9996 e83e b211 f93e a3b9 223f
00000020: 85bf 2d3f 41a0 43bf 27f2 e73e 9580 0a3f
00000030: 08bb ccbe ffcb 0c3f 15b1 d0bd c093 5c3f
00000040: feca 173f 77ed 433f 2ba9 193f 87d2 cebd
00000050: c881 dbbd 627a cf3e ee12 8c3e 795c 173f
00000060: 4aa6 b93e 9f60 143f c2e7 d4bd eaa1 b3bd
00000070: 476a ff3e 2fe1 a33e 87f8 2d3f d121 a7bd
00000080: 1adc 0e3f 967e d4bd b290 433d 59e8 bd3e
00000090: dea8 2abf 1c86 fcbd 6dab 143f 0364 22bf
000000a0: d68d 2b3f 85c3 003f cfb1 fd3e ad4d 283f
000000b0: 037e f8bd eba0 82be 3a43 3c3f 484e 193f
000000c0: 9a37 393f 8473 4d3f a085 d2be c08e ebbd
000000d0: ba6d ecbe 545e bd3e 865e 10be d413 febe
000000e0: 54fe 64bd efe8 003f 4612 f13e c0d8 303f
000000f0: f038 f43e 13dc 28be 0d40 19bf ce87 1f3f
00000100: 6515 2a3f 3ee4 db3e aba4 753e c3ae 9dbd
00000110: 08b7 ecbd 8275 92be d8b5 87be 5afc 3a3f
00000120: b839 513f bf89 fcbd 3bca 653d 1171 f23e
00000130: 2c0f 9fbe 1e1d 013f b00c e7bd 6b05 503f
00000140: a542 473f c409 55bf 7f95 8a3e 04c9 453f
00000150: f918 d73c 7dc9 3d3f bc27 e9be 0a46 acbe
00000160: eff7 233f 02d7 ef3e 5426 ba3e e934 2bbe
00000170: 107a dfbc 794d ec3e 2293 d43e 3d35 2f3f
00000180: 12a5 5f3e ebad 653e 3787 003f b3d0 073f
00000190: 879e 043f 17f0 043f 1e1f 093c 9351 cebe
000001a0: a7a3 e53e d9c6 793e da8f 9a3d cdb5 c13e
000001b0: 6e39 debe e01f 48bd 36a7 9ebe 4631 473f
000001c0: 4062 adbe 8597 cb3e 0ea1 e4be 61bf 353f
000001d0: 67b1 bd3e c209 2f3f 26e5 4c3f 2115 ec3e
000001e0: e6a3 4e3f 8ce0 9c3e b9fc 083f 31a0 fa3e
000001f0: 4032 f93e 5715 4b3f 9a27 b2be fa20 f1be

fc2.weight f4 [2, 128]
0.27701592 -0.08566741 0.14830573 0.35170096 0.23299623 0.61580175 0.45896173 0.43037727
0.4617066 1.5898677 0.18687819 0.44102463 0.16793375 0.24986678 -1.2191284 0.5069052
0.49964988 0.30473894 0.27152005 -1.2181842 -0.17032585 0.3436483 0.13665074 0.44385406
0.42712834 0.40087718 -1.1782393 0.60503733 0.30333966 0.3539336 0.36378035 -1.1589592
0.23714367 -0.9428221 -0.99069506 0.35275945 -1.1081235 -0.7596903 0.169403 -1.3932513
0.5287826 0.5580715 0.5390344 0.4653131 -1.0776637 -1.0999591 0.46066606 0.33828536
0.47335374 0.5116292 -0.23521276 -1.0250208 0.18792874 0.62610024 -1.1969684 -0.1145971
-0.9936887 0.4060807 0.16922064 0.20817527 0.35909787 -0.99687713 -1.1359456 0.23127457
0.55063957 0.67582595 0.001969696 -0.92497224 0.98069584 0.09458441 0.20469265 0.32118496
0.2217058 -1.1157805 -1.1650177 0.2494653 -1.1775542 0.29111105 -0.95777744 0.47521734
0.52049 1.434896 0.5245563 0.26467317 -1.0483301 0.1760309 0.016809655 -0.19572544
0.25162762 0.49866337 0.1497926 -1.1355205 -1.2938021 0.40801373 0.22336894 0.2086839
-0.926354 0.17116143 0.40886572 0.46656668 0.14966348 0.4839321 -1.0918684 -0.34461632
0.4717428 0.09845615 -0.96300954 0.49211714 0.06861092 0.06989661 -0.015816336 0.15065496
0.19555552 0.5307839 0.687849 0.25137544 0.100078136 0.21241307 0.33825943 0.39458153
0.12809588 0.46569574 0.62185496 0.22706178 0.3403995 0.51008385 0.2099377 -0.059459403
0.46192285 -0.020476276 -0.1958096 0.16449392 0.46481004 0.5049939 0.5637538 0.27599588
0.32637239 1.442723 0.50469977 0.09334792 0.20727588 0.46818042 -1.0233288 0.24874689
0.13938457 0.26560274 0.39644367 -0.8858779 0.14945436 0.51741064 0.20463282 0.13897529
0.73782444 0.4818514 -1.2614777 0.6410689 0.37955937 0.5161774 0.32549348 -1.0070792
0.6573808 -0.9664703 -0.8815621 0.07600401 -1.3267272 -0.67194676 0.30002558 -1.263862
0.17573988 0.60577804 0.65989006 0.2638235 -1.2110204 -1.4452424 0.15677431 0.35842067
0.4327838 0.32780477 0.040894713 -1.2397273 0.007756555 0.67021376 -0.8685413 -0.035670333
-1.1197045 0.29727313 0.43431374 0.28042293 0.3163238 -1.0314058 -1.1091193 0.53824025
0.4768479 0.7455971 0.12769753 -1.069351 0.8910448 -0.032266065 -0.02728428 0.44159254
0.28264233 -1.0576301 -1.1314743 0.17453358 -1.1049936 0.46824867 -1.1241508 0.32443047
0.21520033 1.3236876 0.13616231 0.3586976 -1.1354561 0.40491533 0.010928822 -0.14737357
0.47360885 0.3880977 0.18363743 -1.4503993 -1.2443676 0.21766086 0.5462719 0.37326467
-0.5935707 0.13581593 0.20826787 0.4490982 0.19681789 0.25018325 -1.0105969 -0.31538364
0.6019991 -0.037014823 -1.2042156 0.25693548 -0.08736442 -0.17654958 0.051017977 0.37858388
0.16393347 0.25201553 0.27626818 0.21063232 0.24211457 0.4197444 0.3123534 0.57621396
0.30564076 0.42254612 0.5904452 0.09988333 0.3015592 0.5218172 0.09534527 0.12762442
00000000: 08d5 8d3e 6572 afbd 75dd 173e 2612 b43e
00000010: 9096 6e3e 2fa5 1d3f 08fd ea3e 695a dc3e
00000020: cf64 ec3e c980 cb3f ff5c 3f3e fbcd e13e
00000030: d3f6 2b3e 14dd 7f3e 660c 9cbf 8ac4 013f
00000040: 1cd2 ff3e be06 9c3e ad04 8b3e 76ed 9bbf
00000050: e669 2ebe acf2 af3e 2cee 0b3e d740 e33e
00000060: 91b0 da3e c63f cd3e 8cd0 96bf bae3 1a3f
00000070: 564f 9b3e c936 b53e 6b41 ba3e c658 94bf
00000080: cad5 723e ca5c 71bf 319e 7dbf e39c b43e
00000090: fed6 8dbf 107b 42bf fb77 2d3e 0f56 b2bf
000000a0: 4c5e 073f c6dd 0e3f 29fe 093f 853d ee3e
000000b0: e2f0 89bf 76cb 8cbf 6cdc eb3e bd33 ad3e
000000c0: 6c5b f23e 22fa 023f 9ddb 70be e233 83bf
000000d0: 6470 403e 1b48 203f 4336 99bf e2b1 eabd
000000e0: 6262 7ebf cfe9 cf3e 2d48 2d3e e62b 553e
000000f0: addb b73e 5733 7fbf aa66 91bf 3ed3 6c3e
00000100: b7f6 0c3f ee02 2d3f 0416 013b fbca 6cbf
00000110: e20e 7b3f 79b5 c13d f39a 513e 5b72 a43e
00000120: d806 633e e5d1 8ebf 4d1f 95bf d573 7f3e
00000130: 19ba 96bf 820c 953e e730 75bf b04f f33e
00000140: d53e 053f acaa b73f 5249 063f 3e83 873e
00000150: ae2f 86bf 7241 343e 67b4 893c 406c 48be
00000160: 56d5 803e ce50 ff3e 3b63 193e bc58 91bf
00000170: 4f9b a5bf 2de7 d03e d4ba 643e 3bb1 553e
00000180: 8925 6dbf f144 2f3e d956 d13e d4e1 ee3e
00000190: 6241 193e f3c5 f73e 58c2 8bbf 8d71 b0be
000001a0: 4688 f13e 61a3 c93d cb87 76bf c7f6 fb3e
000001b0: e283 8c3d f425 8f3d 4391 81bc 4b45 1a3e
000001c0: b53f 483e 74e1 073f df16 303f 48b4 803e
000001d0: c4f5 cc3d d082 593e 5730 ad3e 9706 ca3e
000001e0: 912b 033e ac6f ee3e e331 1f3f e282 683e
000001f0: d848 ae3e db94 023f e9f9 563e b48b 73bd
00000200: 2781 ec3e ddbd a7bc 5082 48be 1871 283e
00000210: 95fb ed3e 4847 013f 2b52 103f 554f 8d3e
00000220: 481a a73e 26ab b83f 0134 013f 322d bf3d
00000230: 2140 543e 58b5 ef3e 70fc 82bf 81b7 7e3e
00000240: d4ba 0e3e 15fd 873e aafa ca3e e5c8 62bf
00000250: 900a 193e 0675 043f 448b 513e 8a4f 0e3e
00000260: 10e2 3c3f 3ab5 f63e 1a78 a1bf 171d 243f
00000270: 9b55 c23e 3424 043f 15a7 a63e f9e7 80bf
00000280: 1c4a 283f 996a 77bf 0eae 61bf fea7 9b3d
00000290: 32d2 a9bf b404 2cbf f49c 993e 3bc6 a1bf
000002a0: 28f5 333e 4514 1b3f 8eee 283f e013 873e
000002b0: b702 9bbf b4fd b8bf 7289 203e ea82 b73e
000002c0: d795 dd3e 07d6 a73e 3781 273d 62af 9ebf
000002d0: b32a fe3b 2193 2b3f b958 5ebf 0e1b 12bd
000002e0: 7a52 8fbf 2f34 983e 5f5e de3e 9893 8f3e
000002f0: 31f5 a13e 1b05 84bf 9ff7 8dbf 1dca 093f
00000300: 6825 f43e 74df 3e3f 24c3 023e 7ee0 88bf
00000310: 831b 643f 6c29 04bd 4883 dfbc 6b18 e23e
00000320: 7fb6 903e 6c60 87bf 26d4 90bf eeb8 323e
00000330: 6e70 8dbf 4abe ef3e 2ce4 8fbf c01b a63e
00000340: 7a5d 5c3e 986e a93f 226e 0b3e 36a7 b73e
00000350: a056 91bf 1051 cf3e cd0e 333c 19e9 16be
00000360: dc7c f23e beb4 c63e 730b 3c3e afa6 b9bf
00000370: 7047 9fbf 7de2 5e3e 7ad8 0b3f 8c1c bf3e
00000380: 40f4 17bf 5513 0b3e 2c44 553e 33f0 e53e
00000390: a18a 493e 0518 803e 3d5b 81bf f779 a1be
000003a0: 9d1c 1a3f db9c 17bd bd23 9abf 0c8d 833e
000003b0: 1eec b2bd 6ac9 34be 3af8 503d bfd5 c13e
000003c0: 2dde 273e 2e08 813e 0673 8d3e 00b0 573e
000003d0: e2ec 773e bde8 d63e c9ec 9f3e c282 133f
000003e0: f27c 9c3e f757 d83e 6b27 173f a28f cc3d
000003f0: f865 9a3e d095 053f 6244 c33d faaf 023e

fc2.bias f4 [2]
0.34164557 0.31826556
00000000: 2bec ae3e b4f3 a23e
