saved_models/pole_DQN/train_DQN_pp_4/best_online_net.pth (torch, 5712 bytes, 4 tensors)

fc1.weight f4 [128, 4]
00000000: 156f 1c3e 37ac b53d 3fe5 7ebe 0368 bfbc
00000010: 6384 a23d e4db 033e ce43 963b fb0e 173e
00000020: 01c2 2abe 77a8 1a3d 11b3 a23d 28e7 4bbd
00000030: 0d27 153e 6c84 423e 01ec 93bd 65da 673e
00000040: bc01 593e c9af 34be bef3 febe bc8b e7bc
00000050: 3353 853d 6390 da3e 5ee7 ba3d 179a 9bbe
00000060: 487c 2f3f a00c c0bd aca5 0ac0 0611 66bf
00000070: 110b d63e 9822 fa3d c4eb 80be 1faa 423e
00000080: 7aa0 373e e7b0 a1be 8de6 75be b1b4 883e
00000090: 68b1 e73d d9f3 453f 1f9a c43e 255c c8be
000000a0: 23af d23e 54a3 1e3e 701a 2ebe 1bc6 df3c
000000b0: 4643 ca3e fcf4 ef3c 4d67 b5be 70a5 fd3d
000000c0: 79ec a83c c2a3 db3d 7df7 95bd ad05 3a3e
000000d0: b702 893b 575c 9cbd 3a65 06be 8b41 aa3d
000000e0: ecad 3f3e c372 44be ed34 e5be 9051 0d3e
000000f0: 7da2 1a3e 804e 373f 69e8 08bb f32a abbe
00000100: 1ef9 453d 4ee0 f53e f6a4 fe3e 2cb2 02bf
00000110: b0ed 403e 429d 163d d6e5 3ebe 94c6 663e
00000120: 369d c23e 5cda 663d b44a 87be 1662 0e3d
00000130: 5abc 193e e227 833c 8872 853c 9da2 883d
00000140: 013b 703e f177 7ebd 66ae 90bd 6b8e e7bd
00000150: 9865 b13e 833f a0be 398d c5bf aee3 0ebf
00000160: ec96 443f a9db a6be d3cf febf f5ae 36bf
00000170: 8338 493e ead0 f53d 17e2 95bd 11f5 823e
00000180: dc61 f3bd b4e8 26be 5f36 2fbe f109 27be
00000190: 41ef b03e 6551 9e3d 4b16 d8be 68d4 3a3e
000001a0: 5b33 013f c2d2 6bbd b60c f0bf c45a 47bf
000001b0: d933 953e 513f 1dbf 4104 11bf f72b 003f
000001c0: 9b64 49be dc36 ad3d 49c5 edbd 83c4 db3d
000001d0: 7ce3 b03e e342 9a3d ef0b 96be 5082 fabd
000001e0: 8095 a93d 449c 02bf ec0c aebe 70a9 743e
000001f0: 974e 93bf 10ef 743e a87a 0140 3085 123f
00000200: 54d8 413e 1138 0f3e 0b93 99bd b375 543e
00000210: 1991 cc3e 0c77 e7bd 4138 cdbe f97a f33d
00000220: ced9 243e d08d c03d f5c1 bebe 8884 3a3e
00000230: b953 643f 4d40 acbc 7238 ffbf 1966 33bf
00000240: 4814 113f 904b 0bbd 3115 00c0 88f8 1fbf
00000250: e2d7 953d ad0f dcbc 8b76 f3be 9e01 053e
00000260: 11f2 ac3e 1cd6 22be 8d02 2cbe 5dd7 87bd
00000270: b66e 083f 81f6 c6bd ed1e 01c0 9186 2dbf
00000280: 7e9c 4a3f 987e 23be 21f3 0ac0 8be9 1fbf
00000290: d105 a33e a85e 9ebe 0702 08bf d802 543d
000002a0: 6369 bb3e c1a7 a73e 15bf 12be b4ee e2be
000002b0: 2b91 c9bd c622 f0bc 8e85 3dbe 7976 3ebc
000002c0: b7a7 12be d11b 823d 4e8f 2f3e a3e0 323d
000002d0: b915 463c b4d8 c4bd fcc6 4c3e 26ef 6e3b
000002e0: 2c53 2a3f 8d5e 8e3e 0056 afbe 2e79 d4be
000002f0: bd89 dfbc 4eee 1dbe b391 b33c a79e 11be
00000300: 8731 493d c994 143f e8d8 c43e a25c aabe
00000310: 5422 91bf cf5f 503e 6a54 0240 995a 323f
00000320: f883 b73e 84c1 45be 3ff8 e9be a903 ca3d
00000330: c46f 5dbf 0e66 bc3d 6969 d03f 26b6 bb3e
00000340: cebc 08be d30e 7cbd fa97 a33c 9414 903b
00000350: ec4d e13e fd27 413f c292 c03e a410 07bf
00000360: 5292 ad3d 22c4 d7bd 9991 d4be 2242 71bd
00000370: 9195 6c3e 27d8 7b3d 858b 96bd 1324 293d
00000380: caac 53bf e642 523e b435 c93f b705 fc3e
00000390: b2b5 263e b643 21bd efe0 e9bd 496e e9bd
000003a0: 319c 55bf 151a b83d 8153 d43f e512 ce3e
000003b0: f5e2 79bf 19ae 403e dbfb 0540 6847 303f
000003c0: ff9b a73d f43e af3e 9529 88be daad ccbe
000003d0: 1079 bc3e bb2d c63e 0c7e 8abe 0497 cebe
000003e0: 5278 eebc e788 e43d 00bd d13d 0187 cb3c
000003f0: eb50 143e 9cf3 a0be 4584 b0be 1691 923e
0.1527675 0.08870738 -0.24892138 -0.023365026 0.07935407 0.1287685 0.0045857197 0.14751808
-0.16675569 0.037758317 0.079443105 -0.049780995 0.14565678 0.18995827 -0.072227485 0.22641905
0.21192068 -0.17645182 -0.49795336 -0.028264873 0.065100096 0.42688283 0.09126161 -0.30391
0.68549013 -0.09377408 -2.1663618 -0.89869726 0.41805318 0.122136295 -0.25179875 0.19010209
0.1793231 -0.31580278 -0.2401373 0.26700357 0.113131344 0.77325207 0.38398835 -0.391328
0.41149244 0.15491992 -0.17002273 0.027316144 0.3950445 0.029291622 -0.35430375 0.1238507
0.020620571 0.10724594 -0.07322595 0.18166228 0.004181232 -0.076348 -0.13124552 0.083132826
0.1871869 -0.19184403 -0.44766942 0.13800645 0.15101047 0.71604156 -0.002089048 -0.33431205
0.04833328 0.48022693 0.4973523 -0.5105312 0.1884067 0.036771066 -0.18642363 0.22536689
0.38010567 0.056360587 -0.2642418 0.03476151 0.15013257 0.016010229 0.016289964 0.06671641
0.23460008 -0.062126104 -0.07064514 -0.11306461 0.34647822 -0.31298456 -1.5433723 -0.5581616
0.7679279 -0.32589462 -1.9907173 -0.71360713 0.19650464 0.12002738 -0.07318514 0.25577596
-0.118838996 -0.16299707 -0.17110585 -0.16312386 0.34557536 0.077303685 -0.42204508 0.18245089
0.5046899 -0.05757404 -1.8753879 -0.7787287 0.2914112 -0.6142474 -0.56647116 0.50067085
-0.19667284 0.08457729 -0.11609895 0.10730841 0.34548557 0.07532289 -0.2930598 -0.122318864
0.08280468 -0.5101969 -0.33994234 0.2389276 -1.1508359 0.2391932 2.0231113 0.5723448
0.18930179 0.13986231 -0.07498749 0.20748024 0.3995445 -0.11302003 -0.4008198 0.118886895
0.16098711 0.094020486 -0.37257352 0.18214619 0.8919025 -0.021026755 -1.9939101 -0.70077664
0.5667157 -0.03400761 -2.0012934 -0.62488604 0.07316567 -0.026862944 -0.4755138 0.12988898
0.33778432 -0.15901989 -0.16797848 -0.06632874 0.5329393 -0.09714986 -2.0175126 -0.6778346
0.7914504 -0.1596626 -2.1710894 -0.62465733 0.31840375 -0.30931592 -0.53128093 0.051760525
0.3660384 0.32745174 -0.14330705 -0.4432274 -0.09842142 -0.029313456 -0.18507978 -0.011624926
-0.1432179 0.06352962 0.1714451 0.04367126 0.01209014 -0.09611645 0.19997782 0.0036458462
0.6653316 0.27806512 -0.342453 -0.41498703 -0.027287358 -0.15422937 0.02192006 -0.14220677
0.0491195 0.5803953 0.38446736 -0.33273798 -1.1338601 0.20349048 2.0364022 0.6966949
0.35842872 -0.19312102 -0.4569721 0.09863979 -0.86498666 0.09199153 1.6282169 0.36662406
-0.13353273 -0.061537575 0.019969929 0.0043969844 0.44004762 0.7545164 0.37611967 -0.52759767
0.08475174 -0.10535456 -0.41517332 -0.05890096 0.2310393 0.061485436 -0.0735083 0.04129417
-0.8268553 0.20533332 1.5719514 0.4922311 0.16280249 -0.039371215 -0.11419856 -0.11397988
-0.83441454 0.0898935 1.6587983 0.4024879 -0.97611934 0.18816413 2.093497 0.6885896
0.08184051 0.34227717 -0.26594225 -0.39976388 0.36811113 0.38706765 -0.2704929 -0.4034959
-0.029110108 0.111589245 0.10241127 0.024844648 0.14483993 -0.3143586 -0.34475914 0.28626317

fc1.bias f4 [128]
00000000: 7ee7 2d3f bcab eebe 10a5 e4be 3bb2 303f
00000010: 99ca 553f aa7f 583e 9cde 1dbd 491c d83e
00000020: 0d24 eb3e baab 003e c8d0 2d3f 0723 333f
00000030: 80cf aabe 9823 f6be dba6 383f 8f58 823e
00000040: e38f 913e 3e34 1f3f 8392 103f 009b a9be
00000050: 27cf 5d3f d8c3 2a3d 5b59 da3d fb56 dfbe
00000060: 6625 f0be 474b 553f 3c72 86bd 7f63 633e
00000070: 2c20 b2be ac7a 473f 967d af3e 9f5d b3bd
00000080: 2a41 403f e8c6 043f 5776 df3e 7ddd 2a3d
00000090: 4545 a63d c0df 4f3f 4a69 803e 3e98 d43d
000000a0: ef12 963d 7d6a d13e bc50 be3e 0853 69be
000000b0: fc01 96be a6cf 9dbe 71a2 f53e 3299 d4be
000000c0: 2c0a a33d 6f9c 4ebe cdd1 f93e 7343 68be
000000d0: 30ae a4be f883 bc3e 0d8f 003f 4180 d43e
000000e0: fe5e 93be 5c82 353f 36cd 89be a832 55be
000000f0: a0e3 27bf f764 be3e 4686 99be e4aa d63e
00000100: e32a 03bf ae20 0d3f 9a60 483d 2f0c 82be
00000110: a441 083f 704d f0be dcef dbbe cd4d 9c3d
00000120: 7ba0 253f 7cf9 013f a466 a23e 4ede 9a3e
00000130: 777a 6a3e 62f8 1f3f 8637 853d e3a8 373f
00000140: 39fe 8d3e dbee 283f fbfd 053f 9357 acbc
00000150: 3540 803e 4f6e d1bd d00c 023f edaf 403f
00000160: 8e08 ec3e 78ab 663e 5226 593f d6cf f7be
00000170: 57e7 193f da17 97be ded5 343f c323 c93e
00000180: 0bd2 1f3f 6025 e53d 1a61 90be b095 50be
00000190: fbda ce3e d8a0 f03e b720 0d3f f088 d33e
000001a0: 1f77 383f 6a28 263f d7ff 2d3f 5be2 9ebd
000001b0: 1694 77be 957b 983d d5df 2d3c 554e 253f
000001c0: 7a52 ec3e 0097 99be 7e00 87be c1b6 ec3e
000001d0: b042 61be 53db c43e 9c5a 213f c269 e8be
000001e0: bf52 983d 6472 1e3f 8e96 03bf f536 d93e
000001f0: 79f2 083f 9847 173f 184d d03d 44db 883d
0.67931354 -0.46615398 -0.44657183 0.6902196 0.83512264 0.2114245 -0.038542375 0.4220908
0.45925942 0.12565508 0.678967 0.6997532 -0.33361435 -0.4807403 0.721296 0.2545819
0.2843009 0.6218909 0.5647356 -0.33126068 0.86644214 0.041690677 0.106615745 -0.43621048
-0.46903533 0.8331799 -0.06564757 0.22205923 -0.3479017 0.7792156 0.34275502 -0.08758091
0.7509943 0.51866007 0.43644974 0.041715134 0.08118681 0.8120079 0.2508033 0.103806004
0.0732783 0.40901557 0.3717097 -0.2278558 -0.2929839 -0.30822486 0.47975495 -0.4152313
0.079609245 -0.20176862 0.48792878 -0.2268198 -0.32164145 0.36819434 0.5021828 0.415041
-0.2878341 0.7090204 -0.26914376 -0.20820105 -0.65581703 0.37186405 -0.29985255 0.41927254
-0.51237315 0.5512799 0.04892025 -0.2539992 0.5322516 -0.4693408 -0.42956436 0.07632027
0.64698 0.5077131 0.31718934 0.3024773 0.22898279 0.6248838 0.06504731 0.71742076
0.2773302 0.65989465 0.5234067 -0.021037852 0.25048986 -0.10226118 0.508008 0.7526844
0.46100277 0.22526348 0.848241 -0.48400754 0.6011862 -0.29510385 0.70638835 0.39285097
0.62429875 0.11188769 -0.28199083 -0.20369601 0.40401444 0.46997714 0.55128044 0.41315413
0.72056764 0.64905417 0.67968506 -0.07758018 -0.24177584 0.074454464 0.010612448 0.6457265
0.46156675 -0.29998016 -0.26367563 0.4623318 -0.21998096 0.3844858 0.63028884 -0.45393187
0.074376576 0.61893296 -0.51401603 0.4242474 0.53494984 0.5909362 0.101709545 0.066824466

fc2.weight f4 [2, 128]
00000000: 7713 083f 6440 e1bd d2fc 21be 7129 023f
00000010: a65a 1f3e 11d9 713e a43a 35bf c8c6 ae3e
00000020: 0003 de3e 700f c63e c041 4f3e 0e10 d33e
00000030: 6709 76bd 593b b8bd 9cca af3e 9aad 3e3f
00000040: 904f e33e 7ee2 673e 462a 7d3e 251a 213e
00000050: e214 ae3e 6d83 80bf 58d3 91bf 4945 a6bd
00000060: 2e67 ce3b 708c f53e a61e 70bf 9dd3 dd3e
00000070: 23d9 cd3d d6e5 ef3e aabe ec3e 0499 80bf
00000080: 6df0 cd3e c58d f43e 3f2f 193f 7110 5ebf
00000090: 5298 48bf bf52 a63e dce2 b23d 8138 56bf
000000a0: cb70 9abf d2b2 173f 71b5 133f 4054 28be
000000b0: 7c91 de3d 3eb6 42be 55ca 163f 8b07 3dbe
000000c0: f246 b43e 8122 95bf 3143 373e 3481 9fbf
000000d0: c7e7 c9bc 1d62 223f 0e53 9c3e faf7 a93e
000000e0: 103b a9bf e703 aa3e 105d 44bf a583 9ebf
000000f0: 13a8 593f a7fa 253f 1866 09bc aa19 053f
00000100: c998 643f 240f 943e 5d97 833f 6633 60bf
00000110: 35a8 063f c3f2 1b3e 7a88 0dbe 040b 54bf
00000120: 274d 9a3e bf78 a93e ca1c a23e 6fa1 7b3e
00000130: 296f ec3e c8b1 b03e 98f5 92bf 72b4 5a3e
00000140: 1970 2d3f cccc 963e 16ae e63d d4bf 6bbf
00000150: 42cb 38bf 9545 80bf ff0d 553e 12af f13d
00000160: 0e10 963e 9d44 75bf 318e 093f 8615 cabd
00000170: 97e4 1e3f 4492 80bf f258 0b3e 66e2 b73e
00000180: ab5c a33e 0edf a33e 5a66 7dbf 6702 acbf
00000190: 0d88 1b3f bfe3 8c3e 0faa 5c3e e80d 433e
000001a0: f880 ef3e fedd f33e d450 c13e 2cc1 78bf
000001b0: 282e 95bf eeed 92bf 756f 243f d027 653e
000001c0: 0e7a f93e 4046 6fbf 4b0b 153b 5cda 0e3f
000001d0: 5d23 8cbf 7d45 e23e 304e e63e 7edc fabd
000001e0: 86a4 82bf 08ed 6f3e 80fe 493e 5fb8 c43e
000001f0: 38e6 e43e e8aa 223e d8b7 6fbf d338 a3bf
00000200: b96e fe3e a7a9 91bd 8823 20be d93b ca3e
00000210: 8035 0a3f 5be4 ca3e 5994 8dbf 1a77 e33e
00000220: 7793 d03e 60e6 4c3e 3748 043f d7f1 813e
00000230: cf8c 3c3e 9232 f2bd 40ed 633e 2d63 393f
00000240: b269 1f3f 1eec 803e 5a52 013e 2176 fabd
00000250: 376b 983e e7c6 81bf 2bd8 53bf dc55 fdbd
00000260: abaa e23d 4cdb 813e 67e9 7bbf 27db 0f3f
00000270: a006 883c a571 513e 8626 273f 4c87 86bf
00000280: 2eed 973e d397 9e3e c2fa 8b3e 88bf 42bf
00000290: f5a0 80bf 2460 da3e cd55 613e 23e8 74bf
000002a0: 9446 88bf 7817 a43e 5497 103f 890b 083e
000002b0: b576 50bd 4375 513e b3e2 743e 564c 123d
000002c0: 24cd 023f 5af8 85bf c278 ca3e deff 66bf
000002d0: 0000 4b3d 6e97 103f 04e9 c33e 81ed 173f
000002e0: 0a45 74bf 5bf1 eb3d 21c8 93bf 5578 6dbf
000002f0: 93b1 843f 1d16 833e 31c9 18bd f95e 203f
00000300: eb0c 3f3f f591 aa3e b508 933f 8d7e 8ebf
00000310: b279 053f 66c8 b13d ce20 4cbe d53a 1dbf
00000320: 79de 153e ac06 a33e d71c a03e 41d7 7b3e
00000330: c992 103f 61a3 d93e 053e 92bf da5f c73e
00000340: b64b 173f c653 d93e b29a 503e b60d 82bf
00000350: c894 30bf 7b36 8abf 8af2 5b3e 54da e83e
00000360: 9fcd d73e 6b2e 59bf 7b7f 0d3e b79e cebc
00000370: cf7a 693e 6fbc 91bf 6372 e23e da18 323f
00000380: bffc 923e 6b25 bd3e 28e6 59bf c6da b6bf
00000390: 1dbf 013f 6985 233f e918 cd3e 053e c43e
000003a0: 5148 f93e 7fa0 f63e a4bc a03e 6a3e 84bf
000003b0: 87a0 8ebf 8bf8 9ebf c00f e43e 2378 a33e
000003c0: ee88 023f da1e 8fbf 4a26 423e 9e32 ae3e
000003d0: abaa 93bf 4a27 2b3f 4eb8 c83e 293b debd
000003e0: ee2a 79bf 9e75 463e 700c 213e cb25 4c3e
000003f0: ca40 9f3e 6c98 be3e 2a3a 93bf 1f3f 85bf
0.531547 -0.1099861 -0.158191 0.50844485 0.15561923 0.2361796 -0.70792603 0.34136033
0.43361664 0.38683653 0.20239925 0.41223186 -0.06006756 -0.08995695 0.34334266 0.74483645
0.4439664 0.22644994 0.24723157 0.1573263 0.34000307 -1.0040108 -1.1392622 -0.08118684
0.006298921 0.47958708 -0.93796766 0.4332551 0.10051181 0.46855038 0.46239215 -1.0046697
0.40222493 0.47764412 0.59837717 -0.8674384 -0.7835742 0.32485005 0.08734676 -0.8367997
-1.2065672 0.59257233 0.5769873 -0.16438389 0.10867593 -0.19014832 0.58902484 -0.18459909
0.35210377 -1.1651155 0.17896725 -1.2461305 -0.024646653 0.6343096 0.30532116 0.33197004
-1.322115 0.33206102 -0.767045 -1.2383925 0.85022086 0.6483559 -0.008386157 0.51992285
0.8929563 0.289178 1.0280567 -0.8757843 0.52600414 0.15229325 -0.13821593 -0.8282931
0.30136988 0.33099934 0.3166259 0.24573301 0.46178558 0.34510636 -1.1481199 0.21357897
0.6774917 0.29453123 0.11263673 -0.9208958 -0.72185147 -1.0021235 0.2080612 0.1180097
0.29309124 -0.9580782 0.5373259 -0.098673865 0.6206755 -1.0044637 0.13608149 0.35914916
0.31906638 0.32006115 -0.989843 -1.3438233 0.6075447 0.27517506 0.21549247 0.19048274
0.46778083 0.47630304 0.3775698 -0.97169757 -1.1654711 -1.147886 0.6423257 0.22378469
0.48725933 -0.9346657 0.0022742327 0.5580194 -1.0948292 0.4419364 0.44981527 -0.12249087
-1.0206459 0.23430264 0.1972599 0.38421914 0.44706893 0.15885508 -0.936399 -1.2751716
0.4969385 -0.07112437 -0.15638554 0.39498785 0.53987885 0.39627346 -1.1060897 0.44426805
0.40737507 0.20009756 0.5167269 0.25379822 0.18413089 -0.11826052 0.22258472 0.72416955
0.62270653 0.25180143 0.12629071 -0.122295626 0.29769298 -1.0138825 -0.8275172 -0.12369892
0.110677086 0.25362623 -0.9840302 0.56193775 0.016604722 0.20453508 0.6529316 -1.0510039
0.2967314 0.30975208 0.2733975 -0.76073503 -1.004912 0.42651474 0.22005387 -0.9566671
-1.0646539 0.32049155 0.5648091 0.1328565 -0.050894458 0.20454888 0.23914604 0.03571733
0.5109427 -1.0466416 0.39545256 -0.9023417 0.049560547 0.56481063 0.38263714 0.5934678
-0.95417845 0.11520644 -1.154545 -0.9276174 1.0366691 0.2560281 -0.037301246 0.62644917
0.74629086 0.3331448 1.1487032 -1.113237 0.5213882 0.08680801 -0.19934389 -0.61417896
0.14635648 0.31841028 0.31272003 0.24593832 0.56473976 0.4250746 -1.1425177 0.38940316
0.590999 0.42446727 0.20371512 -1.0160434 -0.6897702 -1.0797876 0.2147924 0.4547907
0.42149064 -0.84836453 0.13818161 -0.025222166 0.22800754 -1.138563 0.44227895 0.6956917
0.28708455 0.3694261 -0.85116816 -1.4285514 0.5068224 0.6387544 0.40058067 0.38328567
0.48687986 0.48169324 0.3139392 -1.0331547 -1.1142739 -1.2419599 0.44543266 0.31927595
0.5099019 -1.118129 0.18959919 0.34022993 -1.1536459 0.66856825 0.39203113 -0.10851128
-0.9733113 0.19380805 0.15727401 0.19936292 0.31104118 0.37225664 -1.1502125 -1.0409888

fc2.bias f4 [2]
00000000: c118 603e eda4 443e
0.21884443 0.19203539
