saved_models/pole_DQN/train_DQN_pp_no_data/online_net.pth (torch, 5672 bytes, 4 tensors)

fc1.weight f4 [128, 4]
-0.41307074 0.6030439 2.2303069 0.89789337 -0.66294837 0.19320704 2.2955039 0.80848193
-0.036467403 -0.08740193 -0.33318338 -0.2316148 -0.6075149 0.37524036 2.3218987 0.97342646
-0.24691261 -0.4321058 -0.18306117 0.43057942 -0.45824426 -0.12903625 -0.26927054 -0.4047628
0.017448125 -0.02234854 0.09788159 0.013402867 -0.032164723 0.105289124 0.17577428 0.026099768
-0.35286203 -0.012360682 -0.1003266 0.046998963 -0.77467483 0.5277839 1.6683675 -0.25635523
0.7903508 -0.31435922 -2.3505085 -0.59464645 -0.23693731 -0.28178328 -0.3418557 -0.2006596
-0.07423849 -0.38566336 -0.18515776 0.03440069 -0.40245065 -0.1764594 -0.37960616 -0.26841635
-0.11427124 0.20858498 0.002327701 0.05933573 -0.48593822 -0.55825424 -0.11125214 0.39245024
-0.08898322 0.13085836 -0.0068438365 0.08804917 0.2705408 -0.4364303 -0.693677 0.3108249
-0.58933437 -0.11889228 2.223294 0.96699697 -0.83383036 0.59515244 1.596586 -0.17726177
-0.10774787 0.18869185 0.034918237 0.1821661 -0.47720832 0.55637586 2.0654802 0.9933027
-0.673829 0.09775349 2.1230001 0.84995 0.17678669 -1.074229 -1.7351849 0.2052931
-1.0893542 0.11726725 2.390968 0.76356894 -0.14229685 -0.4045516 -0.012111955 0.5021081
-0.30683985 -0.30875725 -0.4408668 -0.54560465 0.89775234 -0.41637135 -2.424016 -0.57957524
-0.17445603 0.11403203 0.011535488 0.0023446314 0.5533837 -0.47751918 -2.1059902 -0.49291983
-0.20409419 -0.14539516 -0.32794645 -0.07468403 -0.07610472 -0.56417304 -0.3246122 0.5100419
-0.42759 -0.19072525 -0.4427393 -0.5147012 0.7497912 0.6298607 0.66788894 0.50849104
0.27465212 0.19648936 -0.067981094 0.2607167 -0.2540914 -0.09371962 -0.3535046 0.033969164
-0.5457396 0.3527799 1.8733029 0.5450301 -0.7533276 -0.13903165 2.1700242 0.9507118
-0.3060581 -0.035897665 -0.102522396 -0.09901953 -0.29358697 0.061148148 -0.026496295 0.072873116
-0.18809123 0.07536207 -0.09465776 0.1118038 0.38592014 -0.90370363 -1.9199076 0.12681168
-0.44980884 0.19874227 2.1155183 0.95659405 -0.29542336 -0.15303002 -0.29802522 -0.5057081
-0.25081894 -0.47848558 -0.22423065 0.30558488 -0.16282685 0.099609695 -0.14693908 -0.05812079
0.2416999 -0.45605347 -0.90630454 0.2632711 0.12586726 -0.195461 -0.103522085 -0.09242224
-0.5962088 0.40955636 2.2749493 0.74275404 -0.71462965 -0.07404301 2.316432 0.98870736
-0.35372347 -0.32725948 -0.15178452 0.506129 -0.29118767 -0.27616107 0.392063 0.018035538
0.05675227 0.17769653 0.040552445 0.16043054 0.761514 -0.034319684 -2.3003173 -0.84110343
-0.33157778 -0.30133775 -0.44155326 0.5440021 0.730214 -0.31588194 -2.5466964 -0.862875
-0.21266678 -0.18561855 -0.36052886 -0.24294828 -0.15818508 -0.15504321 -0.09388605 -0.13821082
-0.34517366 -0.5871989 -0.13557182 0.4847703 -0.50638306 -0.34133944 -0.43632507 -0.42732608
-0.38572383 -0.26345947 -0.1281476 -0.3944339 -0.43501452 -0.31044358 0.31007653 0.084677555
-0.77827 0.20297658 1.3878286 -0.25578967 0.97137076 -0.1902715 -2.6845922 -0.75454044
00000000: 027e d3be 1661 1a3f 59bd 0e40 57dc 653f
00000010: fcb6 29bf 11d8 453e 89e9 1240 acf8 4e3f
00000020: d85e 15bd c8ff b2bd 0397 aabe 6e2c 6dbe
00000030: 1986 1bbf 811f c03e fd99 1440 7a32 793f
00000040: a9d6 7cbe f93c ddbe 6374 3bbe e874 dc3e
00000050: fe9e eabe 1422 04be d4dd 89be 123d cfbe
00000060: 5fef 8e3c 4914 b7bc 2576 c83d b397 5b3c
00000070: 28bf 03bd d3a1 d73d 2cfe 333e 2ecf d53c
00000080: 55aa b4be 7584 4abc 0878 cdbd fc81 403d
00000090: 1751 46bf d81c 073f 118d d53f fe40 83be
000000a0: 6e54 4a3f b1f3 a0be bb6e 16c0 c03a 18bf
000000b0: b29f 72be e645 90be b607 afbe b679 4dbe
000000c0: 590a 98bd ab75 c5be ff99 3dbe bde7 0c3d
000000d0: 030e cebe c6b1 34be bd5b c2be de6d 89be
000000e0: 0a07 eabd 4d97 553e 588c 183b 060a 733d
000000f0: e5cc f8be c0e9 0ebf 29d8 e3bd 3def c83e
00000100: d63c b6bd bcff 053e 4342 e0bb 2053 b43d
00000110: 5384 8a3e cb73 dfbe d194 31bf 7124 9f3e
00000120: 9ede 16bf cc7d f3bd 734a 0e40 1d8d 773f
00000130: e875 55bf e95b 183f ee5c cc3f 1c84 35be
00000140: eaaa dcbd 7038 413e 6d06 0f3d c089 3a3e
00000150: a654 f4be a66e 0e3f d430 0440 1649 7e3f
00000160: 0f80 2cbf fb32 c83d 3cdf 0740 5396 593f
00000170: 9207 353e 5680 89bf 8a1a debf 5b38 523e
00000180: f56f 8bbf d029 f03d 9f05 1940 4179 433f
00000190: 44b6 11be 6321 cfbe 3971 46bc 288a 003f
000001a0: 1d1a 9dbe 6e15 9ebe 4bb9 e1be bfac 0bbf
000001b0: 19d3 653f a02e d5be 1423 1bc0 0b5f 14bf
000001c0: 9aa4 32be a089 e93d 58ff 3c3c 63a8 193b
000001d0: 8eaa 0d3f 657d f4be 8bc8 06c0 fd5f fcbe
000001e0: 11fe 50be 78e2 14be 99e8 a7be f1f3 98bd
000001f0: cbdc 9bbd a56d 10bf 9233 a6be 1b92 023f
00000200: 14ed dabe 7b4d 43be baae e2be 75c3 03bf
00000210: 51f2 3f3f 8d3e 213f c5fa 2a3f 782c 023f
00000220: 349f 8c3e 8234 493e ac39 8bbd a97c 853e
00000230: 4518 82be 12f0 bfbd 8efe b4be 4023 0b3d
00000240: 97b5 0bbf 919f b43e 64c8 ef3f 1887 0b3f
00000250: 14da 40bf 505e 0ebe ade1 0a40 d961 733f
00000260: a6b3 9cbe 6e09 13bd 43f7 d1bd c0ca cabd
00000270: 0851 96be 7b76 7a3d c20e d9bc 803e 953d
00000280: fd9a 40be 6e57 9a3d eddb c1bd 64f9 e43d
00000290: 5397 c53e 1f59 67bf 88bf f5bf ecda 013e
000002a0: 584d e6be 1883 4b3e a764 0740 59e3 743f
000002b0: bb41 97be e7b3 1cbe c396 98be 1676 01bf
000002c0: 576b 80be 10fc f4be b89c 65be 9f75 9c3e
000002d0: 15bc 26be 2b00 cc3d 3377 16be 1110 6ebd
000002e0: 2e80 773e d77f e9be 9303 68bf 78cb 863e
000002f0: 59e3 003e ee26 48be 6303 d4bd df47 bdbd
00000300: 24a1 18bf 5fb1 d13e c598 1140 2125 3e3f
00000310: f8f1 36bf dda3 97bd 6c40 1440 ed1b 7d3f
00000320: 3e1b b5be 8e8e a7be 676d 1bbe ac91 013f
00000330: 8d16 95be fc64 8dbe 7bbc c83e 44bf 933c
00000340: 1175 683d 14f6 353e 521a 263d e747 243e
00000350: 95f2 423f cc92 0cbd 6638 13c0 8e52 57bf
00000360: 90c4 a9be f148 9abe 4513 e2be b943 0b3f
00000370: 4eef 3a3f 47bb a1be 13fd 22c0 60e5 5cbf
00000380: 52c5 59be ca12 3ebe 3d97 b8be 6fc7 78be
00000390: 45fb 21be a6c3 1ebe 5447 c0bd 2387 0dbe
000003a0: 9aba b0be ab52 16bf 57d3 0abe d033 f83e
000003b0: 52a2 01bf 0bc4 aebe 0066 dfbe 7cca dabe
000003c0: 987d c5be 29e4 86be 2039 03be 3df3 c9be
000003d0: 39ba debe 76f2 9ebe 5ac2 9e3e 6d6b ad3d
000003e0: b43c 47bf 18d9 4f3e 5ea4 b13f ddf6 82be
000003f0: c1ab 783f 88d6 42be 5cd0 2bc0 9029 41bf

fc1.bias f4 [128]
0.03245026 -0.60524887 0.91600466 0.065418 0.7001239 0.3877643 -0.2342723 -0.35825896
0.8720087 0.14697245 -0.31112102 0.649346 0.8729975 0.98120636 -0.3577731 0.725283
-0.20482528 0.6293082 -0.20405068 0.05033362 -0.36841238 0.045036074 -0.009527205 -0.38327563
-0.70507497 0.6937947 0.4809967 -0.27351543 -0.46086937 -0.21538985 1.0104542 0.7859782
0.5171577 0.046459604 0.051679313 0.80497956 0.09548449 -0.39147237 0.6448985 0.7183301
-0.39694953 -0.22081478 -0.44300923 0.51238894 0.65716 -0.46465695 0.478917 -0.45385444
0.063052714 -0.22848605 0.6414056 -0.09788046 -0.50294507 -0.23064958 0.64396244 -0.33332652
0.92097855 0.9707085 0.79559785 0.5394084 0.46961522 -0.31033072 0.07316942 -0.35049462
-0.3985185 0.6990109 0.5780125 1.0275168 0.316472 0.69534725 0.5877893 0.74016196
-0.28972298 1.0205861 1.0292556 0.83928394 0.033393342 0.7206119 -0.26423305 0.74496734
-0.19100142 -0.4156453 -0.23947856 0.69706744 -0.34934404 0.80364877 0.7610953 0.732203
0.8386786 -0.32776532 0.0085163815 0.8584878 0.65594864 0.87801915 -0.1567648 0.6286839
0.7795213 -0.18010056 -0.49367046 0.52982444 -0.16877012 0.6406302 0.7111784 -0.27196342
0.9337029 0.74076104 -0.14148362 0.99964887 -0.50550336 0.8529635 0.94116235 1.0453013
-0.023602296 -0.26723054 0.9719627 0.9301199 0.78640074 0.5510636 0.29592663 -0.13711758
0.4959152 0.8240191 0.14503205 0.459768 0.57046163 -0.39082074 0.5829274 -0.31635958
00000000: 90ea 043d 97f1 1abf 487f 6a3f dff9 853d
00000010: 523b 333f 0b89 c63e 14e5 6fbe b86d b7be
00000020: f63b 5f3f f27f 163e 414b 9fbe 8a3b 263f
00000030: c47c 5f3f 5730 7b3f 092e b7be 26ac 393f
00000040: b8bd 51be 581a 213f a9f2 50be a02a 4e3d
00000050: 8ca0 bcbe bf77 383d fe17 1cbc b43c c4be
00000060: cb7f 34bf 889c 313f 3345 f63e 370a 8cbe
00000070: 12f7 ebbe 288f 5cbe 9056 813f de35 493f
00000080: 7264 043f 6d4c 3e3d b0ad 533d 2413 4e3f
00000090: 5f8d c33d 116f c8be 1118 253f 7be4 373f
000000a0: f83c cbbe 451d 62be 1bd2 e2be ec2b 033f
000000b0: a33b 283f 84e7 edbe 9c34 f53e 9c5f e8be
000000c0: c821 813d 3ff8 69be 2833 243f 8d75 c8bd
000000d0: 02c1 00bf 672f 6cbe b9da 243f c6a9 aabe
000000e0: 40c5 6b3f 5a80 783f 4dac 4b3f ab16 0a3f
000000f0: 6871 f03e abe3 9ebe d9d9 953d 0874 b3be
00000100: 9e0a ccbe 61f2 323f a1f8 133f ac85 833f
00000110: 9e08 a23e 4702 323f 5c79 163f 417b 3d3f
00000120: 9256 94be 91a2 823f a6be 833f 50db 563f
00000130: 75c7 083d 057a 383f 8e49 87be 2eb6 3e3f
00000140: e095 43be 76cf d4be de39 75be 0373 323f
00000150: 39dd b2be edbb 4d3f 24d7 423f a871 3b3f
00000160: a4b3 563f dbd0 a7be 4b88 0b3c dbc5 5b3f
00000170: 40ec 273f ddc5 603f f486 20be 6ef1 203f
00000180: b58e 473f 486c 38be 60c2 fcbe 93a2 073f
00000190: 13d2 2cbe 5700 243f ca0f 363f ca3e 8bbe
000001a0: 2707 6f3f 84a2 3d3f 15e1 10be fde8 7f3f
000001b0: ab68 01bf d15b 5a3f 04f0 703f 6fcc 853f
000001c0: 9a59 c1bc 71d2 88be 8cd2 783f 561c 6e3f
000001d0: 8f51 493f 8112 0d3f b283 973e 8d68 0cbe
000001e0: 99e8 fd3e eaf2 523f 4883 143e b666 eb3e
000001f0: c609 123f a819 c8be bb3a 153f e2f9 a1be

fc2.weight f4 [2, 128]
-1.4087209 -1.3691467 0.44138858 -0.913283 0.74020416 0.66976786 0.11562248 0.109556206
0.5410044 1.2103306 -1.1431264 0.6008315 0.38975522 0.5751446 0.22861788 0.85756415
0.1598949 0.6992313 -1.2129654 1.3461465 -0.034988027 -1.0580522 -1.2096195 1.5082809
-1.449941 0.3939799 0.93065447 -1.3267353 0.050914794 -1.5759176 0.53287655 0.80757415
0.91618997 -0.72620666 0.29959574 0.5097505 -0.9787033 -1.2933837 0.51518446 0.4795423
0.1353676 1.520885 -1.4300008 0.7226868 0.4299467 0.18167812 0.6932194 0.17083946
-1.2809795 -1.0588768 0.6586212 -0.4004037 0.14250039 -1.1962084 0.8123422 -1.1888418
0.5826345 0.68372405 0.7412002 0.50730777 0.6469512 -0.30114707 1.042673 -1.2059389
0.106933124 0.5156344 0.31489602 0.4463128 1.1224403 0.7382308 0.769032 0.33668292
-1.0891273 0.47326985 0.51199365 0.578402 1.0852616 0.65694004 -0.10328802 0.5129002
0.018975567 1.138659 -1.2326123 0.5328041 -0.30166903 0.72062165 0.7249469 0.58452237
0.4032344 -1.4407532 -0.41438502 0.5288593 0.7618036 0.49545392 0.21420535 0.34618932
0.5558291 0.735005 -0.09715036 0.4756864 0.48189995 0.63980967 0.62212276 -1.5712442
0.55453634 0.6095057 -1.169581 0.44425756 -1.3439735 0.607779 0.7227194 0.61278164
-1.1291943 -1.1934056 0.52297467 0.5071134 0.42587355 0.53809816 1.1901524 -1.2539957
0.49803022 0.47488043 -1.3207331 0.56298584 0.810637 -1.4300061 0.6192672 -0.13938184
-1.493158 -1.4507883 0.43584445 -0.9488163 0.54651237 0.45948538 -0.20996718 0.06395434
0.32042563 1.3311125 -1.0650947 0.7136647 0.60071224 0.6727877 0.061019573 0.86730224
0.07617143 0.6098071 -1.3282151 1.3686321 -0.15133287 -1.2662505 -1.2709459 1.5592767
-1.4116514 0.51036733 0.7910575 -1.350547 0.13786806 -1.2260009 0.6197665 0.6793424
0.56998473 -0.7647132 0.49592954 0.5171794 -0.9800493 -1.0316195 0.44004187 0.48382738
0.037983283 1.5041511 -1.4240731 0.78983784 0.49074423 -0.09442515 0.5402793 -0.15653144
-1.2167134 -1.276902 0.6752149 -0.31393304 -0.13465928 -1.0119753 0.9208924 -1.3130864
0.502133 0.68700695 0.82047933 0.40159652 0.50518084 -0.38943258 0.9969061 -1.2206392
-0.18879005 0.59132785 0.28209302 0.62821835 0.91563094 0.44348553 0.5540095 0.6256036
-1.1398228 0.62941474 0.64008087 0.6358368 1.1650004 0.5434304 0.13407278 0.5055441
0.1805343 1.2111557 -1.2637829 0.65418106 -0.3579468 0.56488234 0.70008576 0.693197
0.43378186 -1.4226785 -0.71080834 0.66068256 0.80548865 0.3845149 -0.20362733 0.68104845
0.6195599 0.898161 -0.19416918 0.56378424 0.778675 0.49081638 0.37058818 -1.5631303
0.54609025 0.5597804 -0.9956342 0.59005404 -1.204246 0.3090758 0.7347442 0.4838207
-1.1992881 -1.2829145 0.6721512 0.62063783 0.45033267 0.33840486 1.2455724 -0.9389982
0.74860007 0.6448065 -1.4044958 0.35104486 0.72869617 -1.2975123 0.44394872 0.07513823
00000000: f750 b4bf 3340 afbf affd e13e eacc 69bf
00000010: 057e 3d3f e875 2b3f 7bcb ec3d 015f e03d
00000020: 447f 0a3f 1dec 9a3f f751 92bf 18d0 193f
00000030: ff8d c73e ad3c 133f ce1a 6a3e 5389 5b3f
00000040: 7dbb 233e d300 333f 7342 9bbf 874e ac3f
00000050: 9b4f 0fbd 416e 87bf d0d4 9abf 590f c13f
00000060: ab97 b9bf bcb7 c93e 5f3f 6e3f 76d2 a9bf
00000070: 088c 503d abb7 c9bf 996a 083f 2ebd 4e3f
00000080: 6d8b 6a3f aee8 39bf 9d64 993e 027f 023f
00000090: 4d8c 7abf 998d a5bf 21e3 033f 9186 f53e
000000a0: ce9d 0a3e 5cac c23f 440a b7bf 0102 393f
000000b0: f921 dc3e d409 3a3e d476 313f 8af0 2e3e
000000c0: 23f7 a3bf 4689 87bf 669b 283f b701 cdbe
000000d0: 9feb 113e 5b1d 99bf a9f5 4f3f f82b 98bf
000000e0: 8927 153f 8a08 2f3f 4cbf 3d3f ecde 013f
000000f0: 989e 253f f32f 9abe 4f76 853f 355c 9abf
00000100: c1ff da3d 9e00 043f 0d3a a13e 1c83 e43e
00000110: 20ac 8f3f b2fc 3c3f 48df 443f b461 ac3e
00000120: 8668 8bbf 6d50 f23e 0412 033f 2712 143f
00000130: dae9 8a3f 392d 283f ab88 d3bd 6d4d 033f
00000140: a672 9b3c 94bf 913f 3dc6 9dbf d965 083f
00000150: 5d74 9abe a97a 383f 1f96 393f 42a3 153f
00000160: bd74 ce3e 9a6a b8bf 462a d4be 5363 073f
00000170: 9005 433f 23ac fd3e a658 5b3e ba3f b13e
00000180: d14a 0e3f 4a29 3c3f c5f6 c6bd 2b8d f33e
00000190: 97bb f63e 91ca 233f 7043 1f3f 881e c9bf
000001a0: 18f6 0d3f 9108 1c3f d5b4 95bf ba75 e33e
000001b0: 5307 acbf 6897 1b3f 2304 393f 42df 1c3f
000001c0: 7089 90bf 84c1 98bf abe1 053f 2fd2 013f
000001d0: 190c da3e cdc0 093f ea56 983f ee82 a0bf
000001e0: d1fd fe3e 8723 f33e c80d a9bf d71f 103f
000001f0: e885 4f3f 710a b7bf 4c88 1e3f 1dba 0ebe
00000200: cd1f bfbf 6eb3 b9bf 0127 df3e a0e5 72bf
00000210: 3ce8 0b3f ab41 eb3e a301 57be 7efa 823d
00000220: d40e a43e e561 aa3f 0655 88bf bbb2 363f
00000230: 47c8 193f d13b 2c3f a9ef 793d 8507 5e3f
00000240: c4ff 9b3d 511c 1c3f f402 aabf 562f af3f
00000250: 01f7 1abe 7f14 a2bf 5bae a2bf 6196 c73f
00000260: feb0 b4bf 6fa7 023f bf82 4a3f b9de acbf
00000270: 492d 0d3e 99ed 9cbf 04a9 1e3f 62e9 2d3f
00000280: 85ea 113f 3fc4 43bf 7aea fd3e df65 043f
00000290: 83e4 7abf 1c0c 84bf 2b4d e13e 39b8 f73e
000002a0: 5c94 1b3d 0688 c03f 0748 b6bf d032 4a3f
000002b0: d442 fb3e f961 c1bd bf4f 0a3f c749 20be
000002c0: 44bd 9bbf 8671 a3bf e2da 2c3f d5bb a0be
000002d0: 1fe4 09be 6888 81bf 9bbf 6b3f 3713 a8bf
000002e0: ca8b 003f b0df 2f3f ef0a 523f 0f9e cd3e
000002f0: 8853 013f b563 c7be 3d35 7f3f e83d 9cbf
00000300: 2e52 41be 4361 173f 7f6e 903e ebd2 203f
00000310: ca66 6a3f 8910 e33e 91d3 0d3f 8f27 203f
00000320: b7e5 91bf 5321 213f 57dc 233f 33c6 223f
00000330: bc1e 953f 411e 0b3f 604a 093e 576b 013f
00000340: fcdd 383e 2607 9b3f a3c3 a1bf 6978 273f
00000350: ce44 b7be 219c 103f d238 333f 5c75 313f
00000360: a818 de3e 541a b6bf 89f7 35bf 7e22 293f
00000370: 8134 4e3f 23df c43e af83 50be 3159 2e3f
00000380: 7a9b 1e3f e1ed 653f 49d4 46be 2a54 103f
00000390: 3f57 473f 494c fb3e bcbd bd3e a714 c8bf
000003a0: 92cc 0b3f c54d 0f3f e2e1 7ebf c80d 173f
000003b0: bc24 9abf 2f3f 9e3e 3218 3c3f 59b7 f73e
000003c0: 4682 99bf 8b36 a4bf 1a12 2c3f 1fe2 1e3f
000003d0: 0192 e63e 6743 ad3e eb6e 9f3f 3062 70bf
000003e0: 41a4 3f3f 0a12 253f 85c6 b3bf 27bc b33e
000003f0: d58b 3a3f e214 a6bf 3f4d e33e 13e2 993d

fc2.bias f4 [2]
0.44238463 0.39072236
00000000: 3d80 e23e c30c c83e
