saved_models/pole_dqn/train_10000e_2xep/target_net.pth (torch, 5672 bytes, 4 tensors)

fc1.weight f4 [128, 4]
00000000: 313b 2c3f 05b2 363f 3809 b1be 9f90 2dbf
00000010: 9901 c53c 324a 8dbd 6142 18bf 4294 32bd
00000020: 8733 313f 09ed 803f 3be4 67be 12bf 2abf
00000030: 47af bdbe b6c2 f9be a820 47c0 0e1b b8bf
00000040: 3c83 ab3f 12f5 77be 8406 e73e 7606 8e3f
00000050: 75ef 843e 2e8c 0cbf 7e18 22bf d30b 0f3f
00000060: e0fe 943d 63d5 14be f296 0dbd 436a fe3a
00000070: 9f13 df3e fe3a 883f 6b0a d3bd da90 07bf
00000080: 6d9a 2e3e 7512 8d3c b4c4 4ebf 48a4 463d
00000090: 51e1 213f 8ab6 543f 8f92 debe ac70 2dbf
000000a0: 40bf e0be 198f b5be 9f9a 1040 3fe4 cd3f
000000b0: 7e8a 933e 8819 5e3d e5cf 0240 b35f a53f
000000c0: 4a1a 4ebf fe41 463e f4e5 b3be 4af0 33bf
000000d0: c2b6 e53e 783a 68bd 22ea 0140 ce9b 9d3f
000000e0: 66c7 8e3d 009a e4bd 92b3 2abe 07e8 9bbb
000000f0: 7688 083f 8ba9 7e3f 6424 193c c8a9 0fbf
00000100: 44c9 473b acbb 19c0 614e 26c0 2527 c63e
00000110: df51 a43e 053c f1bb c9fa 04bf 32f8 8fbd
00000120: 4270 ab3e 04b6 623f 68a4 803d 0af8 cfbe
00000130: 1dec 63bf 6349 8abf 2081 a63e 0e6d 0c3f
00000140: ceb3 843d 394a 82bf 5f62 49be 2ffc 1b3f
00000150: 60a5 f3be 8b50 84bf 68a5 03be bc2f 2f3f
00000160: ffe2 eb3e b497 713f 14de 85be b7c0 24bf
00000170: 88f1 833d e170 98bf 91a0 f2bd de1c 3a3f
00000180: 71c3 583f 8aa0 94be 2008 033f db8a 803f
00000190: 3c48 843e 3c01 933f f2f8 8440 8ab2 513f
000001a0: f228 7ebe 730a e0be 97f4 27c0 928a adbf
000001b0: a51c 893d 0645 393b eceb 11bf 2f9d 4fbe
000001c0: 2d22 6c3d 5421 1ebf d76e fdbd 9169 163f
000001d0: fb5f f63e ced6 463f 96ab 30be abac 08bf
000001e0: c6da 283f 3fd7 803f 159f 48bd cdf3 e9be
000001f0: bb06 30be 589b 283e ef47 343d c1ab 413e
00000200: 3817 6dbe 6a9c 8e3f d8fe 8b40 7a5c a23f
00000210: addc fa3d e5b2 39bf a274 afbe af99 033f
00000220: 6eda 07bf 64f2 40bf 4487 ea3f b888 b63f
00000230: 5358 5a3d e9b5 86bd 35d2 813c ebdb 9dbd
00000240: 9de9 223f d7a8 5e3f ad54 81be 4a93 00bf
00000250: 6834 6cbf af9d 5a3e 1d7f 9abe 9cfb 3ebf
00000260: 9d85 65be 62f1 07bf f6d1 d93f 4870 a73f
00000270: 1818 763e b05b 40be 629a 1abf 0a4e 24bd
00000280: 6943 093f 0398 423f a23f cbbe de9f 0dbf
00000290: f3fb 31bf 57b0 da3c b7b4 0cc0 7cb0 b9bf
000002a0: aaca 7f3e 4389 f83d 89e2 e63f 8e63 ac3f
000002b0: c7b0 9dbe 0090 92bf da52 92be cb84 2e3f
000002c0: df9a a73f c6d5 81be 8789 1d3f 7a34 793f
000002d0: 1265 163e 1977 ffbd cecb ba3d 94c8 16be
000002e0: ca6d 87bf 1d06 93bf b40a 16be 4645 0c3f
000002f0: a9fa b83e 9035 27bf 7b1e eebe 0e99 2d3f
00000300: 850c c43e 75a1 483e 4cb7 ec3f bc23 9c3f
00000310: 4380 16be fa38 523c edc2 953d 75f7 3b3d
00000320: a1fe 1b3f d143 6c3f 01ee a5be f8c6 35bf
00000330: 4f9c 393e 078c 303d f8f9 d63f c100 943f
00000340: 3f8a 9b3e c416 4a3d 37dd 2ebf d912 b93a
00000350: 9ade 4d3f eed8 6f3f 0608 68be f8cd 2bbf
00000360: 2288 433e 1e1b 093d ef0a 81bd 9fdf b83d
00000370: f2d8 ddbe 1c8c 9cbe 95ad da3f 649c 853f
00000380: 62b2 e03e f667 403f 907e 01bf 89c6 0fbf
00000390: ac84 b3be 07f5 d7bd 3811 25c0 afa4 cbbf
000003a0: 96fc 763e 8419 5fbe 9321 33bf 059e 36be
000003b0: 3f1e 37be 5fee c5be 4918 3cc0 2346 bfbf
000003c0: c075 adbd 8dde 28be 020e 2ebf 12b4 bdb9
000003d0: f664 f8bc 4a76 493e b8d7 31be d6b2 ce3d
000003e0: 0bb1 283f 4554 803f 38f2 0cbe b530 e8be
000003f0: bccc 3b3f f8bd 963f f578 e1be e9bb 32bf
0.6727782 0.71365386 -0.34577346 -0.677988 0.024048613 -0.06898917 -0.59476286 -0.04359842
0.6921925 1.0072337 -0.22645657 -0.666978 -0.37047789 -0.48781365 -3.1113682 -1.4383256
1.3399425 -0.2421458 0.4512216 1.1095722 0.2596394 -0.549014 -0.6331862 0.5587742
0.07275176 -0.14534526 -0.03456778 0.001941033 0.43569657 1.0643003 -0.103047214 -0.529554
0.17051096 0.017220715 -0.80768895 0.048496515 0.6323443 0.8309103 -0.4347119 -0.6775005
-0.43895912 -0.35460737 2.2594373 1.608528 0.288166 0.054223567 2.0439389 1.291983
-0.80508864 0.19361112 -0.35136378 -0.70288527 0.44865996 -0.056696385 2.0299153 1.2313173
0.06971626 -0.11162186 -0.16670063 -0.0047578844 0.5333322 0.9947745 0.009347055 -0.5611844
0.0030484954 -2.4020796 -2.5985339 0.3870174 0.32093713 -0.007361891 -0.5194517 -0.070297614
0.33484083 0.88558984 0.06281358 -0.40618926 -0.89032155 -1.0803646 0.3252039 0.54853904
0.064796075 -1.0178901 -0.19666432 0.60931677 -0.4758711 -1.033708 -0.12856066 0.6843221
0.46071622 0.94372106 -0.26145995 -0.6435656 0.06442553 -1.1909448 -0.11847032 0.727003
0.8467322 -0.29028732 0.5118427 1.0042375 0.2583636 1.1484752 4.155389 0.81913054
-0.24820307 -0.43757972 -2.6243036 -1.3557913 0.06694917 0.00282699 -0.57000613 -0.20274805
0.05764978 -0.61769605 -0.12374657 0.5875483 0.48120102 0.77671516 -0.17252955 -0.5338847
0.6595882 1.0065688 -0.048979837 -0.45693818 -0.17190067 0.16465509 0.044013914 0.18913175
-0.23153389 1.1141484 4.374859 1.2684472 0.12249122 -0.72538596 -0.3426867 0.5140638
-0.5306767 -0.7536986 1.832253 1.4260473 0.05330689 -0.06577665 0.015847305 -0.07707962
0.63637716 0.8697638 -0.25259915 -0.50224745 -0.92267466 0.21349214 -0.30175105 -0.74602675
-0.2241425 -0.53102696 1.70172 1.308114 0.24032629 -0.18784976 -0.6039182 -0.040113486
0.53618485 0.760132 -0.39696985 -0.5532206 -0.6952507 0.026695414 -2.19853 -1.4506984
0.24979654 0.121355556 1.8037883 1.3467882 -0.30798933 -1.1450195 -0.28578836 0.68171376
1.3094138 -0.2535841 0.61537975 0.973457 0.14686993 -0.12473888 0.09120904 -0.14724952
-1.058038 -1.1486241 -0.1465252 0.547932 0.3612874 -0.65316105 -0.4650763 0.6781167
0.38290802 0.19592841 1.8493438 1.2198405 -0.14697365 0.012830967 0.0731257 0.04589029
0.6093541 0.9229098 -0.32408145 -0.7100673 0.18126033 0.04310229 1.6795034 1.156273
0.3037891 0.049338117 -0.683063 0.0014119997 0.8041779 0.93690383 -0.2265931 -0.6711116
0.190949 0.033473127 -0.063009135 0.09027027 -0.4332958 -0.30575645 1.7084223 1.0438352
0.43886095 0.7515863 -0.50583744 -0.56162316 -0.35062158 -0.10544782 -2.579176 -1.5909632
0.24119791 -0.21787077 -0.69973105 -0.17833717 -0.17882632 -0.38658425 -2.9389822 -1.4943279
-0.08469725 -0.16491146 -0.67990124 -0.00036183052 -0.03032158 0.1967403 -0.17367446 0.10092704
0.65895146 1.0025717 -0.13764274 -0.4534966 0.73359275 1.1776724 -0.44037595 -0.6981798

fc1.bias f4 [128]
00000000: f40b 913e c8f5 7b3f b855 8c3e 6bb0 103e
00000010: 6634 cf3e 69f7 f23e 584b e1be ac5a 493e
00000020: 4253 723f 25d1 973e a36d cabe d946 343f
00000030: a66c 0b3e c86e 333f 7e47 b6be 0a30 493e
00000040: 6bf9 203f 2a36 7d3f 97d6 093e 4ca9 61be
00000050: 2e76 0bbe ff77 3fbe 6409 833e 8e47 38be
00000060: dca4 ca3e cc28 3fbd 3377 843e b70c 6c3f
00000070: b991 5b3f 1d6d 533e 33c4 353e 1223 eebe
00000080: e10a 983a 84ca 263f aa62 57be 4055 8dbe
00000090: 228e 5b3e 2767 0a3e dc84 aabe a1dc 853f
000000a0: 7530 7d3e e261 49bc 9342 313f 2f17 25be
000000b0: 37af c63e 24c4 84be 0a85 34be 112f 333f
000000c0: 2d47 1c3f e25b a3be 75e1 983e 0449 1b3f
000000d0: eda0 683f 8295 8e3e ad8f 97be 4b71 80be
000000e0: 69ff 833e 1702 72bc 3430 4e3f d218 a03e
000000f0: d581 543f e0a7 f2be a3d2 3e3e f584 a93e
00000100: a139 4e3f 4582 223f a55b 4a3f 3ffd 1dbe
00000110: 0232 b23d e4ac 663e 2084 0b3f c26f 8a3e
00000120: 2eb5 62be f8e3 25be 1285 e63e 08b7 4bbb
00000130: 245a 10bf 404a de3d 1fe0 83be 8bee 3dbf
00000140: 0626 0d3f c4bb 893f 9bc3 d5be b004 c8be
00000150: 451c 7cbe 3ffb 713f e5a3 8d3f 93b9 a4bf
00000160: dc83 523b dea7 fbbe 514c 4f3e 0548 3a3e
00000170: 24a1 33bd 6687 e3be f6f6 a6be 8550 e8bd
00000180: 33e4 963e c9ff 1c3e 30a4 21be 477e 93be
00000190: 0cde 2cbe 2d67 aa3e cc07 613e 9f05 ccbe
000001a0: d016 ebbe d6b2 5fbe d0fa 1b3f 1c69 163f
000001b0: cd0a 253f 14f0 7d3f 7e47 163f 85fd 843f
000001c0: 5803 343c 8cb1 f33e 4a39 403e 67b1 5f3f
000001d0: 00b7 d8be e5a0 21bf 1d39 783f b351 863f
000001e0: 3d89 0a3f 39f2 463f 05f4 463e 031d 803e
000001f0: f8cb bbbe a822 183f 6664 513e f04e 283f
0.28329432 0.9842191 0.27409148 0.14129798 0.40469664 0.47454384 -0.44002795 0.19663495
0.9465829 0.29651752 -0.3953677 0.70420605 0.13615665 0.70090914 -0.3560142 0.19647232
0.6288058 0.9891077 0.13460766 -0.22037238 -0.136193 -0.18698119 0.25593102 -0.17996046
0.39578903 -0.046669766 0.25872192 0.922069 0.8576923 0.20647092 0.17750625 -0.46511132
0.0011599922 0.65152764 -0.21033731 -0.27604103 0.21440938 0.13515912 -0.3330449 1.0457956
0.24725516 -0.0122914035 0.6924221 -0.16122125 0.38805553 -0.25930893 -0.17628875 0.6999369
0.61046106 -0.3190604 0.2985951 0.6065829 0.90870553 0.2784844 -0.29601803 -0.25086436
0.257808 -0.014771006 0.805423 0.31268936 0.8301061 -0.47393703 0.18635039 0.3310925
0.80556685 0.63480026 0.7904609 -0.15428637 0.087009445 0.2252689 0.5449848 0.2703839
-0.22139427 -0.16200244 0.450234 -0.0031084437 -0.56387544 0.10854006 -0.25756928 -0.7419211
0.55136144 1.0760427 -0.41750798 -0.39066076 -0.24620159 0.94523996 1.1065642 -1.2869133
0.0032122051 -0.4915151 0.20243956 0.18191536 -0.043854848 -0.44439238 -0.3261029 -0.11343483
0.29470977 0.1533195 -0.15785289 -0.2880728 -0.16881579 0.33281842 0.2197563 -0.3984804
-0.45915842 -0.21845564 0.60929585 0.58754134 0.64469606 0.99194455 0.5870284 1.0389868
0.010987125 0.47596395 0.18771854 0.8738007 -0.42327118 -0.6313613 0.9696215 1.0493683
0.5411566 0.7771335 0.19429024 0.25022134 -0.36679053 0.5942788 0.20448455 0.6574545

fc2.weight f4 [2, 128]
00000000: 44d4 033f 07f2 193f 8fea bb3e c825 20c0
00000010: e723 663f e4b0 043f 7a32 a0bd 15d9 543f
00000020: 034c 353f 599c 3b3f 501a c2bf 8645 bb3f
00000030: 2164 af3f daa3 aa3f 38d1 91bd 1394 fc3e
00000040: 3553 5bc0 85f7 2c3f f65c 0d3f 771a be3f
00000050: 7de5 7e3f ccd0 3f3f 0643 2a3f 9cf0 783f
00000060: 6909 493f e57c 43c0 5f5c 06c0 c055 ef3e
00000070: b644 c13e 1a83 c33e f61c 2b3f fec8 18be
00000080: f031 28c0 0272 ab3e 3a40 c5bf 0cf5 cb3d
00000090: 3861 1e3f bc62 a33f 9317 e2bf a628 193f
000000a0: ec1e e33e 830b f3bf 3b03 c43f 174f 423f
000000b0: f0d3 773f 741c 963d 9bdb b43f b0b0 183f
000000c0: 57d6 dd3f 810e f1bc b7dd 2e3f e6db be3f
000000d0: 0015 2a3f 1bef d33e 252b cebd 45b1 dcbf
000000e0: 428e 1d3f 49dc 0ec0 a7e8 f63e 9299 06c0
000000f0: 4bdf 073f aa38 a2bd a4a8 403f 774f 0f3f
00000100: 2717 023f a35a de3f 7f90 fd3e 5856 01c0
00000110: 944a 62c0 28ea 113f 0fbd 243f 896e 3d3f
00000120: 5ce4 6f3f f708 bb3c 4790 303f 7edd 29c0
00000130: af7c 1bc0 2156 04bf c835 e0bf e35f efbf
00000140: c1da 963f 0be7 153f 2151 0ebd b740 1fbe
00000150: a063 65bd 2f0c fd3e 6dec fb3e 9af1 6ebf
00000160: 60fa 29c0 fe49 9c3d b18b 0d3f b5bc 263f
00000170: e315 4dc0 88ab e3bf b75e fb3e 1433 11c0
00000180: 5a23 083f a0d9 0b3f b045 4d3f a24b 32be
00000190: 705a 153e b2a7 4c3f eac0 2c3f e90d c5bf
000001a0: a4bd 90bd 1bb5 b83f 51c3 193f 7e3f 3c3f
000001b0: 2f3b 7d3e e285 973e cab3 973f 5b75 ea3e
000001c0: 5562 20c0 c6b1 3c3f 3dbd 463f 936c 093f
000001d0: e847 acbc 4855 0fc0 8a00 1d3f 2890 083f
000001e0: 5745 233f 49b5 18c0 3a13 0f3f 364f 693f
000001f0: 9f07 62bd 485a 813f d500 113f 7f14 483f
00000200: 0277 443f 5297 2a3f e016 333f f844 20c0
00000210: d1bf 8d3f aad3 ef3e 0928 9cbd 928e 163f
00000220: 867e 0a3f 34b9 ef3e 6d2d f2bf 4916 bc3f
00000230: 351c b03f 8304 993f d689 2dbd e02d 383f
00000240: cf38 55c0 40b6 993e 203d d53e ab4a c93f
00000250: 7ac7 3a3f ca7a 453f efd0 363f e96d 6a3f
00000260: 3ebe 303f e2a8 45c0 af22 09c0 b12a fb3e
00000270: 8242 1e3f be54 343f 9467 5e3f 54be 3a3e
00000280: 9403 2ec0 6c2e 1f3f 613d dfbf 8f59 a4bc
00000290: 67bc fe3e e115 a33f aa08 d6bf e6b7 dd3e
000002a0: 48f6 dd3e db40 fabf 0e0b 9f3f 1491 663f
000002b0: abc7 433f f153 a83d b53d be3f 4963 d93e
000002c0: bda0 d73f a379 1fbe 33a3 3a3f f0bf a43f
000002d0: 5661 9f3e 694c 0b3f 0595 b7bd 45ea d6bf
000002e0: 235a 0e3f 8453 05c0 c5fa 3f3f 9a21 09c0
000002f0: ab9e 3a3f be9d 9e3d edcf 123f 2dec fe3e
00000300: 8862 153f 0a34 c03f 1bfc 2d3f ae42 e7bf
00000310: be2c 5ac0 d7c5 033f d763 f43e 7678 353f
00000320: 9a26 613f fcfd e33d 41c0 e03e 99d5 23c0
00000330: 773c 23c0 e650 44be 1fb0 eabf 1de7 e5bf
00000340: bc8b 983f 2e84 023f 5085 153d 4a8d 353c
00000350: 9575 ed3d 2295 263f b11c f43e 5bbb 58bf
00000360: 46f7 2ec0 3980 253e 4624 5a3f fad0 dc3e
00000370: f09d 44c0 66f4 c3bf bd7a 8f3e 511f 0ec0
00000380: 3168 123f e8f5 773f 1e8c 503f 4e2b 0cbe
00000390: dc10 54bd 845f 043f 9419 4c3f 1830 bfbf
000003a0: 9ff3 d73d 7040 b03f dcef 353f 52d3 fd3e
000003b0: 50ca ea3e acde 133f 84fb c03f 3177 3a3f
000003c0: 06f2 2ac0 e908 0f3f 28f6 ce3e d8f8 293f
000003d0: b791 933d 284d 08c0 faa3 d63e e4a8 223f
000003e0: 7db9 153f c690 1ac0 8b4e 4e3f b807 f93e
000003f0: fc00 533e 9c65 b23f bcf7 1d3f 24b7 2a3f
0.51495767 0.6013493 0.36702392 -2.502306 0.8989853 0.51832414 -0.07822128 0.8314374
0.7081911 0.7328544 -1.516428 1.4630592 1.3702432 1.3331254 -0.071199834 0.49331722
-3.4269536 0.67565185 0.5521997 1.4851826 0.9956892 0.74927974 0.6650852 0.9724214
0.78529984 -3.054498 -2.099388 0.4674511 0.37747735 0.3818596 0.66841066 -0.14920422
-2.628048 0.3348542 -1.5410225 0.09958848 0.61867094 1.2764506 -1.7663444 0.5982765
0.4435953 -1.8987888 1.5313486 0.7590193 0.96807766 0.07329646 1.4129518 0.59644604
1.7331036 -0.029425861 0.6830706 1.4910858 0.66438293 0.4139336 -0.10066823 -1.7241598
0.61545193 -2.2321951 0.48224375 -2.1031232 0.53075093 -0.07920964 0.75257325 0.5598063
0.5081658 1.737141 0.49524304 -2.020895 -3.535802 0.5699792 0.6435098 0.7399679
0.93707824 0.022831423 0.6897015 -2.6541438 -2.429485 -0.5169392 -1.7516413 -1.8701137
1.1785508 0.5855567 -0.03474534 -0.1555203 -0.056003213 0.49423358 0.49203816 -0.93337405
-2.6559067 0.076313004 0.5529128 0.65131694 -3.2044609 -1.7786722 0.490957 -2.2687426
0.5317894 0.54628944 0.8018446 -0.17411664 0.1458528 0.7994338 0.67481863 -1.539487
-0.07067421 1.4430269 0.60063654 0.7353438 0.24729608 0.29594332 1.1851742 0.4579266
-2.5060017 0.7370876 0.77632505 0.53681296 -0.021030381 -2.2395802 0.6132895 0.53344965
0.6377768 -2.3860648 0.5588871 0.9113649 -0.05518305 1.0105677 0.56641895 0.78156275
0.7674409 0.66637146 0.6995678 -2.5042095 1.1074163 0.46841174 -0.076248236 0.58811295
0.5409931 0.46820986 -1.8920113 1.4694301 1.3758608 1.1954502 -0.04236778 0.71945
-3.3315923 0.30021858 0.41648197 1.5725912 0.7296063 0.77140486 0.7141256 0.9157396
0.69040287 -3.0884328 -2.142742 0.49056008 0.6182023 0.70441806 0.868768 0.18236667
-2.7189684 0.6218021 -1.7440606 -0.020062236 0.49753115 1.2741052 -1.6721394 0.43304366
0.4335196 -1.9551042 1.2425249 0.9006512 0.76476544 0.082191356 1.4862581 0.4245856
1.6845928 -0.15573744 0.7290527 1.2871075 0.3112895 0.5441347 -0.0896397 -1.6790243
0.5560629 -2.0832224 0.7499202 -2.1426759 0.7289836 0.07744931 0.5734852 0.49789563
0.5835347 1.5015881 0.6796281 -1.8067224 -3.4089808 0.51473755 0.47732422 0.70886934
0.87949526 0.11132428 0.43896678 -2.559912 -2.5505655 -0.19171485 -1.8334998 -1.7961155
1.1917644 0.5098294 0.03650409 0.011081049 0.115946926 0.6507131 0.4767814 -0.8466088
-2.7338424 0.16162194 0.852116 0.43128186 -3.0721397 -1.530896 0.2802333 -2.2206614
0.57190233 0.968596 0.814638 -0.13688394 -0.05177389 0.51708245 0.7972653 -1.4936552
0.10544514 1.3769665 0.7106912 0.49575287 0.45857477 0.57761645 1.5076756 0.7283812
-2.671022 0.5587297 0.40422177 0.6639533 0.07205527 -2.1297092 0.4192198 0.63538957
0.5848616 -2.4150863 0.805886 0.486387 0.20605844 1.3937259 0.6170614 0.666857

fc2.bias f4 [2]
00000000: 921d eb3e 7223 be3e
0.45920998 0.37136418
