saved_models/train_20240508_181454/best_target_net.pth (torch, 4688 bytes, 3 tensors)

fc1.weight f4 [128, 3]
000000 be c3 25 c0 b7 52 be bf f5 fe 3e 3e 9d 7d 5f 3f
       -2.5900722 -1.4868993 0.18651946 0.87301046
000010 c5 34 f1 be db 1c 03 be 7b 11 3f bd 10 e2 58 3d
       -0.47110572 -0.12803976 -0.04664753 0.052949965
000020 ba d4 5b 3c 5a 26 ae 3d de 52 92 bd e1 13 8f bc
       0.013417417 0.08503409 -0.07144712 -0.017465534
000030 6e 0d 92 3e d8 15 bb 3f ce 1f 6a bc 38 bf 04 3f
       0.2852587 1.4616041 -0.014289809 0.51854277
000040 f3 94 c9 be f5 01 5b be 7d e8 94 bd 39 7c 5b bd
       -0.39371452 -0.21387465 -0.07270906 -0.053585265
000050 47 ee 2b bd 22 9a 1f bf 73 7c fe bf 19 a5 0a be
       -0.041975286 -0.62344563 -1.9881729 -0.13539542
000060 b1 68 1e be a6 6e e1 3f 1f c0 81 bd e5 d3 3e bf
       -0.15469624 1.7611892 -0.06335472 -0.74542075
000070 3d de 20 c0 cd 59 47 be 93 dd 98 3f 01 45 13 c0
       -2.5135643 -0.1946785 1.1942619 -2.3010867
000080 bc dc cb be 3d 0e 32 be 16 79 e1 3f 07 0f 00 be
       -0.39816844 -0.17388244 1.7615077 -0.12505732
000090 ae 39 21 3f 07 73 bd be 17 5b f4 bd dc cb 8a 3e
       0.6297864 -0.3700182 -0.119314365 0.27108657
0000a0 bf 19 bf bf 2d 58 b2 be 5e d5 1d 3e 0b 9a 26 be
       -1.4929732 -0.34832898 0.15413424 -0.162697
0000b0 5a a0 91 3c 73 17 37 c0 fb e0 c7 3f 3b de 88 be
       0.017776657 -2.8608062 1.5615534 -0.26732048
0000c0 75 10 58 3e 13 d9 bb bd 54 8c 90 bc b5 a2 32 bf
       0.21100028 -0.09172263 -0.017645039 -0.6977952
0000d0 9a c4 1a c0 93 69 26 be 88 41 bf be 9c f0 38 bf
       -2.4182496 -0.16251211 -0.37354684 -0.7224214
0000e0 83 4a af 3f c1 14 dd 3e 0c ff ff bf 99 8b 91 3e
       1.3694614 0.43179896 -1.9999709 0.28426817
0000f0 c9 be 5e 3f 36 66 d8 be 4a bf 56 be d6 4e 84 3f
       0.87009865 -0.4226548 -0.20971408 1.0336559
000100 70 38 2c bf d2 54 bb bd 57 71 b9 3f 77 89 0d c0
       -0.67273617 -0.091470376 1.4487714 -2.2115152
000110 27 4b 5e 3e 48 52 13 bf 63 38 25 c0 7a ee 1b be
       0.21708356 -0.57547426 -2.5815666 -0.1522769
000120 28 70 16 bf 95 e7 32 bf d3 2a b7 3f ce f8 1d bf
       -0.58764887 -0.69884616 1.4309944 -0.6170777
000130 87 e7 1a c0 f5 33 1a be 36 a2 1c be ad 19 a1 bf
       -2.4203813 -0.15058883 -0.15296254 -1.2585961
000140 28 07 94 3f 33 89 18 3f b2 d3 d3 bf e6 5e 97 be
       1.1564684 0.5958435 -1.6548979 -0.2956459
000150 70 4a 11 bf 9f ef 0d c0 b7 e9 06 be ee 6a 95 bd
       -0.5675421 -2.2177503 -0.13175093 -0.07295786
000160 30 d0 c6 3f a4 25 15 bd 97 fe 35 c0 ad 97 ad 3f
       1.5532284 -0.03641285 -2.843664 1.3561913
000170 90 d1 46 be e4 59 bb 3d dc f0 f3 bf 6f ee 7f be
       -0.19415879 0.09148005 -1.905788 -0.24993299
000180 2f 6a 1c 3e ea 1b 9e 3f fa b6 6a 3d 3d 86 c7 be
       0.15274881 1.2352269 0.057303406 -0.38969603
000190 b2 2c 14 c0 2c c2 ca bd 65 8e f2 3e b3 59 f5 bf
       -2.315228 -0.099003166 0.47374263 -1.9167999
0001a0 64 6f a6 bd cf 4e cc bd 3e f1 44 40 e4 6f 81 be
       -0.08126715 -0.09975969 3.0772243 -0.25280678
0001b0 30 0d b0 bf 8e b0 1d 40 67 a1 49 be 18 1f ff be
       -1.3754025 2.463901 -0.19690476 -0.4982841
0001c0 64 9d 0c c0 50 31 e6 bd 9b 0d 31 3f 54 1e 07 bf
       -2.1971064 -0.11239874 0.69161385 -0.5278065
0001d0 7e ea 3b be be d9 f7 3d a1 ac 49 be 12 01 19 3b
       -0.1835117 0.12102078 -0.19694759 0.0023346585
0001e0 93 9a 46 bf c7 8b 18 c0 72 b9 3c be b9 16 31 bf
       -0.7757961 -2.3835313 -0.18430117 -0.691753
0001f0 79 c0 ad 3f 3a 66 2b bd 6a 95 45 3c 50 e4 d6 3f
       1.3574363 -0.041845538 0.012059549 1.6788425
000200 a4 f6 da bd 99 85 a9 bd 67 b3 f2 3f f5 7a d1 bd
       -0.10691574 -0.08277435 1.8960999 -0.1022853
000210 86 bc 36 c0 80 b8 94 3f 40 c8 99 3f 3e 08 16 c0
       -2.8552566 1.1618805 1.2014236 -2.344253
000220 b0 25 9d 40 e4 f9 ae 3f 9e 1c 94 3f 9f af 3c c0
       4.9108505 1.367001 1.1571233 -2.948219
000230 2b e9 cf be 83 bc e7 3e f7 4a db bf d9 20 94 be
       -0.4060758 0.4526101 -1.7132252 -0.2893131
000240 23 a4 c4 3d 14 97 a6 3f 39 d3 c0 3c 96 23 11 bf
       0.09601619 1.3014855 0.023538219 -0.56694925
000250 29 f0 ac 3f 63 f0 0b 3d 61 f7 f5 be 35 f9 4b 40
       1.3510791 0.034164798 -0.48040298 3.1870854
000260 b3 03 87 be b6 67 92 3e 14 34 e3 bf e8 95 9f be
       -0.2637001 0.2859475 -1.7750268 -0.31169057
000270 31 9e e6 bf d8 24 89 bf 42 18 4f bf 9e 01 a4 3f
       -1.8017026 -1.0714369 -0.8089639 1.2812994
000280 a4 c1 19 c0 45 a6 2a bf fb 74 a2 3d 0a 1d b9 bd
       -2.402444 -0.6665996 0.079324685 -0.09038742
000290 e0 0a 37 bc 06 91 93 be ec fd a2 3f 7f 1b b4 3c
       -0.011172026 -0.28821582 1.2733741 0.021985767
0002a0 b2 53 36 c0 43 14 4d 40 b8 1c 9b 3f 6c 93 f0 bd
       -2.8488584 3.2043617 1.2118139 -0.117468685
0002b0 56 89 aa 3f 37 23 44 bd 25 48 0f 3f 69 2b c6 bf
       1.3323162 -0.047885146 0.5596946 -1.5481998
0002c0 f1 f1 81 be 95 17 d4 3e 44 e2 e2 bf 90 c5 69 be
       -0.253799 0.41424242 -1.7725301 -0.2282927
0002d0 6b 01 0e be 65 cb 93 3f 97 4f 7d 3d 14 0f db 3e
       -0.13867728 1.1546446 0.06184348 0.4278494
0002e0 77 5f be bf e5 b6 8f be 2d 9b 2c 3f 49 a9 07 c0
       -1.4872884 -0.28069225 0.6742428 -2.1197073
0002f0 76 b3 c0 be de 73 13 bf 1e f1 10 c0 90 36 12 be
       -0.37636918 -0.57598674 -2.2647166 -0.14278626
000300 65 df 78 bf 21 89 31 40 f0 3e a6 be e3 24 94 bd
       -0.97215873 2.7739947 -0.32469893 -0.07233598
000310 83 27 9d 3f e4 e5 b5 bc 40 2f 37 3f 96 0f 42 c0
       1.2277683 -0.022204347 0.7155647 -3.0322013
000320 55 eb b3 be 3a d8 15 bf f1 84 19 c0 64 de 08 be
       -0.35140482 -0.5853306 -2.398739 -0.13366085
000330 95 30 94 3f 6a 5b 0f bf 32 67 55 bd cc 1b 81 3f
       1.1577326 -0.5599886 -0.052100368 1.0086608
000340 ad 15 0f bf 09 04 a2 bd d3 75 9f 3f 6a cb da bf
       -0.5589245 -0.07910926 1.2457832 -1.7093327
000350 6b 34 8d be b7 d2 89 bd dd b4 08 c0 8d 4b 96 be
       -0.27579054 -0.06729644 -2.136039 -0.29354516
000360 54 12 4a 3e 5e fb a6 3f 94 85 35 bb 82 4f 50 3e
       0.19733554 1.3045461 -0.0027698027 0.2034283
000370 91 0f dd bf 1d 45 6e be b8 4f d5 bf 48 2d 00 bf
       -1.7270375 -0.23268552 -1.6664953 -0.50069094
000380 d0 4e 77 bf 9f 95 25 3f a1 3e 2d bf 25 6d 9b be
       -0.96604633 0.6468143 -0.6767369 -0.30356708
000390 ef dd 71 3d 66 16 a5 3f 81 f0 b2 bb 33 c8 2d 3f
       0.059049543 1.289746 -0.005460799 0.67883605
0003a0 30 c7 d6 be 86 74 ec bd e0 20 07 c0 2c ff 97 40
       -0.41948843 -0.115456626 -2.1113815 4.749899
0003b0 6a 0b b4 3f f6 d1 33 bc f2 6f 33 3e ec 9b 9a bc
       1.4065983 -0.010975352 0.17523172 -0.018873177
0003c0 d9 cd 98 3f 89 06 20 c0 e3 f1 28 bf 28 8a df be
       1.193782 -2.5003989 -0.6599409 -0.43660092
0003d0 ef 91 ff 3f 36 88 01 be 94 d3 ec 3d 0d 26 ae bf
       1.996641 -0.12649617 0.11563793 -1.3605362
0003e0 29 2f 94 3f 7a 2b 0b 3f 04 06 c1 bf 0e b1 a1 be
       1.1576892 0.54363215 -1.5079961 -0.31580395
0003f0 b9 a8 04 c0 ca c1 b6 bf 02 40 28 bf c4 ee 1d c0
       -2.072798 -1.427789 -0.6572267 -2.467698

fc1.bias f4 [128]
000000 b0 ad 93 3f f8 83 19 40 93 0a 0f bf a9 d2 03 bf
       1.153738 2.3986797 -0.5587551 -0.51493317
000010 2d b1 24 40 32 83 2e 40 01 7a da be 7b 89 dc 3f
       2.573314 2.7267575 -0.42671207 1.7229456
000020 d4 50 20 40 87 dc 09 40 d1 62 41 c0 1c 34 05 40
       2.5049334 2.154085 -3.0216563 2.0813055
000030 2b 84 24 40 aa 1e 35 40 8f 2a e0 be 6b 35 5b 3f
       2.570567 2.8299966 -0.4378247 0.85628384
000040 b7 ef b8 be 20 4e 07 40 b5 e7 6e bf 1e 2d 07 40
       -0.36120388 2.1141434 -0.93322307 2.1121287
000050 e9 c6 30 40 c2 b0 10 40 5b 36 df 3f 78 1e 11 40
       2.7621405 2.2607884 1.7438463 2.2674847
000060 e9 6e 28 bf 30 e0 06 40 a7 bf b8 bf 10 52 36 40
       -0.65794235 2.1074333 -1.4433488 2.8487587
000070 d3 21 f8 3f 8e 23 21 40 77 bc 80 3f 80 e1 18 40
       1.9385322 2.517795 1.0057515 2.3887634
000080 2a 25 35 40 f8 f8 04 40 97 0a 11 40 8d 8a 90 3f
       2.8303933 2.0776958 2.2662714 1.1292282
000090 b4 3f 5a 3f 89 dc f7 3f f3 8b 1f 40 af 86 87 be
       0.85253453 1.9364177 2.4929168 -0.26469943
0000a0 d6 3a 04 40 ab 82 0d 40 60 fc 0a 40 3c bc 19 40
       2.066091 2.2111003 2.1716537 2.402114
0000b0 34 ce 31 40 cb d0 da 3e 0b ab 9c 3f d3 5a 36 40
       2.7782106 0.4273742 1.2239698 2.8492935
0000c0 60 2d 2b 40 9d d5 2d 40 46 eb 89 3f 8e 9b 26 40
       2.6746445 2.716163 1.0774925 2.6032443
0000d0 ea a4 b5 bf c0 7a 36 c0 c8 cf 03 bf 50 a8 22 40
       -1.4190953 -2.851242 -0.51488924 2.541523
0000e0 4f b3 ba 3f 04 09 0d 40 5b 7d 24 40 aa bc 1a 40
       1.4585971 2.2036753 2.570151 2.4177651
0000f0 a2 17 32 40 ea c5 25 40 a2 a9 31 c0 f0 f9 fb 3f
       2.7826924 2.5902047 -2.7759786 1.968565
000100 83 77 27 3e a5 75 12 40 ad d0 cc 3f 4b 09 07 40
       0.16354184 2.2884305 1.6001183 2.1099422
000110 ae 9e f9 3f cc 88 0c 40 f3 e8 13 c0 70 23 2d 40
       1.950155 2.1958494 -2.311093 2.705288
000120 4a 31 1f 40 e3 aa 09 40 d9 04 7d bf fd b0 27 40
       2.4873834 2.151055 -0.9883552 2.6201775
000130 20 9a 1d 40 62 df 2f 40 63 30 e2 3e 6b 17 0e bf
       2.462532 2.7480092 0.4417754 -0.55504483
000140 38 f1 37 c0 f2 1a 02 40 10 8c cc bf 01 36 32 40
       -2.8740978 2.0328946 -1.5980244 2.7845461
000150 38 01 bf bf ac d8 4a 3f a5 0f f1 3f df d7 a0 3f
       -1.4922247 0.79236865 1.8832899 1.2565879
000160 d1 6b f1 3f 75 7e a8 3d f6 61 10 40 d6 b7 37 3f
       1.8861028 0.08227245 2.255979 0.71764886
000170 f7 30 36 bf dd b0 61 3f 2f 2f 33 40 b8 27 a8 3f
       -0.71168464 0.88160497 2.7997549 1.3137121
000180 6b f1 aa 3f eb a5 25 40 e0 c0 92 3f d4 51 09 40
       1.3354925 2.5882518 1.1465111 2.1456194
000190 2f 9e 17 40 4f db 35 c0 02 99 fc 3f 3c be 02 40
       2.3690298 -2.8415105 1.9734194 2.042861
0001a0 33 09 2b 40 65 c6 8b 3e 47 c9 fe 3e f2 61 9e 3f
       2.6724365 0.272998 0.49762937 1.237364
0001b0 6a c4 f7 3f 1c 0c b4 be 7d 6a f6 3f 25 d7 91 3f
       1.9356816 -0.3516549 1.9251248 1.1393782
0001c0 5b 7d 2b c0 2c e6 22 40 21 8d 26 40 15 2a be bf
       -2.679526 2.5452986 2.6023638 -1.4856592
0001d0 4e 6a 2a 40 ed 3b 35 40 c3 11 f4 3f 67 b7 10 40
       2.6627383 2.8317826 1.906792 2.261194
0001e0 ec 75 10 40 08 9b 38 40 51 ae 16 40 4a d6 2f 40
       2.2571974 2.8844624 2.3543894 2.7474542
0001f0 37 88 fe 3f 3d 31 03 40 db 7f c9 3f cb 35 f3 be
       1.988532 2.0498803 1.5742143 -0.47501978

fc2.weight f4 [1, 128]
000000 0a 6e f3 bf 80 99 08 c0 c9 49 39 be fa 9e 19 3e
       -1.9017956 -2.134369 -0.18094553 0.15002051
000010 cb 26 e2 bf 4a c2 06 c0 08 50 12 3c 84 56 e2 bf
       -1.7668089 -2.1056085 0.008930214 -1.7682652
000020 a3 c0 e2 bf 91 52 f4 bf 1d 6b 48 40 c8 0d b9 bf
       -1.7715038 -1.9087697 3.1315377 -1.4457331
000030 ae 01 10 c0 a6 28 ea bf 78 3f 30 be 43 f6 f3 bf
       -2.2501025 -1.8293655 -0.17211711 -1.9059528
000040 86 bf aa 3c 50 5a 00 c0 bc a1 0d 40 de de 11 c0
       0.020843279 -2.0055122 2.2129965 -2.2792277
000050 38 f7 07 c0 77 07 11 c0 cf bd 5d c0 4d c6 f6 bf
       -2.124464 -2.2660806 -3.46471 -1.9279267
000060 5a 02 08 40 17 d5 0c c0 f5 0c 13 40 15 76 f5 bf
       2.1251435 -2.200506 2.2976658 -1.9176661
000070 25 e4 00 c0 38 e7 dd bf 73 5c f5 bf 1b cd ee bf
       -2.0139248 -1.7336187 -1.9168838 -1.8656343
000080 4e ae d3 bf db 8d e6 bf df 32 00 c0 6d bf e6 bf
       -1.6537569 -1.8012041 -2.003105 -1.8027169
000090 d9 5a e1 bf d6 c0 fc bf 62 af 0c c0 77 b3 99 3d
       -1.760585 -1.9746349 -2.1982045 0.07504933
0000a0 9c d3 ed bf 1f 56 d8 bf 20 04 f5 bf 71 12 d0 bf
       -1.8580203 -1.6901282 -1.9141884 -1.6255628
0000b0 52 26 35 c0 76 5d 54 c0 23 44 14 c0 c1 10 e9 bf
       -2.830464 -3.3182044 -2.3166587 -1.8208238
0000c0 91 46 da bf cb 94 bf bf c3 5c f0 bf d6 46 d8 bf
       -1.7052785 -1.4967283 -1.8778309 -1.6896617
0000d0 6d f6 dc 3f 0d 79 51 40 31 91 d9 bc de 92 ce bf
       1.7262703 3.2730134 -0.02655849 -1.613857
0000e0 c3 67 42 c0 fe 92 cc bf 2f 16 01 c0 33 77 ec bf
       -3.037583 -1.5982358 -2.016979 -1.8473877
0000f0 a1 e9 ce bf f3 c2 01 c0 33 93 27 40 cc a8 fc bf
       -1.6165048 -2.0275238 2.6183593 -1.9739013
000100 6f 56 f6 bf 97 69 ce bf 76 2d 02 c0 51 7f ff bf
       -1.9245127 -1.6125973 -2.0340247 -1.9960729
000110 73 1c 18 c0 b8 05 0b c0 ae 29 5a 40 e7 ef e3 bf
       -2.3767364 -2.172224 3.408794 -1.7807587
000120 68 44 cb bf 46 4e ec bf 03 c9 f9 3f d0 6a f0 bf
       -1.5880251 -1.8461387 1.9514469 -1.8782597
000130 2e e9 e6 bf 83 af 0e c0 10 06 57 c0 25 c5 4c 3e
       -1.8039911 -2.2294624 -3.359745 0.1999708
000140 6b 30 48 40 04 37 c3 bf 99 e3 41 40 25 0c fb bf
       3.1279552 -1.5251164 3.0295165 -1.9613081
000150 19 82 ed 3f d7 67 4d c0 f4 cb 00 c0 2b 31 01 c0
       1.8555328 -3.209463 -2.0124483 -2.018626
000160 f4 b4 d4 bf 16 d8 89 c0 b9 0d 04 c0 6f 07 f4 bf
       -1.6617723 -4.3076277 -2.0633376 -1.9064769
000170 5b dc 0f 40 c7 10 05 c0 9f c7 cf bf 57 0c 42 c0
       2.2478244 -2.079149 -1.6232795 -3.0320032
000180 86 36 df bf 88 80 ee bf 0e 78 f4 bf 4d ae b7 bf
       -1.7438514 -1.8632975 -1.9099138 -1.4350067
000190 b4 e4 f0 bf d8 0e 3a 40 a5 08 fb bf 31 74 f9 bf
       -1.8819795 2.907156 -1.9612013 -1.9488584
0001a0 59 72 0d c0 80 3a 60 c0 6d 7e 51 c0 06 f2 dd bf
       -2.2101042 -3.5035706 -3.2733414 -1.7339485
0001b0 9d 5f f8 bf b3 c3 30 3d fc 81 dc bf cf 69 88 c0
       -1.9404179 0.043155383 -1.7227168 -4.262916
0001c0 22 83 4b 40 82 0d d6 bf 1d 73 d7 bf 99 68 30 40
       3.1798787 -1.6722872 -1.6832005 2.7563841
0001d0 25 b5 e4 bf 95 db d0 bf 91 7f dc bf b9 83 fd bf
       -1.7867781 -1.6317011 -1.722643 -1.9805824
0001e0 fa 13 d5 bf 70 0b e5 bf c3 e1 15 c0 70 81 f0 bf
       -1.6646721 -1.7894115 -2.3419044 -1.8789501
0001f0 47 9f e5 bf cd 64 0f c0 f6 5e ff bf 10 2b bb 3b
       -1.7939233 -2.2405274 -1.9950855 0.0057119206
