saved_models/pole_DQN/train_DQN_pp_6/best_online_net.pth (torch, 5712 bytes, 4 tensors)

fc1.weight f4 [128, 4]
000000 c1 9e fe 3c 27 38 f8 bc 85 3c 0e bf 5f a0 a4 be
       0.03108156 -0.030300213 -0.55561095 -0.32153603
000010 be 57 0d 3e 09 30 6c 3d 75 fa da be f8 0f 1a be
       0.13803002 0.057662997 -0.4276921 -0.15045154
000020 f2 13 84 bd 3a e1 21 bf 49 58 03 bf 2b 56 fa 3e
       -0.06449117 -0.63234293 -0.5130659 0.48893866
000030 95 17 c7 3e 46 a9 11 bf 52 6a cd be 62 0c 88 3e
       0.3888518 -0.56898916 -0.40120178 0.26571947
000040 2e f8 6e 3c ea e0 0b 3e 51 a6 08 bf a0 33 31 bd
       0.014585538 0.13660017 -0.5337878 -0.043262124
000050 8d 8d 2a bd 3f f3 17 be 0f ac dd bf a0 86 51 bf
       -0.0416389 -0.14838885 -1.7318133 -0.81846046
000060 8b 3a 42 3d 22 a9 dd 3c 68 20 d2 be e6 97 85 be
       0.047419112 0.027058188 -0.4104035 -0.26092452
000070 f3 0c f4 3d 26 86 8b 3d 42 de c6 be 17 86 65 bd
       0.11916532 0.06812696 -0.38841444 -0.05603608
000080 4d 5a 4b be 97 77 1d be 8a 30 f2 bf 76 00 64 bf
       -0.19858666 -0.15377651 -1.8921063 -0.89063203
000090 d3 8e 66 be 51 bc 10 3f 00 7a 0b 40 5a 17 77 3f
       -0.2251542 0.5653735 2.1793213 0.96520007
0000a0 28 21 18 3e c9 45 a4 3d f1 a2 2e bf ef 47 05 be
       0.14856398 0.08021123 -0.6821738 -0.13015722
0000b0 35 95 54 3e 41 3d 92 bc a1 e4 1b bf 9c 46 ab 3a
       0.20760043 -0.017851474 -0.60895735 0.0013067308
0000c0 dd 40 a5 3d 6b 47 0c bd 10 23 95 be 5e 34 4c bd
       0.08069012 -0.034247797 -0.29128313 -0.04985463
0000d0 ce 1b 1a bf 8c 50 81 be 4d 69 06 3f 83 1b de 3e
       -0.60198677 -0.25256765 0.52504426 0.43380365
0000e0 47 59 fd 3d 8f 2e 0e 3e 9c 17 27 bf 65 8e 51 3d
       0.12370544 0.13884948 -0.652704 0.05116119
0000f0 39 23 05 3c c2 bb 0e bf 5e 4e 7e be e4 a9 a3 3e
       0.0081260735 -0.55755246 -0.24834582 0.31965554
000100 7e d1 d1 3e 5d c9 44 be dc 13 e8 bf f1 6a 78 bf
       0.40980142 -0.19217439 -1.8131061 -0.9703818
000110 5b 99 05 3e 7e 0a 10 be 7a 2c c0 be 25 79 21 be
       0.13046782 -0.14066502 -0.37533933 -0.15768869
000120 be 92 79 3c 41 8f d5 bc 38 43 be bf 11 44 64 bf
       0.01523274 -0.026069285 -1.4864264 -0.8916636
000130 5d 1f 04 3d d5 9a d9 be 28 9f e0 bf c9 04 5c bf
       0.032256473 -0.4250094 -1.7548571 -0.859448
000140 79 4e 88 bd 09 c2 c8 be 9a 89 f9 bf 7f ac 66 bf
       -0.066555925 -0.39210537 -1.9495118 -0.9010696
000150 6d a5 06 be fa 62 5c bd 2c 82 ef be a4 a7 d1 be
       -0.13149042 -0.05380533 -0.46779 -0.40948212
000160 47 77 28 3e 28 a1 26 be ff b6 57 be a4 e9 2c be
       0.1645175 -0.16272414 -0.21065901 -0.16886002
000170 62 1c b0 bd eb 13 ea 3d aa 87 24 bf 3e 27 cd be
       -0.085991636 0.1142958 -0.64269507 -0.40069002
000180 a8 f0 74 3b 15 d8 85 b8 3a 21 b3 be 97 ad 89 be
       0.0037374888 -6.3821826e-05 -0.34986287 -0.2689025
000190 44 5e 02 be 2b 8d f6 bd a0 87 39 bf 4a eb 37 be
       -0.12731272 -0.120386444 -0.7247257 -0.1796085
0001a0 9d e8 0a be e1 c8 40 be 4e 66 09 bf 88 9a fc bd
       -0.13565297 -0.18826629 -0.5367173 -0.12334162
0001b0 71 ec cf 3d c5 3b be bd 2d 11 82 be 6a b1 57 be
       0.101525195 -0.09288744 -0.2540373 -0.21063772
0001c0 c0 c7 24 be 33 94 02 bf f1 c4 cf be f6 0d bc 3e
       -0.16091824 -0.51007384 -0.40579942 0.367294
0001d0 f7 ca 85 be bb 7f c3 3d fc 1b 8c be 1c 13 af be
       -0.26131412 0.09545847 -0.273651 -0.34194267
0001e0 c5 7b 39 bc 53 37 a8 3d d9 da e0 be ef 7f 5b be
       -0.011321013 0.08213677 -0.43916968 -0.21435522
0001f0 35 c0 e8 bb da da 81 bd e7 c6 d2 be be a9 e5 be
       -0.007102991 -0.06340571 -0.41167375 -0.44856066
000200 11 e8 f8 3c 5c 7e a1 bd d6 26 da be 5f 3b ab be
       0.030384095 -0.07885429 -0.42607754 -0.33443734
000210 97 c3 71 bd 1b ce fd be 69 25 c8 be f7 e9 a1 3e
       -0.05902442 -0.49571308 -0.39091042 0.31623814
000220 71 fa 89 bc de 87 31 bf 1f e6 c0 be d3 33 bc 3e
       -0.016843053 -0.6934794 -0.37675568 0.3675829
000230 d8 6f 4e bf fd f2 dc 3e c7 ca 13 40 56 67 56 3f
       -0.8063941 0.43154135 2.3092515 0.8375143
000240 cb 21 36 be 91 95 24 3f 49 b3 ed be 55 16 b0 be
       -0.17786328 0.6429072 -0.46425846 -0.34392038
000250 46 92 4a be 0f c9 64 be 59 fe fb be 9c 35 ce 3d
       -0.19782361 -0.22342323 -0.4921749 0.10068819
000260 b5 1a 2b 3e f0 69 42 be 42 43 f6 be 74 44 6e be
       0.16709407 -0.18985724 -0.4809819 -0.232683
000270 8b 73 e6 3d 98 b9 40 be 5b d6 86 be 98 2f 28 bd
       0.11252507 -0.18820798 -0.26335415 -0.041061014
000280 e7 76 46 be 8d 48 cc 3d 03 7f 2b bd 52 70 23 3c
       -0.19381295 0.099747755 -0.041869175 0.00997551
000290 db 3f 5a bd 68 66 20 3e 74 6e c1 be 4b 1a 87 be
       -0.053283554 0.15664065 -0.37779582 -0.26387247
0002a0 e9 a9 a7 3d fc ae 99 3d ba 49 c5 be e9 12 12 3d
       0.08186705 0.07504079 -0.3853281 0.035662565
0002b0 f4 16 56 bd 62 35 78 bd 42 7d 06 bf 0f 0e 35 3d
       -0.052267984 -0.060597785 -0.5253488 0.04420286
0002c0 96 e6 72 bc cf 76 11 3e a0 cd 13 bf 9e 84 87 be
       -0.014825484 0.14205478 -0.57735634 -0.26468366
0002d0 6f 6b 90 3d a1 c4 5b be 9c fc c8 be ae 99 26 be
       0.07051741 -0.21461727 -0.39255226 -0.16269562
0002e0 0c f8 71 3e ff 29 5b be 12 ad 1b bf bf 4e 14 3e
       0.23629779 -0.21402739 -0.6081096 0.14483164
0002f0 27 61 30 3f d5 ea 05 3f 0f 4d 28 3f fd 73 ce 3e
       0.6889824 0.5231145 0.6574258 0.40322867
000300 a8 05 0e 3d ae 87 7b 3e 81 94 a0 be 8b 67 d1 be
       0.034673363 0.24563476 -0.313633 -0.4089931
000310 b1 00 71 bd 51 c1 28 bd 95 3d 4c 3d 8b 96 ab 3d
       -0.05883855 -0.041199986 0.049863417 0.08378323
000320 6d fa 18 3d f1 21 35 bf 4b 05 9a be 7a 3e aa 3e
       0.0373482 -0.70754915 -0.30082163 0.3325079
000330 c8 b3 df bd 82 95 d7 be 49 86 dd bd 40 9e d0 3e
       -0.109229624 -0.42106253 -0.108166285 0.40745735
000340 17 61 4d bc 16 a1 a6 bc 9f 3f fd be d5 32 3b bd
       -0.012535355 -0.020340484 -0.49462602 -0.045702774
000350 fc f9 fd 3d 31 ab 6a 3d 17 d6 55 be 89 22 87 3c
       0.12401196 0.057292167 -0.2088245 0.01649596
000360 7a 29 20 be 7a c5 15 3f 15 0b 14 40 37 d2 47 3f
       -0.15640822 0.5850445 2.3131764 0.7805514
000370 df 45 80 be 9a b1 80 be a6 c7 e7 be 45 44 cf 3e
       -0.25053307 -0.251355 -0.45269507 0.40481773
000380 72 99 7d 3e c7 aa 9d bd 36 93 0b bf dd 7e 90 bd
       0.24765566 -0.07698589 -0.545215 -0.07055447
000390 bb 3e 93 3e 92 0d 06 3f 88 1e 82 be 9e ff e7 be
       0.28758797 0.52364457 -0.25413918 -0.45312208
0003a0 97 59 4a 3e ec b2 a8 be e5 85 94 be 58 27 24 3e
       0.19760738 -0.32949007 -0.29008403 0.16030633
0003b0 9e ef d4 bd 3c d5 f2 bb 83 e4 1d bf a6 a5 88 bd
       -0.10397266 -0.0074106734 -0.61676806 -0.0667222
0003c0 88 b5 b0 be da 0f 0a bf 6c a6 92 be 4d 7c cc 3e
       -0.34513497 -0.5393044 -0.28642595 0.39938584
0003d0 8c de 5f 3e 41 03 30 bd 7a 8e 02 c0 e5 92 62 bf
       0.21862239 -0.042971853 -2.039946 -0.88505393
0003e0 9e 64 70 bf 9c ab 89 3e 50 15 fa 3f 04 87 14 3f
       -0.9390353 0.2688874 1.9537754 0.5801852
0003f0 89 37 a0 bf 02 2a 9f 3e 05 3c 11 40 70 f2 37 3f
       -1.2516948 0.31086737 2.2692883 0.71854305

fc1.bias f4 [128]
000000 7f 1a 9b 3e 81 a1 3e 3f 43 9f f3 3e a1 df 00 3e
       0.30293652 0.74465185 0.47582445 0.12585308
000010 04 b4 59 3f 52 ff 1c be ea 32 23 3f 42 09 17 3f
       0.8504031 -0.15331772 0.63749564 0.589985
000020 3f 47 b7 3d 9a f0 b5 be 33 ec 4a 3f 16 84 0f 3f
       0.08949136 -0.35535127 0.7926666 0.5606092
000030 d3 90 ce 3e b5 10 05 be 36 85 3e 3f ca e6 71 3e
       0.40344867 -0.12994654 0.74422014 0.23623195
000040 4f f7 01 bf be b5 1e 3f c2 fd bd 3c fd a1 14 bf
       -0.5076799 0.61996067 0.02319229 -0.58059675
000050 14 e4 0e 3d 7c a6 8b 3e b4 5a f8 3e 59 49 ec 3e
       0.03488548 0.27275455 0.485067 0.4614971
000060 bf 58 13 3f 5e 43 12 3f f2 06 01 3f ae 15 f2 3e
       0.5755729 0.57134044 0.5040122 0.47282165
000070 f3 cc 8d 3e f9 d8 54 3e 22 61 9c 3e 4a 52 b1 3e
       0.27695426 0.20785893 0.30542856 0.34633094
000080 05 68 91 3e 6d 42 38 3e 6f df b1 3e 30 7f 39 bf
       0.28399673 0.1799409 0.3474078 -0.724597
000090 20 fc af be 29 5c ec 3e 99 16 1b 3f c3 18 14 3f
       -0.34372044 0.46164063 0.60581356 0.57850283
0000a0 b8 d0 c9 be f4 7e 53 3f 19 d5 f5 3e 40 26 15 3f
       -0.39417052 0.8261559 0.48014143 0.5826149
0000b0 9b 92 b2 3e 88 78 84 3e 8c fb 52 bd 66 47 a2 be
       0.34877476 0.25873208 -0.051509425 -0.31695098
0000c0 a6 2f 66 be 38 65 e0 be b4 4c a7 3e 76 9a 11 3f
       -0.22479114 -0.43827224 0.32675707 0.56876314
0000d0 f9 5e 22 3f 94 95 94 be ef 98 2f bf 8d 9c 4e 3e
       0.63426167 -0.2902037 -0.68592733 0.20176907
0000e0 18 8c bd 3e 68 05 d0 be d2 cc 35 3f 98 bc 2c 3f
       0.37020946 -0.40629125 0.71015656 0.6747527
0000f0 34 43 b6 3e fb 2b fb be 64 c7 15 bf 2e 81 34 bf
       0.35598147 -0.49056992 -0.5850737 -0.7050961
000100 b4 d6 af 3e 58 95 f9 3d f0 86 64 be a9 2f b0 3e
       0.34343493 0.12186688 -0.223171 0.34411362
000110 95 ef 9a 3e 82 e3 10 3f e7 0e ca 3e e9 c4 6c 3e
       0.30260912 0.5659715 0.39464495 0.2312199
000120 df 4c f4 be 6f 8b af 3e 48 59 cf be 40 b6 d6 3d
       -0.47714898 0.34286067 -0.40497804 0.1048398
000130 e6 bf f6 3e 3c fe b0 b9 6a 8b 01 bf 1b cf 60 be
       0.48193282 -0.00033758755 -0.50603354 -0.21954004
000140 9f d4 e6 3e b2 62 6f be 7c 1f 09 3f b2 c9 13 3f
       0.45084092 -0.23377493 0.53563666 0.5772964
000150 cd 62 db be de cd 46 3f 8b 98 b8 3e c4 8e 45 3f
       -0.42848817 0.7765788 0.3605388 0.7717097
000160 38 3c a1 be 6d 21 e8 3e a8 f6 ad be 3e 52 0d 3f
       -0.31491256 0.45338002 -0.33977246 0.55203617
000170 13 e5 1d 3f 39 3e 13 3f 68 33 ed be 07 44 38 3f
       0.61677665 0.5751682 -0.46328282 0.719788
000180 02 34 dd be a8 69 32 3f 00 f3 47 3f 64 c2 d2 be
       -0.4320374 0.6969247 0.78105164 -0.41163933
000190 ea f3 46 3f 65 59 e1 be 86 0d 1e bd 3d c7 3c 3f
       0.77715933 -0.44013515 -0.038587116 0.73741513
0001a0 6f fe b8 bc b8 fc a8 be 97 fc c5 3e cc a6 2e 3f
       -0.02258226 -0.3300531 0.38669273 0.6822326
0001b0 ec 8f c7 3e 48 89 ad 3e 50 31 b6 3e a0 8f 9a bd
       0.3897699 0.338938 0.35584497 -0.075469255
0001c0 cc 5a 14 3f f8 09 20 3e a1 c5 dd 3e 08 10 b3 3e
       0.57951045 0.15628803 0.4331484 0.34973168
0001d0 39 79 ad 3e 1c 2b 7f be dd 1d 40 bf 27 38 d3 3e
       0.33881548 -0.24918789 -0.7504557 0.41253778
0001e0 52 49 94 be 70 79 f8 be 78 c3 23 3f b4 ce e1 be
       -0.2896219 -0.4853015 0.63970137 -0.44103014
0001f0 3c fb cb be c7 f8 49 3f f4 fe 92 be 1a 88 ce bc
       -0.39840114 0.7889523 -0.2871014 -0.025211383

fc2.weight f4 [2, 128]
000000 89 ea 35 3e ac 5d 2b 3e 46 a2 39 3f 89 aa e2 3e
       0.1776525 0.16734952 0.72513235 0.44270733
000010 7d 69 b7 3e 7e 2d 30 bf e4 d4 eb 3d 60 25 9d 3e
       0.3582267 -0.68819416 0.11515215 0.30692577
000020 ab 29 48 bf fb 79 c8 bf d3 80 89 3e e1 83 ac 3e
       -0.7818858 -1.5662225 0.26856098 0.33694366
000030 70 c2 4f 3e b4 fa 06 bf ef 2b e3 3e 85 36 a6 3e
       0.20289016 -0.5272629 0.44369456 0.3246347
000040 4a f2 93 bf 01 12 f0 3e 02 a4 06 bf 80 11 8c bf
       -1.1558316 0.46888736 -0.52594006 -1.094284
000050 58 ce 8b bf 34 41 08 3f 60 ed a1 3e 6f db b7 3e
       -1.0922346 0.5322449 0.31626415 0.35909602
000060 fc 23 92 3e b1 c1 68 3e af 31 06 3f de f0 29 3e
       0.2854308 0.22730137 0.5241956 0.1659579
000070 08 c5 9d 3e d1 c6 0f 3e 5d dc ff 3e 0e cd 87 3e
       0.30814385 0.14040686 0.4997281 0.26523632
000080 5d 8c 04 3f dc 4e b1 3e 9d 27 09 3f 54 4b e4 bf
       0.5177668 0.34630477 0.5357607 -1.7835488
000090 6d c9 b0 3f b0 93 5f 3e 03 29 a2 3e 40 e9 bb 3d
       1.381147 0.21833682 0.31671914 0.09175348
0000a0 f6 61 96 bd dc c3 c1 3d e2 a5 b5 3e a2 43 91 3e
       -0.07342903 0.09461185 0.3547812 0.28371912
0000b0 48 cd 14 3f 57 d1 44 3e 13 6d 6a 3e 5b b9 30 bf
       0.58125734 0.19220482 0.22893171 -0.6903283
0000c0 d2 64 4f 3f 42 d5 2f be c7 8b 43 3f 6b e6 b9 3e
       0.81013215 -0.17171195 0.7638516 0.36308607
0000d0 c8 98 ef 3e ca 71 42 bc 8e 68 ca bf 74 71 e4 3e
       0.4679625 -0.01186795 -1.5813158 0.44617808
0000e0 4d 17 9c 3c 5e ed c4 3f ba 95 51 3e ab 3c 0a 3e
       0.01905408 1.5384939 0.20467272 0.13499705
0000f0 36 19 42 3f 21 1d ae bf f7 fd b2 bf 97 72 bc bf
       0.7581972 -1.360264 -1.3983754 -1.472247
000100 5e 92 92 3e b0 6b e7 3e 44 c8 11 bd 5e 45 40 3e
       0.28627294 0.45199347 -0.03559138 0.18776461
000110 bb 08 f8 3e fa e4 64 3e 15 f3 ce 3d f4 5b f5 3e
       0.4844416 0.22352973 0.10104958 0.47921717
000120 a1 c4 91 bf 07 d8 de 3e 58 ec be 3b aa 47 ab bf
       -1.1388131 0.4352419 0.005826514 -1.3381245
000130 74 9f 8a 3e ea 0d 92 bf 17 c4 95 bf f7 be bf bf
       0.27074778 -1.1410496 -1.1700467 -1.4980153
000140 aa 0e 09 3f e5 4b 9d bf e1 8d d8 3e ed 2c be 3e
       0.53538 -1.2288786 0.42295745 0.3714365
000150 b5 e1 30 be fa 26 d4 3e 7c 39 1f 3f 25 68 99 3e
       -0.172736 0.41435987 0.6219709 0.29962268
000160 56 f9 a2 3d e9 b2 e9 3e 30 53 53 3b 9b 20 86 3e
       0.07957713 0.4564431 0.0032245629 0.2619675
000170 a8 ec d2 3e 6e 3d 84 3e f7 53 97 bf 88 69 d0 3e
       0.4119618 0.25828117 -1.1822499 0.40705514
000180 8c c4 71 bf 0a 0b 2c 3e ab 30 6c 3e 23 b2 3b be
       -0.9444053 0.16801086 0.2306544 -0.18329673
000190 ca bc f6 3d 9c 7e a3 be 79 7a 92 bf d7 67 71 3e
       0.120477274 -0.31932533 -1.1443626 0.23574768
0001a0 f2 57 ba bf c3 2b 0b bf 75 88 c2 3e b8 74 83 3e
       -1.4558089 -0.5436365 0.37994733 0.25674987
0001b0 df af d6 3e cd 30 12 3f 7f f6 51 3f e4 37 dc 3e
       0.41931054 0.57105714 0.8201675 0.4301139
0001c0 59 71 cd 3e 28 d2 93 bf c0 c4 c7 3e 4a 11 98 3e
       0.4012554 -1.154851 0.39017296 0.2970069
0001d0 f4 36 c5 3e f7 0d a6 3d 3b 05 c0 bf be 2c bc 3e
       0.38518488 0.08108132 -1.5001596 0.36752886
0001e0 06 f9 0d 3e d1 e1 be bb a5 19 a9 3e b5 4e d0 3d
       0.13864526 -0.0058252593 0.33027378 0.10171262
0001f0 f8 29 15 3e 78 a1 c1 3e 6e 0f 19 bf 80 36 c6 bf
       0.14566791 0.37818503 -0.5978917 -1.5485382
000200 cd 38 68 3e 9e d8 bc 3e a6 51 05 3f 7a 6e db 3e
       0.22677918 0.36884016 0.5207771 0.42857724
000210 34 18 13 3e b7 50 83 bf 1b 3d ac 3e c6 78 5b 3e
       0.14364702 -1.0259007 0.3364037 0.2143279
000220 1c f5 3b bf 62 39 c8 bf 1a 30 57 3e aa d8 f9 3e
       -0.7342088 -1.5642512 0.21014443 0.48798114
000230 d3 24 b5 3e 33 dd de be e9 5d b4 3d 09 9c b9 3e
       0.35379657 -0.43528137 0.088069744 0.36251858
000240 e9 68 8b bf b4 11 98 3e 20 40 2c bf cd 70 a3 bf
       -1.0891391 0.29701006 -0.67285347 -1.2768799
000250 7f c2 98 bf c1 03 bc 3e 1a 32 02 3e fc db d7 3e
       -1.1934355 0.36721614 0.12714425 0.42160022
000260 38 f0 c5 3e 0f 7f df 3e fa 8b e2 3e 26 dd 46 3e
       0.38659835 0.43651626 0.4424742 0.19420299
000270 fa 3e 15 3f ce b1 7e 3e 58 5b f5 3e f7 bf 0d 3f
       0.5829922 0.24872515 0.47921252 0.5537104
000280 da d8 04 3f 8f c4 29 3f d0 c9 fa 3e af 56 e4 bf
       0.5189339 0.6631555 0.48982096 -1.7838954
000290 75 9a b6 3f e5 d7 a7 3e d4 e2 72 3e 0c dc 94 3e
       1.4265887 0.32781902 0.2371934 0.29074132
0002a0 09 18 70 3c 90 8f d9 3e 36 ae cd 3e 12 90 c7 3e
       0.014654168 0.42492342 0.40171975 0.38977104
0002b0 d8 d6 bc 3e c9 24 73 3e 74 90 e6 3e 66 84 5f bf
       0.36882663 0.23744501 0.45032084 -0.873114
0002c0 34 bf 38 3f 78 ec 1f 3d b9 e1 37 3f 7c 4c d6 3e
       0.7216675 0.039043874 0.718288 0.41855228
0002d0 55 82 e2 3d cc ee d4 3d f5 39 c3 bf 99 39 d3 3e
       0.11060015 0.103971094 -1.5252062 0.4125488
0002e0 71 06 94 3d 68 2d c3 3f 0b cc d8 3e 0e cc df 3e
       0.07227791 1.5248232 0.42343172 0.4371037
0002f0 6c 37 04 3f 97 cf 94 bf d8 5f be bf 22 69 d3 bf
       0.5164707 -1.1625851 -1.4872999 -1.6516459
000300 77 0a d3 3e 56 f8 b5 3e 13 42 f6 3d d7 18 8d 3e
       0.41218922 0.35541028 0.120243214 0.27558014
000310 5c 3f 35 3e 57 cf 4e 3e 81 c1 92 3e c5 c7 59 3e
       0.17699951 0.20196281 0.28663257 0.21267612
000320 31 aa 93 bf 98 b2 20 3e 92 43 2e be cf 11 a3 bf
       -1.1536313 0.15693128 -0.17017964 -1.273981
000330 44 6b cc 3e 01 07 75 bf 44 08 a9 bf 51 6b 9c bf
       0.39925587 -0.9571381 -1.3205647 -1.222025
000340 92 d8 fd 3e 98 44 70 bf 7b fb ab 3d 89 1d 5a 3e
       0.49579293 -0.93854666 0.083975755 0.2130033
000350 36 89 16 be 6f 0f 94 3e f3 a0 bf 3e 42 9f 18 3e
       -0.1470078 0.28918025 0.37427482 0.14904502
000360 bb fb b0 bd 78 5a bd 3e 08 e5 52 3d 76 f2 e8 3e
       -0.08641764 0.36983085 0.051487952 0.45497483
000370 89 f2 e6 3d 42 ca a6 3c a6 ad 76 bf 83 66 b9 3d
       0.11276729 0.020360116 -0.96358716 0.09052756
000380 ed fc 83 bf a2 35 d2 3e 52 f2 dd 3e 55 6e 9e bd
       -1.0311562 0.41056544 0.43348938 -0.07735888
000390 5e 10 f3 3e 7a f8 c5 bd e9 0d b5 bf 87 00 ed 3e
       0.47473425 -0.09666534 -1.414487 0.46289465
0003a0 1d 3f c0 bf 6d 74 f7 be 56 f2 32 3f 5a ee 82 3e
       -1.5019261 -0.48331013 0.69901025 0.25572473
0003b0 bc 94 38 3f 12 73 ec 3e db 93 f6 3e a5 97 b5 3e
       0.7210195 0.46181542 0.4815968 0.35467258
0003c0 8b 7f 03 3f 0f 7c 8b bf 75 bd a8 3e 59 d4 88 3e
       0.5136649 -1.0897235 0.32957044 0.26724508
0003d0 cb 3f 67 3e e8 11 68 be 7a cf d2 bf e4 ab fc 3e
       0.22582929 -0.2266308 -1.6469567 0.49349892
0003e0 d7 20 3c 3e 9b 3a c3 3d 39 bc ba 3e 8e 6b e5 3d
       0.18371902 0.095326625 0.36471727 0.11202155
0003f0 25 91 10 3e ab 56 09 3e 95 21 f0 be b3 09 cc bf
       0.14117868 0.13411967 -0.4690062 -1.594046

fc2.bias f4 [2]
000000 a6 00 2d 3e 80 9c 1c 3e
       0.16894779 0.15294075
