saved_models/train_100000e_1xep_1lr/best_online_net.pth (torch, 5712 bytes, 4 tensors)

fc1.weight f4 [128, 4]
1.4746683 0.05833846 4.4014587 2.0592227 -3.1828997 -2.6031237 -3.684477 0.5464176
1.5300789 1.7757726 5.719521 1.8339121 -1.9283702 -0.037667617 3.735162 1.022524
3.0476916 0.025403105 -1.4334985 -2.2093215 1.9279239 0.6605001 1.6347724 0.99849963
-2.874268 -0.14053035 3.353634 1.6297616 -1.1190344 2.444332 0.5473945 -0.9967666
1.3187261 0.26728687 1.6894398 1.180106 -0.77096784 0.014983147 2.064992 1.2568684
2.3934875 3.393725 3.971621 -0.04019876 2.2489288 0.7296425 -3.8067503 -1.923918
0.8910464 -0.3302149 -2.599857 -0.7119229 1.2237518 -0.09059742 -2.167251 -0.67533106
-0.9855637 0.43072817 -1.6594044 -1.9126486 -0.026114179 0.053761065 -0.08114866 -0.03220602
0.5943839 -1.5457032 -0.03630722 0.9428736 -1.4989316 1.6323465 -0.6628037 -1.1865586
1.0302725 0.6544403 -4.394057 -2.3761075 1.7750107 0.70685893 2.4486077 1.0253574
0.7375116 -1.2739093 -0.63954204 1.085347 3.1887724 -0.30157432 0.2159756 1.418467
4.171872 -0.27346113 -0.28380358 1.378363 -1.2921063 0.56194115 4.900342 1.3493232
-0.80461776 0.2520477 2.0870934 -0.07847638 -0.15122013 -0.022879008 -0.0009804749 -0.04199621
0.57195836 -0.33313772 1.464928 1.446532 0.58661425 -1.8665967 -0.2820355 0.7365538
2.822948 1.032399 1.7910041 1.5029074 0.78537816 -0.684047 1.6437786 1.5425359
-0.3073985 -0.23008485 2.381191 1.6065528 -1.7166913 -0.7964059 -0.20485571 -0.49728793
-0.9864246 -0.41437948 -3.6373992 -2.1290133 0.7238995 -0.9707109 0.41311362 1.2841524
0.025218545 0.042375367 -0.0025908533 0.06367617 0.7056362 -0.79112 1.4947361 1.7928696
1.5821625 0.24757789 1.3933791 1.8351415 -3.0070643 -1.1597365 0.49134317 1.3278371
4.97274 0.44641724 -0.36254108 0.7446026 -3.3326225 0.5176345 3.022587 1.7134938
-0.7109834 -1.1000999 -8.685235 -2.0337598 0.5884995 -1.943776 -0.49679196 0.8555271
-1.9521363 -1.2867963 -5.832098 -2.0739896 -0.3798749 0.8351438 2.619843 1.1527921
-1.1916605 -1.031444 -0.6937077 1.1577139 2.6530514 0.07969964 -5.150965 -1.5132108
2.5848923 1.2422389 2.4541152 1.2213926 3.5611115 0.46572027 0.41071036 0.89995134
1.3682648 0.20920731 4.260166 1.9183133 0.27795038 -1.0583055 0.84008676 1.4441949
2.0449464 1.0923454 1.1255863 0.16117622 -0.64939827 0.5644587 -1.0938333 -1.0772815
0.9586118 -1.1900365 -0.4458636 1.3004997 -0.3904142 -2.1878648 0.28140453 2.3643856
0.55729157 -1.0054545 1.2074363 1.6846161 1.1168711 0.37459308 -3.4302528 -1.2123679
-0.2482269 0.18933696 -2.754351 -1.7944932 3.3306992 0.7128339 -1.5592504 -1.3503565
-0.6405401 -0.6077765 3.4762886 1.9602131 0.10265326 -0.28148228 -3.8161907 -1.4686176
0.53722376 -1.7108383 0.20573933 0.79724574 -0.7982372 0.58003354 5.494746 1.258441
1.044447 -0.5469306 -6.6586165 -1.5782272 1.6493341 0.59556615 5.7064137 2.203407
00000000: eec1 bc3f 4ff4 6e3d c0d8 8c40 4eca 0340
00000010: a1b4 4bc0 9499 26c0 79ce 6bc0 06e2 0b3f
00000020: a0d9 c33f 844c e33f 5106 b740 a2bd ea3f
00000030: d6d4 f6bf 5c49 1abd e50c 6f40 11e2 823f
00000040: 610d 4340 2c1a d03c e17c b7bf 8665 0dc0
00000050: 36c6 f63f 8916 293f 3940 d13f ac9d 7f3f
00000060: 02f4 37c0 30e7 0fbe f1a1 5640 079c d03f
00000070: 853c 8fbf ef6f 1c40 0c22 0c3f 192c 7fbf
00000080: 04cc a83f d3d9 883e 903f d83f b70d 973f
00000090: 265e 45bf e07b 753c d428 0440 10e1 a03f
000000a0: e62e 1940 ca32 5940 0a2f 7e40 74a7 24bd
000000b0: 73ee 0f40 dac9 3a3f cca1 73c0 f242 f6bf
000000c0: 9e1b 643f ed11 a9be 0f64 26c0 9440 36bf
000000d0: e6a3 9c3f 248b b9bd 3eb4 0ac0 7fe2 2cbf
000000e0: e74d 7cbf 6788 dc3e 5d67 d4bf abd1 f4bf
000000f0: 67ed d5bc 9034 5c3d 4531 a6bd 76ea 03bd
00000100: 8b29 183f 9ad9 c5bf e1b6 14bd 2a60 713f
00000110: fedc bfbf bbf0 d03f 81ad 29bf 27e1 97bf
00000120: f8df 833f 6689 273f 1d9c 8cc0 2512 18c0
00000130: 8d33 e33f b5f4 343f fdb5 1c40 e93e 833f
00000140: 8fcd 3c3f 760f a3bf 07b9 23bf a7ec 8a3f
00000150: d914 4c40 f367 9abe b528 5d3e 5490 b53f
00000160: fa7f 8540 1903 8cbe b44e 91be 336e b03f
00000170: bd63 a5bf 60db 0f3f 9acf 9c40 9fb6 ac3f
00000180: 6efb 4dbf 650c 813e f092 0540 39b8 a0bd
00000190: 73d9 1abe c26c bbbc 4783 80ba 3804 2cbd
000001a0: dd6b 123f 0791 aabe c382 bb3f f627 b93f
000001b0: 5a2c 163f a4ec eebf f566 90be ca8e 3c3f
000001c0: 2eab 3440 a725 843f 9f3f e53f 455f c03f
000001d0: 8b0e 493f b41d 2fbf 5667 d23f d171 c53f
000001e0: 5663 9dbe 5d9b 6bbe 6f65 1840 86a3 cd3f
000001f0: 8abc dbbf 42e1 4bbf b2c5 51be 869c febe
00000200: 5386 7cbf 8c29 d4be 26cb 68c0 c141 08c0
00000210: 7a51 393f 8280 78bf a183 d33e 1b5f a43f
00000220: 1f97 ce3c cb91 2d3d 4ecb 29bb a768 823d
00000230: 93a4 343f d786 4abf 8353 bf3f c07c e53f
00000240: 4d84 ca3f 0f85 7d3e 3f5a b23f ebe5 ea3f
00000250: be73 40c0 3f72 94bf 5591 fb3e 91f6 a93f
00000260: b020 9f40 cd90 e43e fc9e b9be 479e 3e3f
00000270: b049 55c0 b283 043f 1172 4140 c453 db3f
00000280: 0203 36bf 13d0 8cbf b9f6 0ac1 1f29 02c0
00000290: e7a7 163f a7cd f8bf 845b febe d303 5b3f
000002a0: 9adf f9bf beb5 a4bf 8ca0 bac0 3fbc 04c0
000002b0: f77e c2be fccb 553f 82ab 2740 b18e 933f
000002c0: 5588 98bf 5b06 84bf d496 31bf f82f 943f
000002d0: 98cb 2940 9139 a33d b5d4 a4c0 e4b0 c1bf
000002e0: e06e 2540 af01 9f3f 3910 1d40 9856 9c3f
000002f0: 40e9 6340 e372 ee3e a148 d23e 3663 663f
00000300: 4d23 af3f 713a 563e 4853 8840 4a8b f53f
00000310: 834f 8e3e 8e76 87bf ed0f 573f 61db b83f
00000320: 67e0 0240 f9d1 8b3f 3613 903f 610b 253e
00000330: f73e 26bf 5e80 103f bb02 8cbf 5ce4 89bf
00000340: 9567 753f 1e53 98bf 3c48 e4be c676 a63f
00000350: 5fe4 c7be fa05 0cc0 4114 903e 1852 1740
00000360: a9aa 0e3f bcb2 80bf 468d 9a3f 80a1 d73f
00000370: a2f5 8e3f aaca bf3e 4389 5bc0 df2e 9bbf
00000380: 312f 7ebe 8ce1 413e 4947 30c0 f4b1 e5bf
00000390: 2d2a 5540 487c 363f 8495 c7bf 7bd8 acbf
000003a0: 70fa 23bf 3e97 1bbf 837b 5e40 43e8 fa3f
000003b0: df3b d23d 721e 90be 783c 74c0 a9fb bbbf
000003c0: 7f87 093f c0fc dabf 55ad 523e 4c18 4c3f
000003d0: 4659 4cbf 147d 143f f6d4 af40 9814 a13f
000003e0: 70b0 853f a503 0cbf 6313 d5c0 5903 cabf
000003f0: 611d d33f 0677 183f f19a b640 9f04 0d40

fc1.bias f4 [128]
0.069211915 0.14306867 0.70897394 -1.0338283 0.14267802 0.83220416 -0.6047782 0.9797395
0.45765242 -0.296443 -0.43356037 0.1777066 1.6545867 1.9236469 -0.26419187 -0.32950193
0.9591474 1.1258916 0.109874934 1.028042 0.89543533 -1.0292811 -0.9685099 0.4863597
-1.5772753 -0.44535226 0.28324595 0.8426436 0.7065813 0.30010483 -0.18077512 2.6145682
0.16671766 0.28999588 -0.19569115 0.3221632 0.3317339 0.11061621 1.358586 0.17580079
0.2388025 0.9099087 -0.5487437 0.34195742 1.2857807 1.03658 0.98745763 -0.6350018
0.87014425 0.19293797 1.5388488 1.262734 1.0425094 0.81151164 0.25677058 1.2474666
1.4522039 0.29938018 0.70504045 1.1310549 0.9368974 -0.048602726 -0.5869751 0.32878792
-0.2333692 0.26136586 1.2744458 1.0598634 1.0428263 -0.17218624 0.23970045 -0.22787184
0.9736499 0.3432562 1.0835022 1.5453131 1.0075012 0.085153714 -0.8227529 0.87085134
-0.39506674 0.6614504 0.854091 0.2807011 1.8326088 0.84790075 0.119832255 1.03136
1.0400529 0.34466112 0.9651289 0.9704358 0.051553182 -0.040134102 0.9384922 0.30558124
-0.3546569 -0.46367273 -0.067687966 -0.40543228 0.9585422 1.0195004 -0.33840904 0.28780493
-0.36756757 0.031984918 1.1956924 -0.5243345 -0.4978702 -0.20578754 -0.19749777 0.30148736
0.20459393 1.0643798 1.108852 0.8835314 1.0697339 1.217892 1.5023881 -0.26383027
0.7961031 0.0331545 -0.12199609 -0.30506426 -0.30678147 1.4568237 1.1356558 0.7863154
00000000: fabe 8d3d 9880 123e 517f 353f 7c54 84bf
00000010: 301a 123e 550b 553f bed2 1abf 35d0 7a3f
00000020: 6b51 ea3e 60c7 97be a0fb ddbe b8f8 353e
00000030: 7fc9 d33f 103a f63f 2844 87be 7ab4 a8be
00000040: af8a 753f 371d 903f 1c06 e13d e196 833f
00000050: 403b 653f 7cbf 83bf 44f0 77bf 2304 f93e
00000060: 28e4 c9bf 3605 e4be 9d05 913e 7eb7 573f
00000070: 83e2 343f 57a7 993e 1d1d 39be 1655 2740
00000080: 09b8 2a3e 577a 943e 4363 48be 93f2 a43e
00000090: 07d9 a93e c08a e23d 25e6 ad3f 1f05 343e
000000a0: a488 743e c7ef 683f 787a 0cbf 0b15 af3e
000000b0: 7694 a43f a7ae 843f 06ca 7c3f 7a8f 22bf
000000c0: c6c1 5e3f 8891 453e fff8 c43f 45a1 a13f
000000d0: f370 853f 3abf 4f3f 6f77 833e fcac 9f3f
000000e0: d1e1 b93f 5c48 993e 887d 343f 68c6 903f
000000f0: 82d8 6f3f a713 47bd 0044 16bf e456 a83e
00000100: 56f8 6ebe bfd1 853e 0a21 a33f 9ba9 873f
00000110: 557b 853f 9751 30be 0974 753e 3c57 69be
00000120: 1f41 793f 47bf af3e 33b0 8a3f d2cc c53f
00000130: cdf5 803f 1265 ae3d ef9f 52bf 1df0 5e3f
00000140: 3046 cabe d054 293f b5a5 5a3f 0eb8 8f3e
00000150: ed92 ea3f 0610 593f 9d6a f53d 9b03 843f
00000160: 7420 853f 6c77 b03e b012 773f 7b6e 783f
00000170: 6e29 533d a863 24bd 0641 703f 2575 9c3e
00000180: 9795 b5be 8366 edbe fd9f 8abd d294 cfbe
00000190: 0663 753f fd7e 823f f343 adbe 2b5b 933e
000001a0: d131 bcbe 9e02 033d 730c 993f c93a 06bf
000001b0: d8e8 febe f8b9 52be db3c 4abe 8d5c 9a3e
000001c0: 1281 513e 993d 883f ddee 8d3f 1d2f 623f
000001d0: 0aed 883f e3e3 9b3f 414e c03f c314 87be
000001e0: 6acd 4b3f 03cd 073d 16d9 f9bd 6231 9cbe
000001f0: 7612 9dbe 3379 ba3f 2b5d 913f f74b 493f

fc2.weight f4 [2, 128]
-5.0375338 -3.8029606 -4.594299 -8.067219 5.583538 1.0201358 1.3349551 -3.7595186
0.60181427 1.7115507 5.732988 -4.121651 1.8911188 1.8999267 2.4716141 -0.018191123
0.6239611 -2.376372 2.3085375 0.94523466 1.610378 1.8547881 5.4507747 3.4580088
2.602394 0.13608296 0.5158657 0.8359178 3.9903982 0.7780346 0.7693208 -0.3979227
-3.5717533 0.45297012 -0.110734545 1.0899305 1.1078882 1.2171742 -2.494257 1.5253211
-6.3631215 0.8734044 -3.8071465 0.60486877 -2.1060686 -5.0076203 2.162518 2.2685597
-4.651046 1.1436434 -2.231071 1.4202642 1.6129292 -2.866978 1.0011132 1.9417491
2.1235807 5.391463 -4.0325413 2.1198218 1.0348645 -4.9994073 -4.355672 -4.090615
4.261117 0.40026015 2.2060335 -2.9909687 1.621778 0.21083544 0.7804174 -0.054991364
-3.5917895 3.0517323 -1.9430175 1.9515371 -5.1874413 -4.8372774 -4.7600675 0.7962973
-0.1510979 -2.8089216 2.0344508 0.7348326 -3.3182948 1.3768784 0.88111997 1.9836386
-2.4467046 4.821825 1.5705237 0.9510242 4.456817 -6.127982 4.128124 3.7761703
-0.67458016 5.0968146 5.3567185 0.07386297 5.126266 2.2692266 -6.7628865 0.8741325
1.3275669 3.189939 -2.3877761 5.2471476 -0.07484771 -0.04653326 0.7074577 0.5055003
4.6452084 1.1096896 2.1888456 3.5390685 0.8716265 6.121113 2.0270321 0.19190568
0.3936536 -6.0240145 4.011062 0.8237519 -3.4505272 -2.5935829 3.237944 0.61855036
-5.1034303 -3.8014412 -4.6374383 -7.929156 5.568941 1.188632 1.3819503 -3.882704
0.93144345 1.7826989 5.814598 -3.988134 1.6966372 2.2104025 2.4985003 -0.03767275
0.9503906 -2.4438405 2.3971114 1.019608 1.6077994 1.7679001 5.6354303 3.4807906
2.500483 -0.008278139 0.55536264 0.9084804 4.012457 0.60864663 0.98973584 -0.3133559
-3.5553944 0.7287073 0.09859131 0.8145341 1.0707805 1.3558146 -2.5106812 1.3272293
-6.4173546 0.80685055 -3.7804263 0.7705495 -2.0591795 -4.983534 2.0592477 2.2136438
-4.7187076 1.3039329 -2.1413064 1.2625533 1.6331807 -2.835098 1.0952011 1.7992239
2.3675947 5.387267 -4.0956664 2.0173028 0.99772954 -5.102734 -4.301258 -4.140138
4.226521 0.28012034 2.038339 -2.941076 1.7038304 -0.17073473 0.60892 -0.0022919348
-3.6092103 2.8496728 -1.975906 1.9759655 -5.0485377 -4.736384 -4.7689805 0.8168388
-0.021661956 -2.8277104 2.2114913 0.70889765 -3.321331 1.4355929 0.95683056 1.7856771
-2.3882055 4.8278055 1.4937359 0.72656286 4.473935 -6.072601 4.079893 3.8162966
-0.7089986 5.1232553 5.37658 0.10164299 5.0601234 1.9660248 -6.689542 0.8494411
1.1310743 3.1128657 -2.2652438 5.3187127 -0.08394228 0.17202546 0.59481454 0.6281136
4.566053 0.9949869 2.2406878 3.5305145 0.64104605 6.1833224 2.0110176 -0.14251909
0.31046066 -6.015013 3.9747849 0.9551941 -3.6410475 -2.5751214 3.2517748 0.7281437
00000000: 7a33 a1c0 b563 73c0 7f04 93c0 5413 01c1
00000010: 58ac b240 cf93 823f cfdf aa3f f49b 70c0
00000020: 8010 1a3f 1814 db3f a374 b740 91e4 83c0
00000030: 2e10 f23f cc30 f33f ed2e 1e40 8d05 95bc
00000040: eabb 1f3f 7b16 18c0 14bf 1340 e6fa 713f
00000050: de20 ce3f b269 ed3f bf6c ae40 0450 5d40
00000060: a08d 2640 5559 0b3e c60f 043f b5fe 553f
00000070: af62 7f40 472d 473f 35f2 443f 86bc cbbe
00000080: 9b97 64c0 b3eb e73e cbc8 e2bd d882 8b3f
00000090: 48cf 8d3f 5dcc 9b3f e8a1 1fc0 b93d c33f
000000a0: b19e cbc0 6e97 5f3f 4aa8 73c0 aed8 1a3f
000000b0: d4c9 06c0 6d3e a0c0 b266 0a40 1530 1140
000000c0: 5ed5 94c0 e862 923f dec9 0ec0 38cb b53f
000000d0: 7774 ce3f 917c 37c0 7a24 803f 3c8b f83f
000000e0: bfe8 0740 dd86 ac40 940a 81c0 29ab 0740
000000f0: 7176 843f 25fb 9fc0 aa61 8bc0 51e6 82c0
00000100: 125b 8840 e6ee cc3e a72f 0d40 086c 3fc0
00000110: 6c96 cf3f 3fe5 573e 6fc9 473f a03e 61bd
00000120: e1df 65c0 954f 4340 ccb4 f8bf f8cb f93f
00000130: 85ff a5c0 faca 9ac0 7952 98c0 24da 4b3f
00000140: 68b9 1abe 5fc5 33c0 7134 0240 fd1d 3c3f
00000150: f15e 54c0 8d3d b03f 1491 613f dfe7 fd3f
00000160: cf96 1cc0 644c 9a40 ec06 c93f 5276 733f
00000170: 3f9e 8e40 6e18 c4c0 9819 8440 c6ac 7140
00000180: 49b1 2cbf 1b19 a340 3d6a ab40 7845 973d
00000190: 5f0a a440 023b 1140 9169 d8c0 26c7 5f3f
000001a0: b6ed a93f f627 4c40 53d1 18c0 a2e8 a740
000001b0: c249 99bd a999 3ebd f31b 353f 7868 013f
000001c0: 8ca5 9440 4f0a 8e3f 0c16 0c40 1980 6240
000001d0: ea22 5f3f 28e0 c340 e5ba 0140 ec82 443e
000001e0: f78c c93e bac4 c0c0 9f5a 8040 68e1 523f
000001f0: 70d5 5cc0 43fd 25c0 793a 4f40 5159 1e3f
00000200: 4d4f a3c0 d04a 73c0 e565 94c0 a5bb fdc0
00000210: c434 b240 1825 983f bfe3 b03f 397e 78c0
00000220: 1473 6e3f 7a2f e43f 3011 ba40 963d 7fc0
00000230: 682b d93f 3c77 0d40 6ee7 1f40 be4e 1abd
00000240: cc4c 733f e267 1cc0 466a 1940 8482 823f
00000250: 5fcc cd3f 8d4a e23f 7255 b440 46c5 5e40
00000260: ea07 2040 08a1 07bc 3f2c 0e3f 2c92 683f
00000270: 0c66 8040 44d0 1b3f 545f 7d3f 2f70 a0be
00000280: 958b 63c0 908c 3a3f 3eea c93d 4f85 503f
00000290: 560f 893f 558b ad3f 00af 20c0 a6e2 a93f
000002a0: f85a cdc0 c28d 4e3f 81f2 71c0 bb42 453f
000002b0: 99c9 03c0 1c79 9fc0 b7ca 0340 57ac 0d40
000002c0: a7ff 96c0 46e7 a63f 2a0b 09c0 599b a13f
000002d0: 110c d13f 3f72 35c0 8d2f 8c3f f84c e63f
000002e0: ac86 1740 7e64 ac40 b30f 83c0 7d1b 0140
000002f0: 346b 7f3f 9949 a3c0 e8a3 89c0 037c 84c0
00000300: a93f 8740 ef6b 8f3e 2574 0240 973a 3cc0
00000310: 1d17 da3f 16d5 2ebe 2ee2 1b3f 4934 16bb
00000320: 4dfd 66c0 0a61 3640 7dea fcbf 70ec fc3f
00000330: 9f8d a1c0 7590 97c0 7d9b 98c0 591c 513f
00000340: 6a74 b1bc 35f9 34c0 1389 0d40 517a 353f
00000350: b090 54c0 82c1 b73f d9f2 743f 1191 e43f
00000360: 5cd8 18c0 627d 9a40 bd32 bf3f 0600 3a3f
00000370: 7a2a 8f40 bf52 c2c0 7c8e 8240 343e 7440
00000380: ef80 35bf b5f1 a340 f20c ac40 332a d03d
00000390: 88ec a140 b3a6 fb3f ba10 d6c0 f974 593f
000003a0: 0bc7 903f 3139 4740 c1f9 10c0 e532 aa40
000003b0: eee9 abbd 7127 303e c445 183f 0ecc 203f
000003c0: 1b1d 9240 76b7 7e3f 6e67 0f40 f3f3 6140
000003d0: 981b 243f c7dd c540 83b4 0040 86f0 11be
000003e0: b3f4 9e3e fd7a c0c0 e062 7e40 9a87 743f
000003f0: ec06 69c0 cace 24c0 141d 5040 a067 3a3f

fc2.bias f4 [2]
-0.21843968 -0.32603222
00000000: a7ae 5fbe b2ed a6be
