saved_models/pole_DQN/train_DQN_pp_3/best_target_net.pth (torch, 5712 bytes, 4 tensors)

fc1.weight f4 [128, 4]
00000000: d5bb 8e3f 51ef e43e dd14 983e 98d5 b8be
00000010: 95ff be3d 1006 e7bd 4970 89bd 153e 18be
00000020: 1c7d f83d eca6 aebd 370f b5bd fc44 183c
00000030: 9835 f13d 05ee 3a3e 0c0f 26c0 cd4b 74bf
00000040: d01c 0fbe 9b97 05be 7f64 3840 7172 633f
00000050: 69d1 d13e db3f dcbd 99fc b53d 9927 113d
00000060: cd2d 663d ee77 c5bd f6fb 093e 512f 41bb
00000070: d539 fe3d 2f32 58be abef a43e 21ed 753e
00000080: daeb 443e 7c74 0a3c 42a7 8d3e 592c 0f3e
00000090: 8294 cc3e 2d90 da3d 4c85 df3d ba4a 02be
000000a0: 7eaa 3c3d 1f18 e53d ade2 bebd c60e e83d
000000b0: b3f3 1d3e 8e16 1fbc 4e94 b2bd 5761 563d
000000c0: 794d 2cbf 06f2 10bf f332 87be ea9b ae3e
000000d0: f597 b03e 2cfb c43d 1aae 18be 2b22 14bc
000000e0: 9fed db3e 248a b1bd c968 ddbc 65f0 d4bd
000000f0: df35 713e f5f7 5cbd 1805 503a 63b2 573d
00000100: 773d 173e 5fad 863c c0b8 1e3d 62e1 ccbd
00000110: 36cb 7f3e be00 b2bd e58c b5bd afc9 273e
00000120: acb2 8d3e c427 693d 02bb 6e3d f185 4b3e
00000130: 7e57 663e fe70 0cbd 2f6e 293d 0a8f e93d
00000140: 5910 a9bb edcb fc3d 5a58 0ac0 62bb 7ebf
00000150: 9ba1 e0be 69c4 f9bc f0e7 0e40 334a 4a3f
00000160: 72c7 463f 0372 083f c1b8 b1bc 1a76 c3be
00000170: e8d3 f0bc 83f6 cb3d f4b0 0bc0 ef01 70bf
00000180: d5e3 30bc f19f 283e 8ed4 c93b 59d5 053e
00000190: 9152 aebe ada9 1dbe 6015 2240 68cf 5d3f
000001a0: 73a7 423f e3e1 fb3e f3fc d6bd 00d3 b2bd
000001b0: 63d6 053e a3ee 9bbd 7349 4cbe d6b9 f9bc
000001c0: 8c87 6c3e 3fc1 09be e324 483e ffd5 223e
000001d0: 9e53 923e acf0 0f3d 9193 bdbd 8fad efbd
000001e0: 315c 5c3f 41f3 cd3e 90dc 9b3d 2fe0 9fbe
000001f0: 5521 153f 5362 973e 7cfe 363e 57b3 703b
00000200: 4da0 773f 4ec4 1b3f 9e2f 493e 4a4d 1dbe
00000210: cefe 363f d325 cabc 1b8a cbbd 3d2a 603e
00000220: c312 dc3d 1c9a 12bd 84ef a33c 74ca 703e
00000230: 875a 33be 6a2c 0e3e 2d16 55bc 62dd bf3d
00000240: 57b1 843f a0ef e13e 0cda ee3e 5c0f 79be
00000250: 42b1 153f f999 1ebb 44df efbd f94b 123e
00000260: eb8b bc3e 3a72 94bd 6ca1 c53a 48a2 da3d
00000270: 5b26 d33d 3170 b83c 6649 d1bd 2de0 1a3d
00000280: 6a72 ecbe 286d 17bd 5802 1340 7cf1 6a3f
00000290: 6272 dc3e 882e b23d c74a 3b3e a483 0cbe
000002a0: 9af4 663d 1714 7f3d 9e88 17c0 0a54 7abf
000002b0: 4549 e9be e140 823e cde1 2540 967b 5e3f
000002c0: d823 843e f976 0ebe acf2 8dbd 71f4 99bd
000002d0: 2146 e53c 8262 aebc 492e 063e dbf9 6a3c
000002e0: 2395 323f 1b2f 883e cb8a bcbd f237 b03d
000002f0: 768a 3b3e e229 23bd 6869 e43d e78c 123d
00000300: e604 a33e 0be2 36be 8839 35bc d06f febd
00000310: dfda 113d 473d f0bd fc8c 0cc0 929c 19bf
00000320: bc96 3bbe 40dd 1cbe 384d 6e3d 2adf 78be
00000330: c3f1 a6bd 62c3 1bbd c6d3 cfbd 15d8 313d
00000340: d99f 2a3e f5bc b1be cf25 773e 49c9 c83e
00000350: 2e7b f03d ec8f 223e c5e8 5c3e 6fde 0abd
00000360: efdf c5bd 4521 91bd cdeb 2740 97f3 423f
00000370: 4e2c 1e3f 96ed ca3e 596d cc3d 96c0 a63d
00000380: 1f1f 913f 2403 223f e199 383e 4db0 babe
00000390: 29c2 af3d 1102 23be fabc 10bd 779d 0abe
000003a0: 3a89 cf3e 878e 483e 8621 41bf 0fa4 abbe
000003b0: ac81 3b3f e709 153f e96b 473e 342e acbe
000003c0: 946a 983c eca9 263d 9a31 0cc0 efe7 6ebf
000003d0: e80e 693a f0c6 67ba bafe 24c0 a9fa 86bf
000003e0: e76d 513f 36f9 103f f0a5 973e ed54 db3d
000003f0: 26e4 283f ec37 4f3e 02f6 5f3e 47f2 7b3e
1.1151072 0.44713834 0.29703417 -0.3610046 0.09326092 -0.11280453 -0.0671087 -0.14867432
0.12133238 -0.085279316 -0.088407926 0.009293791 0.117778 0.1825486 -2.5946684 -0.9542816
-0.13975835 -0.13046114 2.8811338 0.888465 0.4098008 -0.10754367 0.0888607 0.035438154
0.056196023 -0.096420154 0.13475022 -0.0029477666 0.12413374 -0.21112894 0.32214102 0.24016239
0.19230595 0.008450624 0.2766667 0.13981761 0.39957052 0.106720306 0.10914096 -0.12723818
0.04606103 0.11186241 -0.09320579 0.11330943 0.15424995 -0.009709967 -0.08719693 0.052338924
-0.67305714 -0.566193 -0.2640606 0.34103328 0.34490934 0.0961822 -0.14910164 -0.009041349
0.42954728 -0.08668926 -0.027027505 -0.10397414 0.23555706 -0.053947408 0.00079353293 0.052660357
0.1476954 0.016440092 0.03875041 -0.10003926 0.24979863 -0.08691548 -0.08864764 0.1638553
0.27675378 0.05692269 0.058283813 0.19875313 0.22494313 -0.034287445 0.041364845 0.11404236
-0.0051594195 0.12343583 -2.1616426 -0.99504673 -0.43873295 -0.030489163 2.2329063 0.7901947
0.7764808 0.5329897 -0.021694543 -0.38176042 -0.02939792 0.09959128 -2.1826754 -0.9375295
-0.010796507 0.16467263 0.0061593717 0.13069667 -0.34047368 -0.15396757 2.5325546 0.866446
0.7603676 0.49195775 -0.10497465 -0.08731651 0.13070063 -0.07613876 -0.19949894 -0.030484121
0.23098582 -0.13452624 0.19545321 0.15901946 0.2857942 0.035141632 -0.09256662 -0.117030255
0.8607817 0.4022465 0.07610428 -0.31225726 0.58253986 0.29567203 0.17870516 0.0036727989
0.96728975 0.6084641 0.19647071 -0.15361515 0.7148255 -0.02467624 -0.09938451 0.21891113
0.10745766 -0.0357915 0.02001167 0.2351473 -0.17515002 0.1388413 -0.013005775 0.09368397
1.036662 0.44128132 0.46650732 -0.24322265 0.584736 -0.0024200662 -0.117125064 0.14286794
0.368255 -0.072483495 0.0015078015 0.10675484 0.1031005 0.022514435 -0.10219078 0.037811447
-0.4618104 -0.036969334 2.297018 0.91774726 0.43056017 0.087002814 0.18290244 -0.13722092
0.056385614 0.06227502 -2.3677135 -0.97784483 -0.45563713 0.25440124 2.5919068 0.8690733
0.25808597 -0.13912572 -0.069310516 -0.075173266 0.027987542 -0.021287207 0.13103594 0.014341797
0.69758815 0.2659844 -0.0920616 0.08604421 0.18314537 -0.039834864 0.11152917 0.035778906
0.31839675 -0.17859666 -0.01106108 -0.1242367 0.035609122 -0.11730438 -2.196105 -0.6000453
-0.1831922 -0.15318775 0.05817911 -0.2430388 -0.08151581 -0.03802813 -0.101478145 0.043418963
0.1666254 -0.34714475 0.24135517 0.39216068 0.11742245 0.15875214 0.2157317 -0.033903535
-0.096618526 -0.07086424 2.6237671 0.7615294 0.61786354 0.3963439 0.09981794 0.081422016
1.1337622 0.6328604 0.1802745 -0.36462632 0.08581955 -0.15918757 -0.035336472 -0.1353663
0.40534383 0.1958562 -0.7544178 -0.33523604 0.7324474 0.58218235 0.19474758 -0.33629
0.018605508 0.040689394 -2.1905274 -0.9332265 0.0008890466 -0.00088415947 -2.5780473 -1.0545245
0.8180832 0.56630266 0.29618788 0.10709558 0.65973127 0.20236176 0.21871188 0.2460414

fc1.bias f4 [128]
00000000: ec7d 283f 81ad 80be 8ce0 433f 8e22 6bbe
00000010: 26a4 c5be 8c0c 043f bc50 9fbe 2c3d 293f
00000020: 514d 1d3f d1e3 543f 9632 5a3f 7256 513f
00000030: 5c77 50bf 5b1e 473f e491 283f 4a77 fc3e
00000040: 803f ff3e 1e7a 2d3f 24e9 0f3f ea03 183f
00000050: e408 52be 7155 7fbe 34c0 583f 0381 493d
00000060: 64b4 96be fe5a c1be 9aeb 163f 32db c9be
00000070: 2ff6 ea3e 928e 633f 1e4e 1b3f fadb 5e3f
00000080: bb2b 153f 56ee d73e 1fd7 533f 840a 61be
00000090: 46c8 073f 6c45 683e 2e8e 103f 2880 3fbe
000000a0: 91db 90be e049 523f 598d 0b3e 73d5 9abe
000000b0: 22ef 413f d0ea 043f 6d12 303f f023 d73e
000000c0: 507f 253f 86a8 dcbe 6ad8 f8be def5 e7be
000000d0: 2802 133f aa62 4a3f 8e05 aabe ecd9 413e
000000e0: 08a5 543f d6e3 483f 6eaa 69bf 65e9 423f
000000f0: 5920 1d3e ca9e 79be e643 aa3e 4dc7 033f
00000100: c297 833e aa4e 253f 7ae8 333f 73c8 0c3f
00000110: 244f 653f b437 f8be ecc7 d83e cd32 40bd
00000120: 5b8b 083f 201e c4be fade 5d3f e182 06bd
00000130: c8ed 1e3f f29d 603f d5fe 3abe c603 5e3f
00000140: a6b6 2b3f a664 08bf 7a80 3dbe 67da 75bf
00000150: 785a cebe d089 f63e 572a c1be d6ec 163f
00000160: 4262 663f 9189 0d3f 507c 6bbf 5586 ca3e
00000170: 7ad5 23bf 3deb 96be d41f c83e 5658 fd3e
00000180: a955 1c3f 6001 1c3f c784 2abf e1af 3fbf
00000190: cdd7 acbe 29b1 2c3f d2b5 1a3f 547c 2fbe
000001a0: de8a 43bf 146f 60bf 8388 253f 4321 153f
000001b0: 53a5 4d3f 7a52 0b3f a2f1 553f 02da f43e
000001c0: 54fc c2be 9ac4 0e3f c9ea 3a3f f049 a43e
000001d0: 999c 563f 45ed 83be 8171 333f 26e2 28bf
000001e0: 55a0 1a3f be0d 98be ae56 f13d dec5 a0be
000001f0: 4f39 4f3f 4b68 d23e 9a6a 443f 32dd bcbe
0.6581714 -0.25132373 0.76514506 -0.229624 -0.38601798 0.51581645 -0.31116283 0.66108966
0.614461 0.8316012 0.8523344 0.8177253 -0.8143213 0.77780694 0.6584761 0.4930976
0.49853134 0.6776446 0.5621512 0.5938097 -0.20511204 -0.24934937 0.8466828 0.0491953
-0.29434502 -0.37764734 0.5895325 -0.39425045 0.45890948 0.8888942 0.6066607 0.8705441
0.5826985 0.42174023 0.82750124 -0.21976668 0.5303997 0.22682732 0.5646695 -0.18701231
-0.28292516 0.82143974 0.13628139 -0.30240974 0.7575551 0.51920795 0.68778116 0.42019606
0.6464739 -0.43097323 -0.4860261 -0.4530477 0.57425165 0.790568 -0.33207363 0.18930787
0.8306432 0.7847265 -0.9127568 0.7613738 0.15344371 -0.2437698 0.33254927 0.51475984
0.2570172 0.64573157 0.70276606 0.5499336 0.89573884 -0.48479998 0.42340028 -0.046923447
0.5333764 -0.38304234 0.8666836 -0.03283966 0.62081575 0.87741005 -0.18261273 0.8672451
0.67075574 -0.5327858 -0.18506041 -0.9603638 -0.40303397 0.48152018 -0.37727615 0.5895513
0.8999368 0.55288035 -0.9198656 0.39555612 -0.63997614 -0.29476348 0.39086783 0.49481457
0.6106821 0.609396 -0.6660885 -0.74877745 -0.33758393 0.67457825 0.60433686 -0.17137271
-0.7638377 -0.8766949 0.64661425 0.5825388 0.8033039 0.54422724 0.8357183 0.47822577
-0.38083136 0.5576874 0.73014504 0.3208766 0.838327 -0.2576696 0.7009507 -0.65970075
0.604009 -0.29697984 0.11784111 -0.3140096 0.8094682 0.41095194 0.7672516 -0.3688751

fc2.weight f4 [2, 128]
00000000: eb66 3f3f 5da1 1ebd 053e 093f 7ea0 a4bf
00000010: ce78 91bf 94f6 d93e 6466 58be bb65 c43e
00000020: 8dbd a93e 50c4 eb3e 8974 b73e fd61 263e
00000030: 9a1a de3f 91e6 0c3f f2cd 823e 7df1 783e
00000040: e7bd a83e c1b6 d33e 3aaf 8c3e 1752 453e
00000050: ca3e 8cbf d13f a2bf d148 023f 3554 abbf
00000060: d6b2 183e 33b7 98bf d3b6 873e ffb0 fdbc
00000070: 8b05 eb3e d8ea 8e3e 1a27 ef3e 646e 113f
00000080: 7a5a 5e3f 37f4 0e3f d30f b83e 4813 b83d
00000090: c13b 033f cab8 8e3e 45ed fb3e 1352 43bd
000000a0: d7d5 90bf dd7a d73e 78f2 adbf 2c5e a2bf
000000b0: 7cd4 d63e 48ba f33e 9a90 123f e7b7 503e
000000c0: 461a ef3e 0f8f 5abf f369 50be 2fff 91bd
000000d0: eeac 1a3f 678a 083f 7160 a9bf 8da5 7d3e
000000e0: 12b1 4a3f 848c 9e3e f2a2 cd3f e557 103f
000000f0: a886 abbf 3557 a3bf 65ee e43e 645a f33e
00000100: 4ac8 e53e ee26 e13e e79f 543e 949f 263e
00000110: 755b 963e 22f0 4cbe d05b d33e 4768 603f
00000120: 4ce1 df3e 61da 8ebf f126 033f 89e1 8fbf
00000130: 0fc1 913e 3a78 fb3e 1524 abbf 82ba bd3e
00000140: e9d3 2b3f e1f8 553f a657 92bf 3933 ae3f
00000150: a55e aa3d 9c9b 053f 89f7 95bf c821 1d3e
00000160: 6e99 923e 721d 993e 58b6 e23f 2e4d 1d3f
00000170: 3d9d e7bf 6de0 b2bf ed80 003f c14c 103f
00000180: 93d5 063f f8a4 8d3e 74dd a8bf 48fd d13f
00000190: 571e 2f3e 6dea 7c3e 34b9 733e cfa1 57be
000001a0: 000a d03f 98ff c53f d407 013f 95db 3f3f
000001b0: e516 093f 9af9 363e 446f e93e fa7b fd3d
000001c0: 2444 69bd 22eb 9c3e 5e28 463e dc10 693e
000001d0: 9055 fb3e da98 32bc ab33 c63e ab68 e0bf
000001e0: 754d 093f 82f8 33be fa3c a7bf 8a4d 94bf
000001f0: 3643 413f c38f 0c3f 5654 2d3f fa37 b7bf
00000200: 76cc 343f 82de 383e b799 9b3e 921b aabf
00000210: dcd3 adbf 743e fa3e 668a 93bd 6585 f93e
00000220: d200 433e cd83 943e 1d7e bc3e 72ff 013f
00000230: b7d0 e53f 5882 8d3e 3542 8a3e 60e4 ed3e
00000240: 0109 ed3d 68d6 0a3f 19e2 843e a27c 113f
00000250: a5af 59bf d619 9abf 8433 373f 8f99 afbf
00000260: e725 693d e032 87bf b77a 0d3f 1c18 83bd
00000270: 7991 bf3e 3a65 c73e 6d6a 423f fbb5 4a3e
00000280: 7d6a 543f 547c 053f 3bc2 e53e 832c f73d
00000290: c54b f23e 6c4f d43d dc63 9c3e 9ec2 ea3d
000002a0: 441a 91bf 3814 ab3e 151b 9fbf 26c9 babf
000002b0: 3623 5c3e f8a8 d73e 26e5 113f 4ce7 eb3e
000002c0: 9560 913e ce55 9ebf 924e ca3d 0baf 5bbc
000002d0: ca20 193f b812 603e b938 9bbf 8a84 843e
000002e0: 9c20 143f 8b77 de3e 432e c43f 0aad 443f
000002f0: 0e73 adbf ed2a 96bf 9da8 c93e ff29 993e
00000300: 7b2d cf3e d54d e83e 98e7 cf3e 919b c53e
00000310: 8328 f83e 9618 253e 6237 263e 6b2c 6a3f
00000320: 4ca1 bd3e d7d2 adbf 0e47 a33e a5a2 9dbf
00000330: b512 1e3f 4214 3d3e fa4c 96bf 1548 e43e
00000340: d354 083f 43ec 3f3f 96dc a8bf e68d c23f
00000350: e3a5 83bd 4494 cf3e 8366 afbf bb4e aa3e
00000360: 2d2e d43e 53c9 f03e 62c0 ce3f c75a 053f
00000370: 584a cebf 2874 abbf b2ae 033f ecea 883e
00000380: e1a5 7f3e 440c e83e 1993 aabf f217 b33f
00000390: 6e78 b43d d3e7 d93e 22eb 903e ca2a 03be
000003a0: 64c3 bf3f 1902 bd3f 7ce7 3b3e 1f00 103f
000003b0: 094e f73e d9a2 193f 7e30 343f 8227 1f3e
000003c0: 1bec e5bd 5244 1d3f 5c7c 033f 5866 4d3e
000003d0: 748e 173e 1d72 023e 56b9 443f ea1f dabf
000003e0: ba49 8b3e b7e1 a73d 3c97 b7bf 5b5a 83bf
000003f0: 9975 193f 67e0 ce3e 9f21 343f 30ca 95bf
0.74766415 -0.038728107 0.5361026 -1.2861478 -1.1364992 0.42570937 -0.21132809 0.38358864
0.33152428 0.46048212 0.35831097 0.16248317 1.7351868 0.55039316 0.2554775 0.2431087
0.32957384 0.41350368 0.27477437 0.19269596 -1.0956662 -1.2675725 0.5089236 -1.3385073
0.1491197 -1.1930908 0.2650667 -0.030968187 0.45902666 0.27913547 0.4670952 0.5680907
0.86856806 0.5584139 0.35949573 0.089880526 0.5126305 0.27875358 0.4920446 -0.047685694
-1.1315259 0.42085925 -1.358962 -1.2684989 0.41958988 0.4760306 0.57251894 0.20382653
0.46699733 -0.8537454 -0.20352916 -0.071287505 0.6042012 0.53336185 -1.3232557 0.24770184
0.7917644 0.3096658 1.6065352 0.56384116 -1.3400469 -1.2760988 0.4471313 0.475299
0.4487937 0.43975013 0.20764123 0.16271812 0.2936665 -0.20013478 0.41280985 0.87659115
0.43726575 -1.1160394 0.51231295 -1.1240703 0.28467605 0.49115163 -1.3370386 0.37056357
0.67120224 0.83582884 -1.1432998 1.3609382 0.08318833 0.52190566 -1.1716167 0.15344918
0.28632683 0.29905277 1.7711897 0.6144589 -1.809486 -1.3974739 0.50196725 0.5636712
0.5266964 0.27664924 -1.3192582 1.640542 0.17101417 0.24698801 0.23801118 -0.21057819
1.6253052 1.5468626 0.5040257 0.7494443 0.5355056 0.17868653 0.455927 0.12377162
-0.05694975 0.30648142 0.19351336 0.22760338 0.49088717 -0.0109007 0.38711295 -1.7531942
0.53633815 -0.17575267 -1.3065484 -1.1586163 0.7549318 0.5490686 0.6770681 -1.4313958
0.7062448 0.1805363 0.30390713 -1.3289664 -1.3580279 0.48875773 -0.07204132 0.48734584
0.19043282 0.29006806 0.36814967 0.50780404 1.795432 0.27638507 0.27003637 0.464633
0.11573983 0.5423341 0.2595375 0.568308 -0.8503364 -1.2039135 0.7156298 -1.3718737
0.056920912 -1.0562401 0.55265373 -0.06401083 0.37415674 0.38944417 0.7594364 0.19795983
0.8297499 0.52142835 0.4487475 0.12069037 0.47323433 0.10366711 0.30544937 0.114629015
-1.1336141 0.33413863 -1.243014 -1.4592636 0.21497807 0.421211 0.5699028 0.46074903
0.28394 -1.2369936 0.09878267 -0.013408433 0.5981566 0.2188214 -1.2126685 0.2588237
0.5786226 0.4345058 1.5326618 0.76826537 -1.3550737 -1.173185 0.39386454 0.29914853
0.40464386 0.4537188 0.4060638 0.3859525 0.48468408 0.1612266 0.16232064 0.91474026
0.37037122 -1.3579968 0.31890148 -1.231526 0.61747295 0.18464759 -1.1742241 0.44586244
0.5325443 0.7496988 -1.3192317 1.5199554 -0.06428125 0.40542805 -1.3703159 0.33263192
0.4144148 0.47028598 1.615246 0.5209164 -1.6116438 -1.3394823 0.5143844 0.2674173
0.24965622 0.45321858 -1.3326141 1.3991683 0.08812033 0.4255968 0.28304392 -0.12809291
1.4981503 1.4766265 0.18350023 0.56250185 0.48301724 0.6001411 0.70386493 0.15542415
-0.11226674 0.61432374 0.5136163 0.20058572 0.14800435 0.12738843 0.768453 -1.7040989
0.27204686 0.081973486 -1.4343028 -1.0261949 0.59945065 0.4040558 0.703638 -1.1702328

fc2.bias f4 [2]
00000000: e939 6b3e 07fd 873e
0.2297131 0.26560232
