saved_models/pole_dqn/train_15000e/best_online_net.pth (torch, 5712 bytes, 4 tensors)

fc1.weight f4 [128, 4]
0.009219425 0.20942271 -1.2760427 -0.8758927 -0.021334812 0.0036089441 -0.21439421 -0.10530914
0.12912922 -0.103109136 -0.03767112 -0.19334376 -0.5745305 0.2485292 3.80797 1.4987311
0.07624139 -0.044880304 -0.011636224 -0.10371258 0.051717456 0.014625175 -0.2368631 -0.041944005
0.6584985 1.773565 0.48896858 -0.5367093 -0.21644709 -0.9513043 0.119517654 1.1301265
0.184873 -0.026990118 -0.38890582 0.030164665 -0.43504006 -1.5689218 -3.108192 0.24358103
-0.6970515 -1.5617353 -0.007006384 0.78837633 -0.5008867 -0.64453304 -0.5089598 -0.35878226
-0.24065313 -0.44511423 -0.730562 -0.3378812 -0.65369904 -1.5700454 -0.1903006 0.70452785
-1.301715 -0.3021967 -1.1366217 -1.5071908 -0.6986948 -1.2099341 0.17358278 0.83730304
-1.4929132 -0.19554271 -0.3196719 -0.9357553 -0.79171175 0.7569065 0.009484436 -0.872613
0.87985903 2.3119576 1.3448602 -0.5604522 0.10125445 -0.2684311 -0.49964464 -0.15987784
-0.54095197 -0.2527923 -1.2131201 -1.0498502 -0.59279543 -0.65982497 -1.5879441 -1.1878068
-0.39946252 -0.5434669 -0.42427567 -0.2885061 -0.63249725 -0.9634192 -4.350504 -0.67556334
0.19038442 0.34618855 -1.5947529 -0.7644203 0.24791819 0.017891936 -1.4105035 -1.0610393
1.2245023 -0.20593992 -0.4432748 0.38927597 -0.59554076 -1.2071726 0.36405152 0.780722
0.070743576 -0.029713523 -0.043139875 -0.057430733 -0.68369985 -0.44728953 -4.0468163 -1.0425446
0.34304222 0.24919152 -0.9888319 -0.7272237 0.36572072 0.5911675 -0.78660494 -0.43179294
0.12515853 0.64489794 2.8691256 1.2072862 -0.024945242 0.05507825 -0.18460101 -0.0015829793
-0.6853965 0.8146722 3.9952402 1.3489331 -0.23414685 -0.36858428 -1.9394473 -1.0388412
-0.11014284 0.0165927 2.8941329 1.7226986 -0.17255487 -0.08946234 -4.2583356 -1.5778095
-0.06861926 -0.0928453 -0.66934407 -0.003514082 -0.11727096 -0.24413359 -0.39995462 -0.32496604
-0.30271035 -0.2881423 -0.38982704 -0.32347018 0.006154577 -0.104467176 -0.3223061 -0.2402562
-0.40267095 -1.4126014 -0.24507721 0.57086223 -0.24077885 -1.1866791 -3.0727532 -0.2451635
-0.1725342 -0.007832261 -4.0755463 -1.6364665 0.7477806 -0.7478921 -0.02870937 0.8675864
-0.6949432 -1.3267496 0.13612181 0.8835165 0.9176996 -0.0047828644 -1.4924015 -0.8266847
-1.9456102 0.3319904 4.033035 1.2268859 -0.10023977 -1.433496 -0.90954024 0.5150882
0.24668887 -0.7267936 -0.39507762 0.43723238 -0.6697365 -1.8041812 -1.9358579 0.039112628
-0.5915117 -0.5199761 -0.5084988 -0.387941 -2.5765095 -0.17827865 -0.9476879 -0.24284469
0.6787554 0.7151834 -0.70769686 -0.6942372 0.050665364 -0.39133847 -0.24063797 -0.3496158
-0.39625892 -0.42164302 -0.43040627 -0.16357741 -0.3606999 -0.55471843 -0.5612872 -0.4364776
-1.2757121 0.011844666 -0.34060025 -0.630017 -2.5876422 0.41048235 2.8208985 1.2769392
-0.090630725 0.031744927 -0.672939 0.030009903 -0.8626554 -1.3011461 0.26685527 0.8952542
-0.6261195 -0.6017545 -1.7744243 -1.1038954 -0.11206976 -0.47849953 -0.3830409 -0.32216477
00000000: 120d 173c e872 563e 5e55 a3bf 813a 60bf
00000010: 58c6 aebc 0984 6c3b 288a 5bbe 52ac d7bd
00000020: 733a 043e e22a d3bd 084d 1abd e8fb 45be
00000030: 6e14 13bf 707e 7e3e c8b5 7340 6cd6 bf3f
00000040: 7224 9c3d 69d4 37bd dca5 3ebc 4367 d4bd
00000050: afd5 533d 6e9e 6f3c 3e8c 72be 7acd 2bbd
00000060: 5c93 283f 2e04 e33f 175a fa3e c865 09bf
00000070: 4ea4 5dbe ae88 73bf acc5 f43d fca7 903f
00000080: 594f 3d3e 611a ddbc aa1e c7be e31b f73c
00000090: 92bd debe 6ed2 c8bf 9eec 46c0 4e6d 793e
000000a0: f871 32bf f1e6 c7bf cf95 e5bb 08d3 493f
000000b0: 1c3a 00bf 1e00 25bf 304b 02bf 4fb2 b7be
000000c0: c66d 76be 03e6 e3be 1c06 3bbf c4fe acbe
000000d0: d258 27bf 3ff7 c8bf 29de 42be f05b 343f
000000e0: 999e a6bf 87b9 9abe d27c 91bf a1eb c0bf
000000f0: aadd 32bf 1fdf 9abf afbf 313e 7e59 563f
00000100: c817 bfbf 593c 48be 09ac a3be a98d 6fbf
00000110: 9fad 4abf a0c4 413f 9c64 1b3c 9163 5fbf
00000120: 713e 613f 1df7 1340 6124 ac3f cc79 0fbf
00000130: 7e5e cf3d cd6f 89be 6cd1 ffbe 04b7 23be
00000140: d47b 0abf fe6d 81be 8547 9bbf 7e61 86bf
00000150: 71c1 17bf 4aea 28bf c141 cbbf 0e0a 98bf
00000160: 5a86 ccbe a620 0bbf a93a d9be 12b7 93be
00000170: 57eb 21bf a4a2 76bf 5437 8bc0 b8f1 2cbf
00000180: 22f4 423e a03f b13e dd20 ccbf 0cb1 43bf
00000190: 44de 7d3e 1c92 923c 618b b4bf 23d0 87bf
000001a0: 7ebc 9c3f eae1 52be eaf4 e2be 2e4f c73e
000001b0: 5c75 18bf a284 9abf f664 ba3e 66dd 473f
000001c0: 02e2 903d c669 f3bc 70b3 30bd 7d3c 6bbd
000001d0: f406 2fbf 2203 e5be 857f 81c0 1a72 85bf
000001e0: 3ba3 af3e 102c 7f3e 1624 7dbf 552b 3abf
000001f0: bf3f bb3e c156 173f f15e 49bf f713 ddbe
00000200: 8f29 003e 0818 253f c19f 3740 5b88 9a3f
00000210: f759 ccbc bb99 613d 0c08 3dbe f97b cfba
00000220: 2576 2fbf 5b8e 503f 04b2 7f40 d7a9 ac3f
00000230: 31c4 6fbe 14b7 bcbe cf3f f8bf c0f8 84bf
00000240: 9292 e1bd 6aed 873c 7939 3940 6381 dc3f
00000250: 39b2 30be 0838 b7bd 4944 88c0 a9f5 c9bf
00000260: 4188 8cbd ad25 bebd 225a 2bbf 834c 66bb
00000270: c22b f0bd 28fe 79be dac6 ccbe f361 a6be
00000280: dafc 9abe 6387 93be 6997 c7be e29d a5be
00000290: 55ac c93b e3f2 d5bd 4e05 a5be b905 76be
000002a0: e32a cebe 1fd0 b4bf 85f5 7abe 0724 123f
000002b0: bb8e 76be 1ae5 97bf fda7 44c0 240c 7bbe
000002c0: ceac 30be e252 00bc e06a 82c0 bc77 d1bf
000002d0: 8d6e 3f3f db75 3fbf ea2f ebbc 241a 5e3f
000002e0: cce7 31bf eed2 a9bf 8463 0b3e 232e 623f
000002f0: 5cee 6a3f 93b9 9cbb 0307 bfbf 9ca1 53bf
00000300: c109 f9bf a5fa a93e 9f0e 8140 990a 9d3f
00000310: 824a cdbd cc7c b7bf a1d7 68bf d2dc 033f
00000320: 029c 7c3e 250f 3abf 9d47 cabe ecdc df3e
00000330: da73 2bbf 69ef e6bf 31ca f7bf 9034 203d
00000340: 506d 17bf 271d 05bf fa2c 02bf 34a0 c6be
00000350: 88e5 24c0 ae8e 36be ad9b 72bf 47ac 78be
00000360: eac2 2d3f 4216 373f 9f2b 35bf 87b9 31bf
00000370: 7c86 4f3d 845d c8be cd69 76be d800 b3be
00000380: 73e2 cabe 98e1 d7be 365e dcbe d680 27be
00000390: a8ad b8be 0702 0ebf 85b0 0fbf fe79 dfbe
000003a0: 894a a3bf 2110 423c 2863 aebe cb48 21bf
000003b0: ee9b 25c0 be2a d23e 9a89 3440 be72 a33f
000003c0: 9a9c b9bd f806 023d bb45 2cbf 54d7 f53c
000003d0: fcd6 5cbf f58b a6bf 41a1 883e 612f 653f
000003e0: 5e49 20bf 950c 1abf 5620 e3bf 724c 8dbf
000003f0: d584 e5bd e4fd f4be f01d c4be c8f2 a4be

fc1.bias f4 [128]
1.0316397 1.1067129 -0.46931058 -0.61640114 -0.29184046 1.1183083 -0.11852273 -0.21403156
0.972285 0.16562153 0.423572 0.6409252 1.0501187 0.36602318 -0.3384451 0.39244834
-0.02984224 -0.10436715 0.676335 0.9196272 0.63495487 0.63530666 0.9354396 -0.08679506
1.3197156 0.887449 0.6454921 0.38598475 -0.41124392 -0.5524386 0.7455703 0.5402567
0.12490112 -0.29408962 -0.21203406 -0.3476076 0.1558393 -0.14757274 0.69118464 1.1306369
0.84655666 0.99405235 0.24946453 -0.29320115 -0.13172849 0.89136183 0.43055516 0.7024498
0.118298344 0.123604044 -0.27007163 0.35121784 0.6257137 0.6624338 0.183127 1.1392894
0.96809745 0.98738676 -0.048966516 -0.08925703 0.7498465 0.46248752 0.61503524 0.80977356
0.5539655 1.4790888 0.62581193 -0.362674 -0.0058910693 -0.34346676 0.1462788 0.017365405
0.62902737 -0.56476486 0.15299101 -0.40210313 -0.4573775 -0.28064024 -0.12391522 0.4043786
-0.22543304 0.67655265 1.0062357 0.16910096 0.52551764 -0.12231558 -0.24342126 1.0010805
0.553963 -0.24532612 -0.093254246 0.3442644 0.73122054 0.41972637 0.77357274 -0.11803578
1.0178971 1.1036924 1.0926684 -0.12353678 1.1655178 -0.3269301 -0.36081955 0.37788048
1.2110406 0.32467008 0.09900656 -0.39874536 1.2916472 0.006494406 -0.45193976 -0.5006544
0.13908625 0.43715706 1.2445434 -0.20365863 1.3269614 -0.45657876 0.36112437 -0.07420983
0.18552522 0.148314 1.0458467 -0.2616733 1.0075047 0.91646695 0.4114717 1.4015315
00000000: c50c 843f c5a8 8d3f 7a49 f0be 77cc 1dbf
00000010: 1d6c 95be ba24 8f3f 0cbc f2bd 172b 5bbe
00000020: abe7 783f b198 293e 6ede d83e ad13 243f
00000030: 4a6a 863f 6467 bb3e ad48 adbe fdee c83e
00000040: b777 f4bc 72be d5bd 4a24 2d3f b06c 6b3f
00000050: 678c 223f 75a3 223f f878 6f3f 9cc1 b1bd
00000060: 71ec a83f dc2f 633f f83e 253f cb9f c53e
00000070: 908e d2be 9e6c 0dbf b2dd 3e3f 434e 0a3f
00000080: 29cc ff3d ea92 96be 751f 59be a0f9 b1be
00000090: 5694 1f3e 4f1d 17be 7af1 303f b6b8 903f
000000a0: f0b7 583f 377a 7e3f a173 7f3e 761e 96be
000000b0: d5e3 06be 4a30 643f ba71 dc3e c0d3 333f
000000c0: 6746 f23d 1e24 fd3d d446 8abe d3d2 b33e
000000d0: c62e 203f 4395 293f a585 3b3e 3cd4 913f
000000e0: 3cd5 773f 61c5 7c3f 1d91 48bd 64cc b6bd
000000f0: f1f5 3f3f 2acb ec3e f372 1d3f 524d 4f3f
00000100: afd0 0d3f c852 bd3f 3635 203f 68b0 b9be
00000110: df09 c1bb e0da afbe 1cca 153e e541 8e3c
00000120: f007 213f 6e94 10bf ada9 1c3e 76e0 cdbe
00000130: 622d eabe 14b0 8fbe 43c7 fdbd b60a cf3e
00000140: ebd7 66be 8e32 2d3f 55cc 803f cd28 2d3e
00000150: 5388 063f 9780 fabd 6c43 79be 6823 803f
00000160: 85d0 0d3f c536 7bbe 15fc bebd 6c43 b03e
00000170: 4531 3b3f 60e6 d63e dd08 463f bebc f1bd
00000180: 744a 823f cb45 8d3f 8fdc 8b3f da00 fdbd
00000190: b02f 953f 6263 a7be 57bd b8be 8d79 c13e
000001a0: 6103 9b3f 283b a63e f4c3 ca3d 5a28 ccbe
000001b0: b254 a53f 07cf d43b a664 e7be e32a 00bf
000001c0: a06c 0e3e 0dd3 df3e 334d 9f3f e38b 50be
000001d0: dfd9 a93f b1c4 e9be 4be5 b83e 53fb 97bd
000001e0: 53fa 3d3e a0df 173e 4ede 853f 0bfa 85be
000001f0: eaf5 803f 949d 6a3f 6bac d23e 6265 b33f

fc2.weight f4 [2, 128]
0.8699995 0.60465395 0.17201869 -2.8813887 0.0030221178 0.4394566 -2.2344232 1.0995648
0.5909867 -2.1365478 0.8447033 0.6314269 0.27602124 0.9521154 3.9031894 0.72043407
2.5920212 0.6082125 -2.2666543 0.5924347 1.09645 0.96890855 0.4449693 -3.0573602
1.0319898 0.5539434 0.7286564 0.97608984 -0.044793196 -3.0639992 0.8828906 0.8353862
-2.6554148 0.18835911 -3.401491 3.558644 -1.5174843 -4.1712575 0.3929371 0.33696374
0.27408633 0.37202516 0.9630377 -1.3670741 -3.8169856 -1.1277649 0.8516889 1.2707704
-3.411789 0.9883764 -1.0102248 1.8837715 0.33342195 -2.1397276 0.8583274 0.44911826
0.40695208 0.2272485 1.0950009 -2.4312398 0.2856586 0.74317425 1.2275381 0.64320016
-2.3255079 0.95682704 -1.9682251 -0.20267522 0.64062965 -0.08723865 0.46991986 1.1957828
0.9198726 -2.8116817 0.5849769 -0.12571953 -0.14591356 0.12973015 0.8913418 0.8044495
0.03594503 0.85649973 0.42364168 -2.1889567 0.8911415 -3.161665 0.12015411 1.0371574
1.1612066 3.2498884 -3.536784 0.8611347 -2.1124177 0.8842933 0.4328907 1.0803099
0.37249264 0.3390945 0.6195726 -2.952147 0.4967972 -1.8022424 -2.8409407 0.7830346
0.4532768 0.92105407 1.308745 -0.14710748 -1.380392 -2.445298 0.12012484 5.4177623
0.73637736 0.8091265 0.62044394 -3.982268 0.8374232 -0.06877542 1.6665328 -3.1666868
0.8076619 0.79933745 0.40491033 -2.6809537 0.42604396 1.0138819 1.0148315 1.031004
0.5218897 0.3456806 -0.11765199 -3.0031602 -0.044615403 0.5155104 -2.1674962 0.9232155
0.57628375 -2.0951629 0.8565095 0.5664116 0.40838015 0.6692331 3.771913 0.8567184
2.5926697 0.74663204 -2.3783734 0.5043355 1.2077044 1.1486007 0.35077065 -3.1752589
0.78254056 0.93252283 0.83332115 0.7929117 0.11377926 -2.9993682 0.55305094 0.91069096
-2.355164 0.00027054682 -3.337082 3.6876233 -1.7023064 -3.9300888 0.4944913 0.49418747
0.37060705 0.45762917 0.9846108 -1.1078681 -3.8546789 -0.8871986 0.751184 1.3927814
-3.3926384 1.0250214 -0.87299985 1.6252526 0.5453808 -2.2732756 0.8880542 0.437589
0.26980475 0.4026848 1.1778146 -2.3810117 0.5929706 1.0131764 1.3148793 0.25355336
-1.9368289 1.0169083 -2.0438883 0.028135462 0.59006375 0.035832398 0.7074486 1.0745783
1.0301512 -2.7654376 0.64947087 -0.21279334 0.10345002 0.10010614 0.9192073 0.64080817
0.072751254 0.7514535 0.30648223 -2.1619368 0.6893647 -3.1750534 0.07368716 0.9222815
0.9151873 3.2877905 -3.4732027 1.012094 -1.9810287 1.0024277 0.53212255 1.1378193
0.3854583 0.42830876 0.30672908 -2.9338157 0.37284735 -1.9244767 -2.8208094 0.9635955
0.4846818 0.82128876 1.356985 -0.058494125 -1.4943824 -2.725721 -0.067619726 5.3718367
0.7294373 0.6568378 0.9554248 -4.097335 0.9708463 -0.07578089 1.712784 -3.1184275
1.1372999 0.7209178 0.49647683 -2.949734 0.42563504 1.1047164 0.8599702 0.82083654
00000000: 4ab8 5e3f 9aca 1a3f ab25 303e ac68 38c0
00000010: b90e 463b 7500 e13e ca00 0fc0 8abe 8c3f
00000020: e84a 173f 33bd 08c0 7a3e 583f 31a5 213f
00000030: a852 8d3e d6bd 733f dbcd 7940 5e6e 383f
00000040: ade3 2540 d0b3 1b3f dd10 11c0 cda9 173f
00000050: 7958 8c3f 640a 783f 04d3 e33e caab 43c0
00000060: 3e18 843f 3ccf 0d3f 3a89 3a3f 06e1 793f
00000070: 1279 37bd 9018 44c0 1e05 623f dfdb 553f
00000080: 51f2 29c0 36e1 403e 07b2 59c0 d3c0 6340
00000090: ed3c c2bf f17a 85c0 0d2f c93e 8386 ac3e
000000a0: 0b55 8c3e 157a be3e a489 763f 49fc aebf
000000b0: 7e49 74c0 9a5a 90bf 4908 5a3f 9ba8 a23f
000000c0: c05a 5ac0 3c06 7d3f 0c4f 81bf 6d1f f13f
000000d0: 48b6 aa3e 4cf1 08c0 58bb 5b3f d4f2 e53e
000000e0: 065c d03e d5b3 683e fd28 8c3f 6f99 1bc0
000000f0: d841 923e ab40 3e3f f81f 9d3f c4a8 243f
00000100: 1fd5 14c0 9ef2 743f cdee fbbf 188a 4fbe
00000110: 4e00 243f 2daa b2bd 5699 f03e 690f 993f
00000120: c57c 6b3f 98f2 33c0 0cc1 153f 9fbc 00be
00000130: 5d6a 15be fbd7 043e fa2e 643f 67f0 4d3f
00000140: 193b 133d 9143 5b3f 90e7 d83e de17 0cc0
00000150: d921 643f b858 4ac0 5c13 f63d 93c1 843f
00000160: 6ba2 943f 2cfe 4f40 ab5a 62c0 5373 5c3f
00000170: da31 07c0 0c61 623f daa3 dd3e 9847 8a3f
00000180: 5bb7 be3e cb9d ad3e 4f9c 1e3f faef 3cc0
00000190: 345c fe3e e1af e6bf f9d1 35c0 f574 483f
000001a0: e613 e83e 33ca 6b3f f584 a73f 58a3 16be
000001b0: afb0 b0bf c37f 1cc0 0304 f63d 4f5e ad40
000001c0: 3a83 3c3f ea22 4f3f 6ad5 1e3f 7bdd 7ec0
000001d0: 5e61 563f 21da 8cbd f250 d53f ffaa 4ac0
000001e0: eec2 4e3f 61a1 4c3f 6850 cf3e bf94 2bc0
000001f0: 6f22 da3e e2c6 813f 00e6 813f f0f7 833f
00000200: 909a 053f 0cfd b03e 87f3 f0bd c733 40c0
00000210: a4be 36bd 7df8 033f 42b8 0ac0 da57 6c3f
00000220: 5587 133f 2617 06c0 3544 5b3f 5a00 113f
00000230: 3417 d13e dc52 2b3f 0667 7140 e651 5b3f
00000240: 4dee 2540 4723 3f3f 4537 18c0 221c 013f
00000250: 0f96 9a3f 5905 933f 3698 b33e 7137 4bc0
00000260: 9454 483f d1b9 6e3f 8954 553f 43fc 4a3f
00000270: 1a05 e93d a6f5 3fc0 bf94 0d3f 0b23 693f
00000280: 02bb 16c0 2ed8 8d39 c092 55c0 0502 6c40
00000290: 2de5 d9bf 9386 7bc0 f72d fd3e 2406 fd3e
000002a0: 35c0 bd3e 5f4e ea3e 740f 7c3f 9fce 8dbf
000002b0: 0fb3 76c0 731f 63bf 984d 403f a946 b23f
000002c0: fd20 59c0 e733 833f eb7c 5fbf 4708 d03f
000002d0: 139e 0b3f 597d 11c0 8557 633f aa0b e03e
000002e0: d923 8a3e b42c ce3e a1c2 963f 7f62 18c0
000002f0: eccc 173f c4af 813f f74d a83f bfd1 813e
00000300: 02ea f7bf 0d2a 823f 11cf 02c0 577c e63c
00000310: 6b0e 173f fec4 123d 5a1b 353f c88b 893f
00000320: ffdb 833f eefc 30c0 b943 263f 7fe6 59be
00000330: 9bdd d33d 7304 cd3d 2b51 6b3f 010c 243f
00000340: 9cfe 943d 425f 403f 3deb 9c3e 2c5d 0ac0
00000350: 347a 303f 1334 4bc0 4be9 963d a41a 6c3f
00000360: b749 6a3f 296b 5240 f448 5ec0 4c8c 813f
00000370: 5992 fdbf 8d4f 803f 2f39 083f 10a4 913f
00000380: ca5a c53e 494b db3e 980b 9d3e a3c3 3bc0
00000390: d9e5 be3e 4155 f6bf 2488 34c0 32ae 763f
000003a0: 3628 f83e fb3f 523f afb1 ad3f 8997 6fbd
000003b0: ec47 bfbf 3672 2ec0 367c 8abd 16e6 ab40
000003c0: 67bc 3a3f 8626 283f b896 743f 5e1d 83c0
000003d0: 6289 783f 0333 9bbd 823c db3f 5194 47c0
000003e0: 0b93 913f 128e 383f 3632 fe3e 71c8 3cc0
000003f0: d6ec d93e 5967 8d3f 0227 5c3f 5822 523f

fc2.bias f4 [2]
0.40919814 0.41783988
00000000: 6b82 d13e 1cef d53e
