saved_models/pole_DQN/train_DQN_paper_parameters/online_net.pth (torch, 5672 bytes, 4 tensors)

fc1.weight f4 [128, 4]
000000 f4 30 e6 3e 93 a3 36 bc 14 86 7e 3e d6 59 e4 3d
       0.44959223 -0.011147398 0.24855834 0.11149947
000010 6c 78 44 3d fa df df bc 1a 16 38 be ef 01 c2 bd
       0.047966406 -0.02732848 -0.17977181 -0.09473025
000020 c1 2b 2a 3f 99 ae cf be a4 e8 0c 3f e8 fb 1c 3f
       0.66473013 -0.40562895 0.5504248 0.6132188
000030 73 51 81 3e 6e cd 6c 3d 04 1b c2 3e fd 88 fd bc
       0.25257453 0.0578131 0.37911236 -0.03094911
000040 53 d6 30 3f a6 b5 43 be 86 74 32 3f af b3 34 3f
       0.6907703 -0.19112262 0.6970905 0.70586675
000050 cc 3e 26 3f aa 15 90 3f 5a ff 64 3f e2 a7 c1 3e
       0.6493957 1.1256611 0.89452136 0.37823397
000060 83 8c 82 3d a8 c0 e3 3e 11 90 14 40 41 14 69 3f
       0.06374457 0.44482923 2.321293 0.9104653
000070 f6 d3 c1 3e af 35 84 3e 01 34 13 3e c7 f0 8a bd
       0.37857026 0.25822207 0.14375307 -0.06784206
000080 ce 89 23 3f a7 a7 af 3d 43 b1 50 3e 7d 93 2d be
       0.6388215 0.08576899 0.2038012 -0.16950794
000090 2d 4d 1a be e6 0f 18 bc 86 db 09 40 5d 49 97 3f
       -0.15068503 -0.009281134 2.1540236 1.1819264
0000a0 4c 00 26 3f a4 32 93 be c9 7f 15 3f 03 a7 cb 3e
       0.64844203 -0.28749573 0.5839811 0.39775857
0000b0 26 58 a6 3e ab 6e 8a 3e f0 c0 65 3d f1 fb 1d be
       0.32489127 0.27037558 0.056092203 -0.1542814
0000c0 43 ed 8d be c9 a4 0e be d1 2c 6d 3f 62 05 a4 3e
       -0.2772008 -0.13930048 0.9264651 0.32035357
0000d0 7d 89 86 be b5 06 f9 bd 00 17 2c 3f 96 9c d2 3e
       -0.2627677 -0.121594824 0.67222595 0.4113509
0000e0 56 be 4e be 0b a3 ad 3e b3 2d 13 40 0d c7 7b 3f
       -0.20189795 0.33913454 2.2996643 0.983506
0000f0 cd c2 e8 3e bd 59 a0 be 22 8a dd 3e 71 7a ed 3e
       0.4546112 -0.31318465 0.4326945 0.46382478
000100 03 a0 ea 3d 7f 8c bc be ee 3f 99 bf 68 49 d8 3c
       0.11456301 -0.3682594 -1.1972635 0.02640219
000110 8a 3d b5 3e 5a af 2e be aa 7c a3 3e 55 d2 88 3e
       0.35398513 -0.17059079 0.3193105 0.2672297
000120 b7 77 df bd 36 f5 bd 3c fc 81 0e c0 30 df 84 bf
       -0.10911506 0.023188215 -2.2266836 -1.0380611
000130 2b e6 56 3e 3d 77 38 bd 66 7e 2b bc ab 75 fd bc
       0.2098624 -0.04503559 -0.010467147 -0.030939898
000140 58 7a d1 3e 34 f4 57 3d 50 66 67 3d 65 41 97 bc
       0.40913653 0.052723125 0.056494057 -0.0184638
000150 97 b1 d5 3e 5e 88 2d be 27 cb 06 3f a3 9c e5 3e
       0.41737053 -0.16946551 0.52653736 0.44846067
000160 2d f2 95 3e 93 f0 3a 3e 71 92 45 3e 21 c3 e6 bd
       0.29286328 0.18255834 0.19294144 -0.11267687
000170 af 81 17 3f a7 1e 45 3e 4c 12 d4 bd 60 3d cb bd
       0.59182256 0.19249974 -0.10355052 -0.09923816
000180 f9 46 1b 3c c9 c9 1a be 60 97 0a c0 fe 1e 76 bf
       0.00947737 -0.15116037 -2.1654892 -0.9614104
000190 35 b3 24 3f 15 d1 31 3d 18 f5 61 be f6 88 7d be
       0.6433595 0.043412287 -0.22066152 -0.24759278
0001a0 46 be 2d 3f 29 95 a9 be 56 87 34 3f 38 76 df 3e
       0.6786846 -0.33121613 0.70519006 0.4364488
0001b0 37 ea 7b bd a9 90 a5 3e 4d 91 03 bf fe 31 01 bf
       -0.06150266 0.3233693 -0.51393586 -0.5046691
0001c0 f7 e1 09 3f 47 8f e3 3c 54 17 34 3e e7 d4 0c be
       0.5386042 0.02777828 0.17587024 -0.13753091
0001d0 1f 6c 53 3e 0f bd 17 be 18 b5 39 3d 9f 7f 28 3c
       0.20646714 -0.14818214 0.04533872 0.0102843335
0001e0 1b 26 90 3e 84 ba 10 bd ef a8 e1 3e 23 58 00 3c
       0.28154072 -0.035334125 0.440742 0.007833513
0001f0 f5 6f fe 3e 34 4a 43 3d ed ad 52 3e 03 86 94 be
       0.4969479 0.047678187 0.2057416 -0.29008493
000200 96 a4 10 be 74 0d 65 bd d9 07 01 c0 fa c5 70 bf
       -0.14125285 -0.055921033 -2.016104 -0.9405209
000210 f5 36 1b be 34 34 20 3e 62 35 42 3e 6d 0e ec 3d
       -0.15157683 0.15644914 0.18965676 0.11526189
000220 ec 56 65 3d dd 29 1a 3e 1d 15 15 bd 02 5d 4e bb
       0.0559911 0.15055032 -0.03639709 -0.0031488542
000230 b9 a3 f3 3e 3f 51 9d 3b 80 07 b2 bd e8 e6 e0 be
       0.47585848 0.004800945 -0.08692837 -0.43926167
000240 8c 41 f5 3e 9d 70 52 bd af 3d c6 3e b8 19 22 be
       0.4790157 -0.051376928 0.38718936 -0.15830123
000250 f5 63 ba be 02 b3 61 3e 9d 85 18 40 1b 9d 7d 3f
       -0.36404386 0.22040942 2.383155 0.9906785
000260 09 52 ef 3e 3e 05 1c 3e 4c 88 33 3c 3a 96 ec bd
       0.46742275 0.15236375 0.010957789 -0.11552091
000270 7c 82 f1 3d 41 9c 46 3f 43 ab 22 40 77 63 3e 3f
       0.11792466 0.77582175 2.541703 0.7437052
000280 af fb a6 be b8 f7 2c be af ea f0 bf 3a 29 4d bf
       -0.32613894 -0.16891372 -1.882162 -0.8014103
000290 61 2f a4 3e d1 79 d7 3c 12 16 4f 3e 33 04 94 bd
       0.32067397 0.026303204 0.20223263 -0.072273634
0002a0 97 e0 36 3f 09 43 b9 3e c2 d4 38 3e 99 c1 2e 3e
       0.71436447 0.36183956 0.1804991 0.17066039
0002b0 a6 80 26 3f 05 51 97 3e 7c a5 8b 3e 58 55 b2 bd
       0.6504005 0.29554 0.27274692 -0.08707684
0002c0 14 70 33 3f 2e dc 63 3e 04 07 11 be 74 31 dc bd
       0.7009289 0.2225196 -0.14162832 -0.1075162
0002d0 0d 50 d3 3e b1 fd 06 bb 31 ce ab 3e 49 4b 88 be
       0.4127201 -0.002059799 0.3355575 -0.26619938
0002e0 e9 9c a3 bc 3f 6e 04 3e a2 90 e0 3b 01 9b 89 3d
       -0.019972282 0.1293268 0.006853179 0.06719018
0002f0 ac 9d 3b bd 9f 6f 1c bb 8f 1b 0e be 2c 03 f4 3c
       -0.045804664 -0.0023870242 -0.138777 0.029786669
000300 ba e2 da be d3 a0 79 bd 01 8d 10 c0 23 0f 80 bf
       -0.42751104 -0.06094439 -2.2586062 -1.0004619
000310 07 8a 13 3f b0 ed ae be 8d 30 f3 3e 33 0c 31 3f
       0.5763249 -0.34165716 0.4749798 0.6915924
000320 f1 33 15 be 79 56 ec bd 23 4f fc 3f dc b7 85 3f
       -0.14570595 -0.11539931 1.9711651 1.0446734
000330 2e cc 08 3f 7c 0e 4a 3e 44 31 27 3e 52 9f ed bd
       0.53436553 0.19732088 0.16327387 -0.116026536
000340 80 68 51 3f 64 ef 52 3e 96 48 14 3e 69 af 7a be
       0.8180008 0.20599133 0.14480814 -0.24480976
000350 fe 47 f1 3e 2b 8f 56 be 89 df c8 3e ee b1 ff 3e
       0.47125238 -0.20953052 0.39233044 0.49940437
000360 97 1a e5 3e 95 99 9d 3d 8b 1d 16 3e ad c2 13 be
       0.4474685 0.07695309 0.14659707 -0.14429732
000370 f1 ba 41 be d1 7b 14 3e 3f 0f d0 bd a3 13 de 3d
       -0.18918969 0.14500357 -0.10159158 0.10843589
000380 be 45 58 3e 57 44 4f 3e e9 ff d0 3c 6c d4 1e 3e
       0.21120355 0.20240913 0.025512652 0.1551072
000390 65 bf 00 3f 3a 59 b7 3d a6 ff 15 bd df 2e 33 be
       0.50292045 0.089525655 -0.03662076 -0.17498349
0003a0 4c 4b 3c 3f 9c bd 7c 3c 85 ff 07 be 9b 78 6c be
       0.73552394 0.015426066 -0.13281067 -0.23092882
0003b0 e0 e9 a9 3e 99 7f 8a 3e be 63 93 3e 29 e6 a9 bd
       0.33186245 0.27050474 0.28787035 -0.08295853
0003c0 40 01 1b 3f 4f 25 28 3e 6c fe ec 3d 71 41 ea bd
       0.6054878 0.16420482 0.115719646 -0.11438263
0003d0 4d 66 74 3e aa a8 f5 3e ab 08 9a be 0b 5d 01 bf
       0.2386715 0.47980243 -0.30084738 -0.505326
0003e0 d1 a5 cc bc a4 12 9b 3e 17 07 18 40 75 0e 57 3f
       -0.024981411 0.3028766 2.3754327 0.84006435
0003f0 57 87 b2 3e 16 18 e4 3d 23 87 0c 3e 96 27 30 be
       0.3486888 0.111374065 0.13723426 -0.17202601

fc1.bias f4 [128]
000000 36 36 43 3f 38 42 db be 7f b5 1e 3f e2 b6 ef 3e
       0.76254594 -0.42823958 0.6199569 0.46819216
000010 bb a9 1d 3f 3e dd bd 3e d1 82 5d bf b7 44 eb 3e
       0.61587113 0.37082857 -0.86527735 0.45950863
000020 f6 1d c6 3e c2 dc b6 3d 1b d2 b7 3e 4f fb 24 3f
       0.38694733 0.08928825 0.35902485 0.64445966
000030 0a 6a 28 bf d3 57 33 bf 86 4f ff 3d d7 91 d0 3e
       -0.657868 -0.70055884 0.1246634 0.40736267
000040 ed 30 18 be 83 32 ea bd 7a 44 19 bf 0c ba bc be
       -0.14862414 -0.114354156 -0.5987011 -0.36860693
000050 8d 82 d0 3e 59 88 ac 3e e2 1b cf 3e 8c a3 ec 3e
       0.40724602 0.33697775 0.4045096 0.46218526
000060 84 4d 0d bf 58 a2 d9 3e d2 6c d7 3e 80 fb 06 bf
       -0.55196404 0.4250667 0.4207521 -0.5272751
000070 0c fe 28 3f 68 6f d6 be 53 e5 09 3f ea dd e6 3e
       0.66012645 -0.4188187 0.53865546 0.45091182
000080 69 40 08 bf c2 85 9f be 6a ed da be ed 0d 39 3d
       -0.5322328 -0.31156737 -0.42759258 0.045179296
000090 45 06 28 3f 34 6a 98 3c e4 41 1e 3f 23 8d 1d bf
       0.65634567 0.01860533 0.6181929 -0.6154348
0000a0 34 ed ed be 37 47 0c 3f 16 1d 00 3f bc cc 22 3f
       -0.46470034 0.54796165 0.5004438 0.6359365
0000b0 5e 9b 0d 3f 96 40 a6 3e a3 bd 52 be 48 69 28 be
       0.55315197 0.3247115 -0.20580153 -0.16446412
0000c0 d0 8a 0e bf 6a 63 29 3f 08 11 20 3e 9a 63 f1 3e
       -0.5568056 0.6616732 0.15631497 0.47146302
0000d0 e1 1a 48 3f ba 3c c5 3e b7 e9 94 3e 9c 61 53 be
       0.78166014 0.38522893 0.2908456 -0.20642704
0000e0 ea f2 0f 3f 4a 04 bb 3e 5b 03 bf 3e 77 95 26 3f
       0.5623003 0.3652671 0.37307248 0.65071815
0000f0 fd 33 d9 3e e5 37 20 bf 0e 61 b2 3e 0a cb be 3e
       0.42422476 -0.6258529 0.34839672 0.37264282
000100 5a 01 22 3f d5 f9 c0 3e b6 4f 18 bf 55 4b 01 3f
       0.6328331 0.37690607 -0.5949663 0.5050557
000110 e1 3d fd be 7e d8 6f be e4 06 81 be 2e cd 7a 3d
       -0.49461272 -0.23422429 -0.2520057 0.06123083
000120 1d 77 c5 3e 60 de 07 3f 68 36 03 bf df 00 b2 3e
       0.3856744 0.5307369 -0.5125489 0.3476629
000130 15 20 97 3b cc e6 24 3f 57 20 07 3f a8 de 3b 3f
       0.004611979 0.6441467 0.5278372 0.7338662
000140 84 5e c2 3e 94 82 e8 3e b8 6e 0d 3f 54 1f 77 bc
       0.37962735 0.45412123 0.5524707 -0.015083153
000150 45 4d c9 bd 14 69 28 3f 19 b6 04 3f ca cd 11 3f
       -0.09829191 0.65785336 0.5184036 0.56954634
000160 32 e2 1a 3f 77 db 49 3f 7d b8 fb 3e c8 65 78 be
       0.60501397 0.788505 0.4916419 -0.24257576
000170 73 0c 9f be 95 f6 24 3f bb 5c c5 3e f9 d2 c6 3e
       -0.31064186 0.64438754 0.3854731 0.38832834
000180 a5 18 97 be 46 75 e5 be 5e c9 c5 3e 68 a5 f7 3e
       -0.2951099 -0.44816035 0.38630193 0.48368382
000190 fc d2 66 be e6 85 20 bf ba f7 bb be 17 71 f4 3e
       -0.22541422 -0.6270431 -0.36712438 0.4774253
0001a0 54 ef 4f 3e a7 b0 44 3f d8 00 53 be 1c e9 04 3f
       0.2030614 0.7683205 -0.2060579 0.51918197
0001b0 6d c2 ee 3e 75 23 11 bf 1b de 7c bd 07 7e 15 3f
       0.4663271 -0.5669473 -0.061735254 0.5839543
0001c0 db a4 1c bf 9c 1b f4 be 63 89 4a 3f ce 52 c1 3e
       -0.6118905 -0.47677314 0.79115885 0.37758487
0001d0 4c 55 38 3f 5c ed 3a bf 27 92 2b 3f d5 90 1a bf
       0.7200515 -0.7301843 0.67019886 -0.60377246
0001e0 ff 64 18 3f d2 af 02 3f f3 f7 29 3f 30 e5 60 3e
       0.5952911 0.5104953 0.66393965 0.21962428
0001f0 5e 09 3f 3f 0d e8 92 bc 09 0f 1a 3f 07 57 3b bf
       0.7462367 -0.017932916 0.6017919 -0.7317967

fc2.weight f4 [2, 128]
000000 c7 96 7a 3d 1c d7 db 3d 61 4c 2a 3f 70 6d dc 3e
       0.06117895 0.10734388 0.66522795 0.43052244
000010 de 78 ed 3e 09 56 bb bf f0 17 b1 bf 9f 18 18 3f
       0.46381277 -1.4635631 -1.383543 0.5941257
000020 61 ea c7 3e 98 ad 62 bf f1 7b 0b 3f 1a eb 8e 3e
       0.39046004 -0.88546133 0.54485995 0.27913743
000030 d5 c1 7b 3f 20 fa 8f 3f 3d 9d a5 bf 0d c7 b8 3e
       0.9834264 1.1248207 -1.293861 0.36089364
000040 d5 c5 47 bf 3e 6a eb 3e 74 c5 ac bf 6b 26 a0 3d
       -0.7803624 0.45979494 -1.3497758 0.07819828
000050 4a bc bb 3e 2f 50 b0 3e b1 61 9f 3e 1f b1 35 3e
       0.3666709 0.34436175 0.3112922 0.17743348
000060 c0 6e a2 bf 08 db 13 3f d9 41 36 3f 0c 54 d6 3f
       -1.2690048 0.5775609 0.71194226 1.6744399
000070 fb 43 a0 3e c3 7f 93 bd d3 f2 e7 3d 9e 05 08 3f
       0.31301865 -0.07202103 0.11325612 0.5313357
000080 d7 91 ca bf b1 97 37 be f4 73 7b bd 14 e5 c7 3e
       -1.5825757 -0.1792896 -0.06138988 0.3904196
000090 84 d4 14 3e 2a 89 a1 bf 78 93 e2 3d 58 da d5 bf
       0.14534193 -1.2619984 0.11063284 -1.6707258
0000a0 d2 0c a7 bf 2b 05 b0 3e 51 9b 1f 3e c0 c8 6e 3e
       -1.3050787 0.34378943 0.15586592 0.23318768
0000b0 33 5c a7 3e 2a 1b 48 3e cc 55 2f 3e 8b 77 78 bc
       0.3268753 0.19541612 0.17122573 -0.01516522
0000c0 25 02 b2 bf e2 ea 1e 3f 27 10 79 bf 93 a8 07 3f
       -1.3906904 0.6207715 -0.9729027 0.529916
0000d0 d9 86 fa 3e 81 f1 47 3f fe e5 10 3e 3c b7 9f bd
       0.48931006 0.7810288 0.14150235 -0.07798621
0000e0 0d 96 90 3e eb d4 26 3f af 75 1c 3f f8 06 96 3e
       0.2823948 0.6516864 0.6111707 0.29302192
0000f0 e6 6c e6 3e b9 a0 d0 3f af 1b a8 bf a7 d5 98 3e
       0.45004958 1.6299049 -1.3133448 0.29850504
000100 8b 15 d0 3e 09 5b 4b 3e c5 b7 cb bf 7a 6e fc 3e
       0.40641436 0.19858946 -1.5915457 0.49303037
000110 21 26 a8 bf 71 ad 9e bc 76 4f 34 3d 4a 39 11 c0
       -1.3136636 -0.019369813 0.044021092 -2.2691216
000120 d0 97 b2 3e cb 4c c6 3d eb 43 ab bf 55 78 12 3f
       0.3488145 0.09682616 -1.3380102 0.5721486
000130 fa 04 9f bf 5f 21 06 3f c1 dc 72 3e d1 92 58 3e
       -1.2423394 0.5239467 0.23717023 0.21149756
000140 51 3b ca 3e eb 3e 04 3f b0 91 01 3f a2 ea af bf
       0.3949838 0.51658505 0.50612926 -1.3743479
000150 5e a9 38 3f f0 e4 39 3e 69 d0 cb 3e 20 3d ad 3e
       0.72133434 0.18153739 0.39807442 0.33835697
000160 bc 59 08 3f 49 b4 9e 3e ee 53 d8 3e a8 1e af 3e
       0.53261924 0.30996922 0.42251533 0.34203076
000170 d5 86 ad bf cb 08 81 3e 98 be 1b 3f 0d 7c c2 3e
       -1.3556772 0.2520202 0.608377 0.37985268
000180 c9 16 f2 bf b9 66 d4 bd d4 24 c7 3e ca 52 9f 3d
       -1.8913203 -0.10371155 0.38895285 0.07779463
000190 dc 69 f1 3c dd af f1 3f af 3a 4d bd f6 e4 13 3f
       0.029469423 1.8881794 -0.050104793 0.5777124
0001a0 8e f3 a5 bf 11 25 a9 3e 1c de f5 3d 34 67 1f 3f
       -1.2964952 0.33036092 0.120052546 0.6226685
0001b0 1e ed 23 3f e4 a8 d7 bf 99 2a d9 3e 4f c0 c5 3e
       0.6403369 -1.6848416 0.42415312 0.38623282
0001c0 15 dc dc 3f fa 13 ae bf 4d ee 96 3e af cc 42 3e
       1.7254664 -1.3599846 0.29478684 0.19023393
0001d0 25 6d 74 3e 09 3d cf 3f 39 ab 29 3e 8f 38 ea 3f
       0.2386976 1.6190501 0.16569223 1.829851
0001e0 47 57 86 3e 45 fe 09 3f 22 96 f7 3d f6 43 c1 bf
       0.26238462 0.5390361 0.120891824 -1.5098865
0001f0 a9 68 62 3e 18 7a a0 bf 09 27 1a 3f c0 f7 71 3f
       0.22110237 -1.253726 0.6021581 0.9451866
000200 9c da a7 3e 72 b9 0c 3e 5b 58 15 3f e3 a9 bf 3e
       0.32783973 0.13742617 0.58337945 0.374343
000210 52 4b e0 3e 11 ff d3 bf 4a 27 cd bf df 25 e8 3e
       0.43807465 -1.6562215 -1.6027615 0.45341393
000220 d7 4f 78 3e 3b a9 91 bf 1d 46 e2 3e 7f 0c bf 3e
       0.24249206 -1.137977 0.44194117 0.3731422
000230 26 5b 76 3f c8 26 ba 3f 1b 5d ac bf 60 28 26 3f
       0.9623283 1.4543085 -1.3465914 0.6490536
000240 09 62 2f bf d1 17 1b 3f 9f 56 a7 bf 90 86 22 3b
       -0.68508965 0.60583216 -1.307331 0.0024799444
000250 f9 a0 cc 3e d2 ba b7 3e fc ea 7d 3e 4f ed aa 3e
       0.39966562 0.3588472 0.2479667 0.33384177
000260 76 5f cf bf e1 00 f9 3e ee 71 db 3e f8 d4 f3 3f
       -1.6201007 0.48633483 0.4286036 1.9049368
000270 9d 7d 1f 3e 29 38 e1 3d 0d 53 2d 3e d0 ad 35 3e
       0.15575261 0.1099704 0.16926213 0.17742085
000280 e6 de c6 bf f0 33 fd 3d a4 94 be bd 0e 9d b8 3e
       -1.5536773 0.12363422 -0.09305695 0.36057323
000290 28 03 ad 3e 00 0b af bf 6f b6 cc 3e 67 6a b6 bf
       0.3379147 -1.3675232 0.39982936 -1.4251221
0002a0 4b b8 8f bf 98 40 c8 3e db 54 77 3d 2a a0 e6 3e
       -1.1228117 0.3911178 0.06038366 0.4504407
0002b0 3b e8 fc 3e 96 53 06 3f 93 54 df 3d 87 20 0b 3e
       0.49395928 0.5247129 0.10904803 0.13586627
0002c0 3a b1 b5 bf e8 c9 da 3e 9a 95 46 bf 99 c5 f1 3e
       -1.419471 0.42732167 -0.77572024 0.47221068
0002d0 7f 7c f7 3e d2 10 30 3f b8 e1 d2 3e df c3 be bd
       0.4833717 0.68775666 0.41187835 -0.09314703
0002e0 7a e1 76 3e eb e5 01 3f 3c 99 1d 3f b4 2e c4 3e
       0.2410945 0.5074145 0.6156194 0.38316882
0002f0 1d e0 ce 3e 9c 73 df 3f 76 e7 a6 bf 4f 7c 0f 3e
       0.4040536 1.7457156 -1.3039386 0.14012264
000300 eb a3 5f 3e 30 01 7b 3e 4b f3 b7 bf 53 18 24 3f
       0.21839873 0.24512172 -1.4371122 0.64099616
000310 cf bb 8d bf e1 23 61 3d d6 97 bf 3d 91 58 0d c0
       -1.107294 0.054965857 0.09355132 -2.2085307
000320 96 6e 4c bd 70 b4 66 3e ff ee c2 bf a8 88 dd 3e
       -0.04991015 0.22529769 -1.5229186 0.43268323
000330 c6 64 a0 bf 81 06 33 3f dc e9 dc 3e 73 ca 3b 3e
       -1.2530754 0.699318 0.4314717 0.18338947
000340 34 79 1c 3e 48 be 51 3e 6a 9c e2 3e ce 46 86 bf
       0.1528061 0.20482743 0.4425996 -1.0490358
000350 6a c4 32 3f c0 6a c3 3d a0 6b a4 3e ba 22 a8 3e
       0.69830954 0.09541845 0.3211336 0.32838994
000360 73 8c 03 3f 61 68 bd 3e 83 de 1d 3f d4 d2 89 3e
       0.51386184 0.36993697 0.6166765 0.26918662
000370 75 ef 82 bf 9a 18 57 3e 6c 3e 39 3f b1 1a d5 3e
       -1.0229326 0.21005479 0.72360873 0.41621926
000380 cc 83 ff bf b4 90 84 3d 86 6f 23 3e c1 e3 b5 3e
       -1.9962096 0.064729124 0.15960512 0.35525325
000390 2f ca 40 be ab bb ec 3f d3 13 b9 3c 2e 64 c9 3e
       -0.18827127 1.8494772 0.02259246 0.39334244
0003a0 15 24 c4 bf c9 29 2d 3e 09 e0 99 3d cd 45 13 3f
       -1.5323511 0.16910471 0.075134344 0.5752838
0003b0 94 ad 26 3f 40 2d ce bf f4 4d 85 3e 92 9b 94 3e
       0.6510861 -1.6107559 0.26036036 0.2902494
0003c0 44 67 d0 3f af 03 9a bf f4 76 e9 3e d2 40 77 3e
       1.6281514 -1.2032374 0.45598567 0.2414582
0003d0 d1 00 fb 3d 9c 47 c5 3f 2f 5d 0a 3e 6b da db 3f
       0.12256015 1.5412478 0.13512109 1.7176031
0003e0 29 0a 0d 3f 3c 3b 5a 3e 88 99 d3 3e 78 be c5 bf
       0.5509363 0.21311659 0.41328073 -1.5448751
0003f0 1b 93 be 3e 19 d5 b2 bf 33 ba f3 3e 44 26 98 3f
       0.37221608 -1.3971282 0.47602996 1.1886678

fc2.bias f4 [2]
000000 6a 5f b9 3d 4b f5 16 3e
       0.09051402 0.1474201
